models/anomaly_detection/final_model.pth (torch, 26044 bytes, 48 tensors)

layers.0.weight f4 [8, 10]
00000000: bda1 a4be 00a5 cdbe 7d21 a43e 4996 2dbf
00000010: c827 263f 0759 663e 7867 383e cd1c 9fbd
00000020: 39d1 223e 45f0 983d 9082 993e 5c25 653e
00000030: c02b 2b3d 91d5 b53e feab a1be 2d5d c7be
00000040: 8d50 ad3e deb2 09bf 5978 ed3e 8a91 da3e
00000050: aa3b 323f 3681 02be dd46 89be 2e79 a5bd
00000060: 5135 923e ddb1 4dbd 7f0d 0abf 2d99 febe
00000070: 8881 aabc e76b 8dbc 75b2 5fbe dd61 8abe
00000080: b6a1 f8be e591 d83e f693 dc3e 1c2c d53e
00000090: 86a6 95bd 2625 a93e 5a1e 12bf 3cf9 b0be
000000a0: 7eab 753e 299c 66be bd98 83be 842b 2cbe
000000b0: 1e1b 84be f5c1 41be 4630 2dbe 1903 97be
000000c0: 8bbc 50be 6736 0cbe bba0 1fbf 261c 273f
000000d0: ed3c 0dbe 0c3a 283c 51ce 0f3d 7a94 243e
000000e0: ea7e f93e bf67 923e 025f 923e a639 35be
000000f0: a697 d93e 0fd0 d63e 4863 ab3d 4a4b 073f
00000100: a88d 36be faa9 d73e d180 e8be 2ecd 1e3e
00000110: bf30 a33e a58a 32bd 57e7 5dbe 5b39 6dbe
00000120: 9138 f6be f3d7 6f3c 58d6 4abf e92d 8dbe
00000130: f8cf 013f ba01 a7bd 7859 b3be 144b d2be
-0.32154647 -0.40164948 0.320568 -0.6780744 0.6490445 0.22494899 0.1800822 -0.07769165
0.15900125 0.07467703 0.29982424 0.22377533 0.04178977 0.355145 -0.31576532 -0.38938275
0.33850518 -0.53788555 0.4638088 0.42689162 0.6962229 -0.12744603 -0.26811877 -0.08079754
0.28556302 -0.05021845 -0.53926843 -0.4972624 -0.020813718 -0.017263366 -0.2184542 -0.2702779
-0.48560876 0.4229881 0.43081635 0.41635215 -0.073071525 0.33036155 -0.5707756 -0.3456515
0.239912 -0.22520508 -0.25702468 -0.16813475 -0.2580194 -0.18921645 -0.16912946 -0.2949455
-0.20384423 -0.13692628 -0.6235463 0.65277326 -0.13792773 0.010267746 0.035108868 0.16072264
0.4872964 0.28594777 0.2858811 -0.17697772 0.4249851 0.4195561 0.08368546 0.52849257
-0.17827475 0.4212187 -0.4541078 0.15507957 0.31873128 -0.043589253 -0.2167028 -0.2316641
-0.48090032 0.014638889 -0.7923331 -0.2757409 0.5070796 -0.08154626 -0.35029197 -0.41072905

layers.0.bias f4 [8]
00000000: cd0e 9c37 4ec6 1bb8 98f8 ecb7 9bd0 9cb6
00000010: c861 1c39 9fca 16b8 9cd9 19b7 f45b f836
1.8603541e-05 -3.7139565e-05 -2.8249153e-05 -4.673447e-06 0.00014913746 -3.5951492e-05 -9.170177e-06 7.4016807e-06

layers.1.weight f4 [4, 8]
00000000: aebe 603d 819d 1dbf 1607 b4be ad37 c43e
00000010: e2d5 63be 3e11 373e caa1 ae3c 7a42 bf3d
00000020: f0da f6be cc1a 51be 6b9c 92be 1407 eaba
00000030: 94e3 583f cf68 4abe 97b9 aebe ada0 083f
00000040: f927 bdbe b51e 0e3e 2313 4f3e c9ae c03e
00000050: 13a1 1fbf 0fcd 803d 7830 2d3f a389 24bd
00000060: 115a b5bd 2cb3 193f 21d5 10bf 95f0 eebe
00000070: aa8d b2be 1715 003f 4297 2a3d a4bc a73e
0.054869346 -0.61568457 -0.35161656 0.38323727 -0.22249559 0.17877671 0.021317381 0.09338851
-0.4821391 -0.20420378 -0.28634962 -0.0017854893 0.84722257 -0.19766544 -0.3412597 0.5337017
-0.3694456 0.13878901 0.20222144 0.3763335 -0.62355155 0.06289112 0.6765208 -0.040170323
-0.088550694 0.6003902 -0.5657521 -0.46667925 -0.34873706 0.5003218 0.041648157 0.3276111

layers.1.bias f4 [4]
00000000: f44e c5b8 a3b9 beb7 aedc f238 cd39 ddb8
-9.408398e-05 -2.2736209e-05 0.00011580564 -0.000105488674

layers.2.weight f4 [8, 4]
00000000: 30df bf3d 21ba e5be 5cb9 41bf e659 07be
00000010: 00f7 523f a452 4a3e 6298 86bd b026 9dbe
00000020: e079 26bf bce0 7ebd cc70 693d 1b9a b63e
00000030: 86ad a03e 1498 3fbf 22b7 1c3f 7478 f2be
00000040: 8afb 803d ab8a 583f de6b 9bbe 8b29 9b3e
00000050: e8e4 1ebf f730 ea3d 18ed 5b3d 0efc edbe
00000060: 3743 92bd 51e3 0dbf 171e d53e 58ab 783e
00000070: f3c5 993e c3a9 84be 67fd 81be e618 c63e
0.093687415 -0.44868568 -0.7567346 -0.13217887 0.8240814 0.19758087 -0.065720335 -0.3069358
-0.65029716 -0.062226042 0.056992337 0.35664448 0.31382388 -0.7484143 0.6121694 -0.47357523
0.06297977 0.8458659 -0.30355734 0.30305132 -0.62068033 0.114351206 0.053692907 -0.46481365
-0.071417265 -0.5542498 0.4162452 0.24284112 0.30033836 -0.25910768 -0.25388643 0.3869087

layers.2.bias f4 [8]
00000000: 1e9e 36b9 e139 ffb8 5c97 7b39 0e32 bc37
00000010: a62f 2939 765a 1939 ff24 9138 41eb df38
-0.00017415776 -0.00012170128 0.00023993611 2.2434655e-05 0.00016134846 0.00014624916 6.92103e-05 0.00010677288

layers.3.weight f4 [10, 8]
00000000: 3e78 d3bd 31fc 97be b796 8f3d e262 8d3e
00000010: 6541 7fbc f1b6 013f 719f 133e 013f 06bf
00000020: d708 92be 14c1 67be 5c18 4a3d 2e29 cf3b
00000030: 8243 1fbe d19d 35be de21 0a3f 3625 c83e
00000040: 53a2 db3e 8f47 a3be efd5 ae3c 1cf4 dbbc
00000050: 7115 44be 39e1 88be f0a8 303e 6c45 98bd
00000060: 4cab 19bf 75d0 583e 64b3 c73e 140a af3e
00000070: 68bf 11be f198 84be a880 723e 2bd9 16be
00000080: 8354 043f be2c 0a3e 0483 28be a562 ce3e
00000090: b0e8 fabe ecef 373e e44f 45be 8bda e53d
000000a0: bf86 0e3d fd3e 583e 2fc8 92be 3187 b93e
000000b0: deea 43be 30b8 94bb df27 c63e ba8d 813d
000000c0: 80ca edbb 10dd cf3d 6514 d03e 47d9 c2be
000000d0: f52c 013e 91ef 01bf 89f9 60be 0a8f e73e
000000e0: a2a0 89bd 35b4 5a3e 7bfb 8ebe b355 ac3e
000000f0: 57d8 29bd 1971 ebbe fb88 6a3d 8f29 2d3e
00000100: f22c 963d 7545 a8be a998 6d3e b610 71bd
00000110: a537 35be 3a44 92bd 0604 013f 5758 703e
00000120: 7922 7e3e 4f28 12be 9d0f b43e f6ab 96bd
00000130: cfb2 66be 19d1 10bc f6bd 1e3c cdf1 0cbe
-0.10325669 -0.29684594 0.070111685 0.27614504 -0.015579556 0.5066977 0.14416291 -0.52439886
-0.2852237 -0.22632247 0.049339637 0.0063220477 -0.15553096 -0.17735983 0.5395793 0.3909089
0.4289728 -0.31890532 0.021342246 -0.026849799 -0.19148804 -0.2673433 0.17251945 -0.07435116
-0.60027003 0.2117327 0.39004052 0.34187376 -0.14233172 -0.25897935 0.23681891 -0.1473128
0.51691455 0.1349363 -0.16456228 0.40309635 -0.4900565 0.17962617 -0.19268757 0.112233244
0.034796473 0.21117778 -0.28668353 0.36235955 -0.19132563 -0.0045385584 0.38702294 0.0632586
-0.007256806 0.10149586 0.4064056 -0.38056394 0.12614806 -0.50756174 -0.2197019 0.45226318
-0.067200914 0.21357806 -0.2792624 0.33659133 -0.041466083 -0.45984724 0.05725954 0.16910385
0.073327914 -0.32865492 0.23202766 -0.058853827 -0.17697008 -0.071419194 0.50396764 0.23471199
0.24817838 -0.14273189 0.35168162 -0.07357018 -0.22529148 -0.008838915 0.009688845 -0.13764115

layers.3.bias f4 [10]
00000000: 99d4 f13c 8e9b 6dbc 16a6 a53d 5810 f3bc
00000010: 9a50 01be b563 21be 71bd 18bd ef68 98bc
00000020: 331d cbbd 71e3 503d
0.02952032 -0.014502419 0.08088319 -0.02967088 -0.12628403 -0.15760691 -0.03729004 -0.018604724
-0.09917679 0.050998155

normalizations.0.weight f4 [8]
00000000: 7250 693f d04d 443f 9616 673f 4037 703f
00000010: 64b8 753f e3a7 943f 1397 973f 4828 a83f
0.91138375 0.7668123 0.9026884 0.93834305 0.9598448 1.1613735 1.1842979 1.3137293

normalizations.0.bias f4 [8]
00000000: ae78 283e bfb1 7c3d 36a7 49bb df19 1c3d
00000010: 45df 0ebd 9aba e83c 2b49 a63d a34f b73e
0.16452286 0.06169295 -0.0030769832 0.03811061 -0.034880895 0.028409291 0.081194244 0.35802945

normalizations.0.running_mean f4 [8]
00000000: 0a39 debc 8cdb e43c 48c4 823c d056 1a3a
00000010: 60ef e3bb 6036 4a3a b403 323d 0a71 b1bc
-0.027126808 0.02793672 0.015962735 0.000588757 -0.006956026 0.0007713791 0.043460563 -0.021660347

normalizations.0.running_var f4 [8]
00000000: d707 c43f ee47 b63f a89c 973f 5720 ae3f
00000010: 1d76 f83e 8dc9 a63f 9b53 a93f 37f7 e03f
1.5314893 1.4240701 1.1844683 1.3603619 0.48527613 1.3030258 1.3228639 1.7575444

normalizations.1.weight f4 [4]
00000000: f0c7 763f ecd9 733f e5fc 393f a1a8 563f
0.9639883 0.952544 0.7265151 0.8385106

normalizations.1.bias f4 [4]
00000000: ad9d e03e 852a fe3e 4c67 9c3e a719 1a3f
0.43870297 0.49641815 0.3054756 0.6019539

normalizations.1.running_mean f4 [4]
00000000: 98f7 aebd 501d 553d 2c89 5b3e acd5 173e
-0.085433185 0.052029908 0.21439046 0.14827603

normalizations.1.running_var f4 [4]
00000000: 7478 be3e d0ca 943f 59d2 323f 4f33 503f
0.37201273 1.1624393 0.69852215 0.8132829

normalizations.2.weight f4 [8]
00000000: a404 5e3f 191b 583f b962 5e3f 4967 523f
00000010: 2335 4c3f 9ab7 5f3f cd35 523f b5ab 693f
0.8672583 0.8441635 0.8686939 0.8218885 0.7976858 0.8738953 0.82113343 0.9127763

normalizations.2.bias f4 [8]
00000000: d53f 55bd f7f0 18bd 7f77 de3b adab 133d
00000010: 002c 773e 87c1 c6bd 1ea5 cebd 49f2 03be
-0.052062828 -0.037339177 0.0067891474 0.036052395 0.24137878 -0.09704881 -0.10090087 -0.12885393

normalizations.2.running_mean f4 [8]
00000000: 5300 2cbf b8e5 c03e 6079 19be d380 aebe
00000010: f21e 273f 4627 1dbf 8a8f f7bc e47b 333e
-0.67187995 0.37675261 -0.14987707 -0.3408266 0.65281594 -0.6138805 -0.030219812 0.1752773

normalizations.2.running_var f4 [8]
00000000: 4e02 903e a45d df3e 35a9 933e 1952 733f
00000010: a911 443f 34e3 a83e 9c77 e13e a006 323e
0.28126758 0.4362613 0.28840032 0.95047146 0.7658945 0.32985842 0.44036567 0.1738534

exp_avg f4 [8, 10]
00000000: b578 f83a c95f 02bb 44eb b63a 6fe1 8138
00000010: f42d 9dba 7675 22b9 d9cf 883a aa70 98ba
00000020: a722 813a afca 50bb cb94 1db9 3f27 233b
00000030: 28bb 13bb 8d5b af3a 7423 5fbb a227 75ba
00000040: b5b3 61bb 4a1c 8e39 1afc 94ba 64f5 9cba
00000050: 1139 baba 5c91 44bb 244a a13a 1173 afb9
00000060: 6a10 cb3a fb39 94bb 2220 c93a 6045 0cbb
00000070: a653 72ba bc86 0b3b 4e6a 36bb 00c1 d739
00000080: 3026 ff39 0824 ac3a 44fa 393a fd51 80ba
00000090: daba 9d3a a34d a6ba 4a63 8aba 0403 1c3b
000000a0: 9e4c 27bb 33f3 52ba aaeb f2bb f277 803b
000000b0: 2505 d8ba d034 33b9 4e97 483b a2c2 8dba
000000c0: 2c17 603b baf6 473b f42d 763b ca96 723b
000000d0: f6b8 4639 dacb 373b 78ca bf3a 9d7f 193a
000000e0: 1620 36bb f20a 4c3b 121e 3bba 8d8a 12bb
000000f0: c43e 753b fd0e efba 04ad 0039 a293 1eba
00000100: a2e4 bd3b 30a6 4f3b 5c32 1139 ba46 95ba
00000110: 167e b4ba a38e 853b 291c 42ba edb4 df3a
00000120: ea5f 7c3a a4d8 103b b228 76ba 6415 53ba
00000130: 9ce2 1f3a ae88 a03a 202d 81b8 1627 af3a
0.0018956872 -0.0019893518 0.0013955613 6.1931896e-05 -0.0011991845 -0.00015493282 0.001043792 -0.0011630256
0.0009852246 -0.003185909 -0.00015028116 0.0024895219 -0.0022541974 0.0013378725 -0.0034048231 -0.0009351914
-0.003443939 0.00027105428 -0.0011366636 -0.0011974988 -0.0014207681 -0.0029993868 0.0012305421 -0.00033464332
0.0015492563 -0.0045235134 0.0015344659 -0.0021403655 -0.0009244032 0.0021290025 -0.0027834359 0.00041151792
0.00048665842 0.0013133297 0.00070944824 -0.0009790059 0.0012033836 -0.0012687932 -0.0010558155 0.0023805508
-0.0025527845 -0.0008047104 -0.0074133473 0.0039205486 -0.0016481025 -0.00017090444 0.0030607763 -0.0010815451
0.00341935 0.003051205 0.0037564011 0.0037016147 0.00018951655 0.002804509 0.0014632484 0.00058555027
-0.002779012 0.0031134454 -0.0007137965 -0.0022360415 0.0037421444 -0.001823872 0.00012271485 -0.00060492207
0.0057950774 0.0031684749 0.00013847038 -0.0011388876 -0.0013770487 0.0040758415 -0.0007404709 0.001706747
0.00096273294 0.0022101784 -0.00093902193 -0.00080521987 0.0006099136 0.0012247765 -6.1596045e-05 0.0013363089

exp_avg_sq f4 [8, 10]
00000000: de81 3338 4390 4538 1af2 3238 c3f7 3438
00000010: dd29 4e38 f2d3 4c38 5fcf 4f38 7254 8038
00000020: 0c4f 2538 03b7 4f38 a738 3939 79a4 4439
00000030: 71d4 4839 e3d9 6639 56ec 4039 0ff7 2339
00000040: d174 3539 6e37 fe38 7850 1e39 5ae5 1339
00000050: 00fc 8538 1dcc e038 d991 aa38 ac86 e638
00000060: abef a238 83e4 fa38 affa fd38 db48 b738
00000070: f23e d038 4329 c238 f778 0c39 da31 1939
00000080: a202 c538 ac1d 0939 5b0d f038 1e2d 2839
00000090: 0112 1939 ce24 3e39 de7d ee38 be50 f338
000000a0: 1401 093a 2eef 123a 3c33 053a 47af 223a
000000b0: d736 153a 63aa 183a 8e7b 1b3a 12ca 233a
000000c0: 8d55 0b3a f7ad 0f3a 1ee5 f037 b4ca f137
000000d0: 242e 1f38 71a1 2838 b605 2338 9d22 1138
000000e0: 3f93 0e38 863d 1838 b863 4138 a6a9 2a38
000000f0: 6305 e738 b198 1539 272a 0739 df65 f838
00000100: 7358 1739 fa11 2139 b285 e138 0387 0539
00000110: 377c f138 6567 1539 a05a 8138 d431 5338
00000120: 1c06 3738 b81d 8838 c3d6 1c38 2123 4138
00000130: 0f65 3638 f283 8c38 4832 3b38 9e2c 3838
4.2797874e-05 4.7102814e-05 4.266398e-05 4.314609e-05 4.9153216e-05 4.883478e-05 4.9545775e-05 6.119245e-05
3.9412684e-05 4.952309e-05 0.0001766408 0.00018753287 0.00019152627 0.00022015678 0.00018398589 0.00015636928
0.00017305023 0.000121219884 0.00015098031 0.00014104453 6.388873e-05 0.000107191714 8.133398e-05 0.00010992339
7.7694036e-05 0.000119634926 0.000121106736 8.7396904e-05 9.9299374e-05 9.2583265e-05 0.00013396503 0.00014609788
9.3941824e-05 0.00013076392 0.000114465794 0.00016038536 0.00014597924 0.00018133523 0.00011372169 0.00011602182
0.0005226296 0.00056050986 0.0005081182 0.0006205928 0.00056920707 0.00058237294 0.0005931192 0.00062480674
0.0005315177 0.000548094 2.871692e-05 2.882383e-05 3.7951526e-05 4.0204675e-05 3.8867547e-05 3.460293e-05
3.3992572e-05 3.6296922e-05 4.6107656e-05 4.0689156e-05 0.00011015942 0.0001426663 0.00012890306 0.000118445365
0.00014433432 0.00015360853 0.00010753739 0.00012734164 0.00011514912 0.00014248265 6.1680796e-05 5.0352726e-05
4.363629e-05 6.490521e-05 3.739331e-05 4.6047502e-05 4.34863e-05 6.700297e-05 4.4631102e-05 4.391057e-05

exp_avg f4 [8]
00000000: b6a8 092f 3879 1eaf fedb c52e 50fb a72e
00000010: c0fc 35ae d34e 962f 2e1f 352f c443 16ae
1.2520016e-10 -1.4413082e-10 8.997601e-11 7.638923e-11 -4.1379122e-11 2.734085e-10 1.6472931e-10 -3.416624e-11

exp_avg_sq f4 [8]
00000000: ca39 2821 75d6 fd21 5f59 9921 e8f1 da21
00000010: e976 f122 b902 0c21 6883 dc21 8267 1c21
5.6997097e-19 1.7200713e-18 1.039134e-18 1.4836287e-18 6.544908e-18 4.743745e-19 1.4942563e-18 5.2991847e-19

exp_avg f4 [4, 8]
00000000: 1cf6 c4ba b2e5 ceb9 1527 87bb 080d ccbb
00000010: 0fa8 32bb fcef 243b 65fb 353a 14da 69bb
00000020: b076 7aba f175 d7ba 9b63 5f3a 2919 5abb
00000030: 9c59 76b9 e651 a93b 4f5f 40bb 3db3 35ba
00000040: 059b 113c 932e fe3a 6618 aeba 8a83 ab3b
00000050: 0e31 6dbb c764 fb3b 1026 24bb 5437 a6bb
00000060: 008b 95bb 76de b8b9 2065 e7b8 ad94 1d3b
00000070: ce22 55ba 7d79 ac3a 7495 cd3b d375 97ba
-0.001502696 -0.00039462518 -0.004124532 -0.0062271394 -0.0027260815 0.0025167456 0.0006942063 -0.0035682963
-0.0009554429 -0.0016438348 0.0008521617 -0.0033279157 -0.0002349377 0.0051672338 -0.0029353683 -0.00069313106
0.008887057 0.0019392542 -0.0013282418 0.0052341865 -0.003619257 0.0076719257 -0.00250471 -0.0050725136
-0.004563689 -0.0003526096 -0.00011033774 0.0024044916 -0.00081304915 0.0013158765 0.0062739197 -0.00115555

exp_avg_sq f4 [4, 8]
00000000: 2429 0d3a 02f9 0339 64d0 8939 af91 023a
00000010: b65f c239 d6e6 383a 896e 3e3a 4da3 893a
00000020: 6508 a338 2914 9238 36f4 9338 fc5f 1c39
00000030: 8aab c038 3a92 2e39 0f9c 9438 dbf5 4a39
00000040: 0bff 6039 408d 3639 2eb6 2939 1eec 9139
00000050: 8c3f c938 3717 9839 6f9e 6139 94ac 5639
00000060: aa2e bb38 1e78 c038 fa74 3e38 f8db 5838
00000070: dee3 8538 6d08 1239 0e4e 5539 7f2a 4639
0.00053848536 0.00012585896 0.0002628594 0.0004980815 0.00037073874 0.000705344 0.0007264396 0.0010500938
7.774009e-05 6.9655776e-05 7.054994e-05 0.00014913076 9.187225e-05 0.00016648407 7.086258e-05 0.0001935581
0.00021457316 0.00017409492 0.00016184963 0.00027832476 9.5962634e-05 0.00029008996 0.00021516693 0.00020472921
8.925547e-05 9.177647e-05 4.5408473e-05 5.1703275e-05 6.384378e-05 0.00013926784 0.0002034234 0.00018898582

exp_avg f4 [4]
00000000: 47ba 3fb0 4896 c92d 6cbb 5c2f 3d68 86af
-6.975011e-10 2.2917793e-11 2.0075469e-10 -2.4448524e-10

exp_avg_sq f4 [4]
00000000: 1b21 8823 9728 8422 48c1 ca22 f6d3 7822
1.475917e-17 3.5821648e-18 5.4956854e-18 3.3722479e-18

exp_avg f4 [8, 4]
00000000: d7dd 003c 8e2f 5a3b 31b9 25ba 963b 02bb
00000010: 4a77 bd3a 2fb3 3abb 9238 a4b9 7054 0b3b
00000020: 0258 2c3b 6ba2 23bc b684 163c 86fe b23a
00000030: 5976 4b3b 33c7 9fba a0c9 12bb 168a 8f3a
00000040: 509b a53a 7762 68b9 84ca 493a 1a68 943a
00000050: f463 65ba eac7 0eba 3630 ff3a a8f1 a63a
00000060: 1f76 65bb 2025 c2b9 5561 26bb 1da1 1d3b
00000070: 182e 0dbb c807 9fbb b849 5cba 5713 14bb
0.007865391 0.0033292505 -0.0006321846 -0.0019871942 0.0014455107 -0.002848815 -0.00031322666 0.0021260045
0.0026297574 -0.009987454 0.009186914 0.0013656176 0.0031045882 -0.0012190103 -0.002239801 0.0010951187
0.0012634788 -0.00022161925 0.00076977187 0.0011322529 -0.0008750551 -0.00054466596 0.0019469324 0.0012736814
-0.0035013033 -0.00037030224 -0.0025387604 0.002405233 -0.0021542367 -0.0048532225 -0.0008403319 -0.0022594535

exp_avg_sq f4 [8, 4]
00000000: 6004 343a 1d08 d338 0e5c 3e38 eb57 d639
00000010: 344c 6b38 5b9b 9e39 1d6c 6238 2f6c 9a38
00000020: f29c 0139 f0ea b339 c6ef fa39 fae7 be39
00000030: fa67 1c39 74c1 3138 e094 cb38 31ab 8838
00000040: f287 f038 37d5 9d38 c9c1 af38 fe94 2f39
00000050: 07fd bd38 cc9d 343a 1604 e139 515a 6239
00000060: 0168 9239 cd8f d638 00d0 6739 7643 a239
00000070: 8b3b 393a 1c8a 5339 e1cf 1939 867b 063a
0.0006867107 0.00010062775 4.5385263e-05 0.00040882765 5.6099336e-05 0.00030251857 5.3983287e-05 7.363443e-05
0.00012360865 0.00034316583 0.0004786236 0.0003641246 0.00014916054 4.2380256e-05 9.7075244e-05 6.516872e-05
0.000114694136 7.526058e-05 8.3807456e-05 0.00016744804 9.059352e-05 0.00068899686 0.00042918388 0.00021586685
0.0002792478 0.000102311 0.00022107363 0.0003094931 0.00070660625 0.00020173978 0.00014668658 0.0005130101

exp_avg f4 [8]
00000000: f926 9bb0 202b 37ae 10dd 84ad 803f 92ae
00000010: c840 33ae 7823 862e b413 52af a6b4 aeb0
-1.1288811e-09 -4.1647685e-11 -1.5104834e-11 -6.650591e-11 -4.0757425e-11 6.099915e-11 -1.9106389e-10 -1.271151e-09

exp_avg_sq f4 [8]
00000000: 3430 bc23 96e4 8522 1d2c 9723 d4d4 9122
00000010: ee5d ac22 9f55 8723 a51d 3723 d802 9123
2.0403416e-17 3.6291747e-18 1.6390136e-17 3.952767e-18 4.6720145e-18 1.4672991e-17 9.926727e-18 1.5722136e-17

exp_avg f4 [10, 8]
00000000: 5221 4a3b df53 b6bb 69a5 76bb a488 bcba
00000010: aae4 c7bb 0a96 03bb 72ea b0bb dbe7 82bb
00000020: ae34 61bb ca3a dd39 3689 9bbb e190 a0bb
00000030: 5615 87bb 01da a3bb 184c cbb9 c6db 17bb
00000040: 027c dbba dc65 313b 46f8 273b 8d48 05bb
00000050: 1088 9dba de93 11bb ea95 e63a 60cc bb3a
00000060: 0231 11ba 7935 04bc 0f20 373b dee6 55ba
00000070: f3d0 293a 0b1e 0f3b 2a9e 4ebb 1522 aaba
00000080: c426 9cbb fedb 9d3b ae46 56bb 67d2 973b
00000090: 0bc7 d9bb 74b8 c4bb acd5 183a f0e0 8338
000000a0: 78ac d739 92f6 b63b f6f6 18bb 1c7b 3bbb
000000b0: 7f8c cd3b 208e 29bb ffd3 0aba fd41 4a3b
000000c0: 9c11 1dba febf 563b db42 a7ba 72fe 913b
000000d0: 5013 f5bb f01a 37b8 2d29 943a 9cbd 7cbb
000000e0: 28fd 303c 6092 21bc c5e2 afbb c5fd 8dbb
000000f0: f85b 7fba 88ca 82ba ce35 dbbb f306 b5bb
00000100: 6844 173a 121a 78bb 9a6d 963b aaaf 54bb
00000110: 20d5 9639 042f 373b 1534 3c3b ece4 b93a
00000120: d418 283b a081 ba39 ff9e 5e3b a0db 90ba
00000130: ae6d 66bb 700d 1b3a 8d85 3b3b 0eaa 3b39
0.0030842614 -0.0055641974 -0.0037635213 -0.0014383984 -0.006100257 -0.0020078444 -0.005399042 -0.0039949245
-0.0034363675 0.00042196206 -0.0047465814 -0.0049000834 -0.0041224165 -0.0050003533 -0.00038775872 -0.0023171767
-0.0016745331 0.002706877 0.002563016 -0.0020337433 -0.0012018699 -0.002221338 0.0017592285 0.0014327876
-0.0005538614 -0.0080693895 0.0027942692 -0.0008159707 0.0006477974 0.0021837975 -0.0031527379 -0.0012980128
-0.0047653634 0.004817485 -0.0032695937 0.004633236 -0.006646042 -0.006003434 0.00058301794 6.288465e-05
0.00041136495 0.0055835927 -0.002334056 -0.0028607314 0.006272852 -0.0025872067 -0.0005295872 0.0030862086
-0.00059916987 0.0032768245 -0.0012761013 0.004455381 -0.007479109 -4.3655687e-05 0.0011303775 -0.0038565164
0.010802545 -0.009861559 -0.005367609 -0.00433323 -0.00097411824 -0.0009978572 -0.0066897636 -0.00552451
0.0005770386 -0.0037857336 0.0045907022 -0.0032453337 0.0002876902 0.0027951607 0.0028717567 0.0014182604
0.0025649564 0.00035573263 0.003396928 -0.0011051781 -0.003516059 0.0005914783 0.0028613538 0.0001789706

exp_avg_sq f4 [10, 8]
00000000: 8022 3939 d3f1 bb39 606d e539 3d50 b639
00000010: 5a30 113a a304 8139 0972 9139 3c35 9239
00000020: 375c 8039 0e81 c839 10ee ef39 2247 be39
00000030: 2415 313a 0ab1 7939 de29 7239 1c35 c139
00000040: a160 4b39 58fa 9839 3050 053a af4a 9a39
00000050: 22b4 3a3a d88b 7339 9cc5 a239 944e ac39
00000060: 5ad3 5139 1760 da39 da9b d739 c95e b539
00000070: 6e83 3d3a 3036 8d39 2bf4 8c39 8d32 bc39
00000080: d6d4 5639 5f31 b339 fc69 d039 74b6 9639
00000090: 8000 153a 0e60 4e39 965a 7739 2f17 9c39
000000a0: 0ba3 8439 79cd ea39 7aad 1f3a 52e7 e439
000000b0: 3108 393a bb94 ce39 cbe4 f039 a468 d939
000000c0: 70a5 6f39 8d1e eb39 5af3 e439 2bed c739
000000d0: d31b 2c3a 7462 7d39 0f5c 9239 bec5 d039
000000e0: cda0 8739 ec55 0c3a 97ac cc39 dacd 083a
000000f0: fd85 4a3a 5c14 7f39 a24d 8339 6298 053a
00000100: 358b 5f39 ba86 d339 2270 b339 67ad ba39
00000110: 0bb6 233a 17ac 6139 59f3 4f39 2d46 a639
00000120: 813d 7539 6802 bc39 037b b739 fd44 a539
00000130: 4242 223a 8506 3d39 9ea8 6a39 5f62 9239
0.00017655827 0.00035847593 0.00043759774 0.00034773527 0.0005538516 0.00024608252 0.00027741518 0.00027886953
0.00024482768 0.00038243126 0.00045763003 0.00036292622 0.00067551644 0.00023812443 0.00023094515 0.00036851398
0.00019395586 0.0002917822 0.0005085496 0.00029428813 0.0007122179 0.00023226382 0.00031046278 0.00032864942
0.00020010528 0.00041651793 0.00041124114 0.0003459363 0.00072293624 0.0002693399 0.000268848 0.00035895818
0.00020487918 0.00034178325 0.00039751816 0.00028746168 0.00056839734 0.00019681474 0.00023589502 0.00029771912
0.00025298478 0.00044785047 0.00060912187 0.00043659896 0.00070584106 0.00039402195 0.0004594683 0.0004146743
0.00022854446 0.00044845455 0.0004366886 0.00038132942 0.00065654254 0.00024164637 0.0002791588 0.0003982018
0.00025869012 0.00053533795 0.00039038502 0.00052186626 0.0007725654 0.0002432628 0.00025044108 0.0005096254
0.00021318796 0.00040345435 0.00034225086 0.0003560588 0.0006245083 0.0002152178 0.00019831712 0.00031714272
0.00023387933 0.00035859947 0.0003499613 0.00031522653 0.0006189683 0.00018026873 0.00022378794 0.00027920582

exp_avg f4 [10]
00000000: a848 98bb 540d fbbb 5838 1d3a 8cda b4bb
00000010: dc46 9f3a c696 22ba f989 a83b 7fd6 21bb
00000020: 40be 8ab8 6298 083b
-0.004647333 -0.007661501 0.00059974706 -0.005519217 0.0012151855 -0.00062022766 0.0051434007 -0.00246945
-6.6157896e-05 0.002084278

exp_avg_sq f4 [10]
00000000: ac7e 883a 0ed7 9b3a 0074 813a b7af 933a
00000010: fb0c 903a ae2b 933a f36e 983a 6e39 953a
00000020: 85a7 843a ced1 833a
0.0010413728 0.0011889653 0.000987649 0.0011267577 0.0010990197 0.0011228228 0.0011629745 0.0011384913
0.0010120725 0.0010057034

exp_avg f4 [8]
00000000: c6c7 16bb 884f 7b3a 7a30 923a fd47 c8ba
00000010: a877 4c3b 7c8d 0c3a 3822 75b9 3528 39b9
-0.0023007258 0.0009586741 0.0011153363 -0.0015280243 0.003119925 0.0005361659 -0.00023377768 -0.00017657953

exp_avg_sq f4 [8]
00000000: 6b12 7b38 3fb3 0a39 4d3f aa38 44ce ff38
00000010: 9e83 0739 e1c0 2638 1ef5 5838 9c92 eb37
5.9860216e-05 0.0001322748 8.1180224e-05 0.000121977675 0.00012923634 3.9757117e-05 5.1726696e-05 2.8082453e-05

exp_avg f4 [8]
00000000: cc57 0dbb 8704 ceba 2d53 0dba b831 ddba
00000010: f23e ad3a 34b5 71b9 f484 93ba cde9 deba
-0.0021567224 -0.0015717902 -0.00053911173 -0.0016875779 0.0013217612 -0.00023051054 -0.0011254833 -0.0017006934

exp_avg_sq f4 [8]
00000000: 3ad1 3538 99f2 2239 1ba7 a738 2012 bc38
00000010: 4371 2339 d1c5 d437 49d3 7e38 c1bc e037
4.334862e-05 0.00015539899 7.994306e-05 8.9679146e-05 0.00015587085 2.5364485e-05 6.0755094e-05 2.6790776e-05

exp_avg f4 [4]
00000000: c0c6 4e37 f4b3 053b c64a 193b ac9d 3a3b
1.2324832e-05 0.002040145 0.0023390516 0.0028475327

exp_avg_sq f4 [4]
00000000: ea95 2639 92cb db38 3fc8 4839 caf8 4739
0.00015886841 0.00010480652 0.00019148084 0.000190708

exp_avg f4 [4]
00000000: 0dc3 573b ef75 22bb 5e71 20bc 3e71 b5bb
0.0032922656 -0.0024789532 -0.009792654 -0.005537181

exp_avg_sq f4 [4]
00000000: 2de7 5939 6951 4b39 b4e9 9a39 0186 5039
0.00020780852 0.00019389916 0.0002954729 0.00019886346

exp_avg f4 [8]
00000000: e29a 3abb cbaf f739 1d57 c13b 6ca3 4bbb
00000010: 8e45 353b 1df5 a8ba 944a afba 53f0 90ba
-0.0028473665 0.00047242487 0.0059002773 -0.0031072749 0.0027659866 -0.0012890432 -0.0013373666 -0.001105795

exp_avg_sq f4 [8]
00000000: e604 dd39 b1cf 8a39 7fdb b239 7e27 cf39
00000010: 5dd4 8339 f6f9 0e3a 8a26 0a3a 35b0 bb39
0.00042156054 0.00026476153 0.00034114343 0.0003951154 0.0002514449 0.0005454117 0.0005270025 0.00035798704

exp_avg f4 [8]
00000000: 1ffe c5bb b6e4 e53a aa1a 7c3a 022e 43bb
00000010: 8d67 283b 0ce5 2ebb e418 2dbb f6aa a6ba
-0.0060422565 0.0017539475 0.00096170104 -0.0029782061 0.0025696487 -0.0026686816 -0.002641254 -0.0012715745

exp_avg_sq f4 [8]
00000000: 2777 0d3a e720 6139 265a f439 bddf 073a
00000010: 937b 6b39 2ee2 193a 551b 053a d18b b839
0.0005396478 0.00021469929 0.00046606472 0.0005183181 0.00022457381 0.000587019 0.000507762 0.00035199386
