models/churn_prediction/final_model.pth (torch, 73788 bytes, 45 tensors)

layers.0.weight f4 [64, 19]
000000 99 fc 51 be f6 7d 81 be d2 49 ce bd 58 1f 8a bd
       -0.20506515 -0.25291413 -0.10072674 -0.067442596
000010 53 88 67 3e bf 5d 48 bd b8 b7 b6 3d f6 68 9c 3d
       0.22610597 -0.04891753 0.0892176 0.07637207
000020 3b 5a 08 3e 5e 9b e4 3d fd 12 df bd 69 1d 0f 3e
       0.1331567 0.111624464 -0.108922936 0.13976063
000030 e4 da 14 be 68 3b 15 be 94 d0 7c 3e 36 e4 75 3e
       -0.14536625 -0.14573443 0.24688941 0.24012837
000040 07 68 10 be 70 1e 45 3d c8 00 49 3d cf 53 58 3e
       -0.14102183 0.04812473 0.04907301 0.2112572
000050 45 e8 35 3d 99 6b 1b be fb 68 31 3c 17 ab 49 3d
       0.044410963 -0.15177764 0.010828252 0.04923543
000060 2b b6 63 3d d7 8a 23 3d 4e 01 ad 3d 32 de 04 3e
       0.05559365 0.03992733 0.084475145 0.12975386
000070 26 2a 60 bc 51 0f 35 3d f1 8d 10 3d a7 6e 9c 3d
       -0.013681924 0.04420406 0.035291616 0.07638293
000080 2c fe 22 bd 6a bd 77 3e 92 c0 35 bd 3b 3d 16 bf
       -0.03979318 0.2419335 -0.044373102 -0.5868718
000090 17 1e 9b bd cb 99 06 3e 58 c5 9a bb 40 d4 50 bc
       -0.075740986 0.13144605 -0.0047232322 -0.012745917
0000a0 c8 8b 53 3d d6 3f 5f bc 3d c7 2b 3e 7f df 8f 3d
       0.051646978 -0.0136260595 0.16775222 0.0702505
0000b0 26 e6 b5 3c e5 46 94 3c 83 19 60 3d c5 15 be bd
       0.02220447 0.018100211 0.05471183 -0.09281496
0000c0 53 92 9e bb 90 1d 26 3d 8c 63 8e ba 8b 72 c7 3c
       -0.0048392205 0.040555537 -0.0010863408 0.02434661
0000d0 6f f5 3e 3d 80 d7 5a bd 83 2b 31 bf de e3 b4 3c
       0.046620782 -0.053428173 -0.6920702 0.022081312
0000e0 b9 d4 71 be 4a c9 f6 3d 63 c4 c4 3d d4 1b ae be
       -0.23616304 0.120501116 0.0960777 -0.34005606
0000f0 1d 9f 84 3e 4c 1e a8 bc 6a 30 27 3d ae a4 1a bd
       0.25902644 -0.02052226 0.040817656 -0.037754707
000100 a0 cc e4 3d 61 53 04 3e 0b 84 19 3d cc 03 26 be
       0.111718416 0.12922432 0.03747944 -0.16212386
000110 b2 f4 36 3d 41 86 14 be f9 dd 1d 3e 1c ee 65 3e
       0.044666953 -0.14504339 0.15416707 0.22454113
000120 c8 54 71 3e ff 45 86 3d af ac 9f bd 68 75 c2 3d
       0.23567498 0.065563194 -0.07796609 0.0949505
000130 d9 68 7d 3d 7f 8a 19 3e 2d d4 0f 3e 2f d2 66 bd
       0.06186757 0.14994238 0.14045782 -0.05635279
000140 36 49 56 3d d7 73 3f 3e 8a 21 39 be 1c eb 03 be
       0.052315913 0.18696533 -0.180792 -0.12882656
000150 11 d1 9f bc 80 1a 4b be 20 01 1c 3e b3 ca d0 3d
       -0.01950887 -0.19834328 0.15234804 0.10194912
000160 36 b8 81 be df f0 8e bd 58 0d 95 bd 3e d3 95 3c
       -0.25335854 -0.06979536 -0.07277936 0.018289205
000170 a4 ec 80 bd f3 0b 65 be c6 a7 f0 bd 50 ef a2 3e
       -0.062951356 -0.2236784 -0.1175075 0.31823206
000180 8a b6 fc 3a c1 8a 14 be 09 a6 85 bc ee ae 08 be
       0.0019280475 -0.14506055 -0.016314523 -0.1334798
000190 d1 fa 7c 3e f1 13 1e 3e b1 c8 48 bc bd 2e 0c 3e
       0.24705054 0.15437295 -0.01225488 0.13689704
0001a0 ef 68 39 be c0 25 b4 bd 02 67 f0 3d ab 91 50 bc
       -0.18106435 -0.08796263 0.11738397 -0.012730042
0001b0 20 f3 1c bb ba 1c a3 3e ef da 97 3d da fd e9 3d
       -0.0023948625 0.31857854 0.07414805 0.114253715
0001c0 ea bd 8e be 33 74 74 3e e4 cb 3e be 44 de c8 bd
       -0.27879268 0.23872451 -0.18632466 -0.09808019
0001d0 15 9f 36 3e 30 cc 72 be 73 27 c2 3d a8 f3 72 be
       0.17834122 -0.23710704 0.094801806 -0.2372576
0001e0 3d 2c 68 3e 3c d7 ac bd 6d a6 a3 3d 35 a9 3e 3c
       0.22673126 -0.0843949 0.079907276 0.011637022
0001f0 0f 4e b4 3c 8d 1a 97 be 2f d8 c2 3c 76 02 88 3e
       0.022009877 -0.29512444 0.023784725 0.26564378
000200 a1 09 c4 3d 3b ca f6 bd da 86 85 bd e2 76 d4 3c
       0.09572149 -0.12050291 -0.065198615 0.025935594
000210 a9 f6 db bc 5b d6 04 3d a8 67 91 bb 46 86 80 bc
       -0.026851015 0.032430988 -0.0044374056 -0.015689027
000220 28 d4 81 3c df 52 4e be 82 f4 ac bb 63 a1 14 3d
       0.015848234 -0.201488 -0.005278171 0.036286723
000230 d5 60 ba 3d 08 3d 95 3c 94 a2 11 3d 68 ef b4 bd
       0.091005005 0.018217579 0.035555437 -0.088347256
000240 f6 91 cd 3c df 1b 85 bc ce b7 fd 3c c7 57 1b bf
       0.025094014 -0.016248642 0.030971434 -0.6068081
000250 80 21 2e 3d 8e 01 8a bd 23 5e f8 3d 2c 00 12 3d
       0.042512417 -0.06738578 0.1212733 0.035644695
000260 72 32 19 3d 4c 1b 67 bc 8a e0 bf bb d8 8f 1b 3d
       0.037401624 -0.014105629 -0.0058556246 0.037978977
000270 00 0a 28 3e 62 98 3c 3c 66 c6 b9 3c 1f fb 91 3c
       0.16410065 0.01151094 0.022677612 0.01781994
000280 0e c0 93 3d 9e a5 59 3c 68 8c 96 bb bd a2 28 3b
       0.07214366 0.013284115 -0.0045943744 0.0025731765
000290 97 8b cd 3c d8 6f a6 3b 61 38 0f 3e cd 8e b7 bc
       0.025090976 0.005079251 0.1398635 -0.02240696
0002a0 4b a6 35 3f 1b 8b a2 bc c2 8b b5 bd e5 a4 72 3d
       0.7095687 -0.019841721 -0.08864547 0.059239287
0002b0 6d 88 8a be bd ef 0c be e2 ec 28 3c 92 ac 2c 3e
       -0.2705721 -0.13763328 0.0103103835 0.16862705
0002c0 d4 84 19 bc 23 e5 1f 3e 75 65 1d 3c ca ba 36 3e
       -0.009370048 0.15614752 0.009606709 0.17844692
0002d0 c5 dc 30 be 55 00 2e be 8e c7 f0 bd dc 04 c4 bd
       -0.17271717 -0.16992314 -0.11756812 -0.09571239
0002e0 d5 c0 fb bd 76 1d 22 bf 20 4c 04 3e 70 81 ca bd
       -0.12292639 -0.63326204 0.12919664 -0.098879695
0002f0 e5 d6 04 3e cb 4f a7 bd 57 f4 82 3d f6 e4 3a 3c
       0.12972601 -0.08169516 0.063942604 0.011407128
000300 34 dc 4e 3c 22 37 17 bd 0b cf 99 3d 5f f7 72 bd
       0.012625743 -0.036917813 0.075101934 -0.059317943
000310 99 1b 7a 3d a4 df 1c bd 12 d5 5f 3d a9 14 5b 3c
       0.061061475 -0.038299218 0.05464656 0.013371625
000320 d4 41 8b 3b 0a c2 8f bd ad dc 03 bd c5 f2 cb 3c
       0.0042497907 -0.07019432 -0.032192875 0.024896035
000330 11 ff 22 3e fd bb e2 bc 16 b2 57 3f 8f 8c 8b bd
       0.15917613 -0.02767753 0.8425611 -0.06813919
000340 a6 6e ba 3c ce 92 4e bc b6 e6 47 3d a7 ec 86 3c
       0.02275784 -0.012608243 0.048804007 0.016470267
000350 6a 29 13 3e b2 82 a8 3d c9 c4 8a bd 7e 04 d2 3d
       0.14371267 0.08228053 -0.06775815 0.10254763
000360 3c b8 c4 3c 29 b5 f8 3c f4 de dc 3d 6c a8 a6 bd
       0.024013631 0.030359821 0.107847124 -0.08137593
000370 6c bd 48 be 24 48 d4 3b 7b 5c 07 bd 55 fb 23 3e
       -0.19603509 0.0064783264 -0.03304718 0.16013844
000380 8a 9d 9a bc 06 71 dc be 3e 34 45 be ab df 86 bc
       -0.018873949 -0.4305498 -0.1925821 -0.016464075
000390 94 e0 09 3e 8f e3 4b be 62 df 30 bd 79 d0 d8 bc
       0.13464576 -0.19911025 -0.043181784 -0.026466595
0003a0 2c 1c 2b be 85 72 25 bd ef 47 da 3c c8 29 d3 3c
       -0.16709965 -0.040392417 0.026645629 0.025776759
0003b0 07 1d 8f be 76 ab e5 3c 39 44 04 3e 5f 9e c6 3d
       -0.27951834 0.02803586 0.1291665 0.09698176
0003c0 f8 9c fd bd 3e a5 41 3d 74 83 9e 3e 8d 5d 10 be
       -0.12383455 0.047276728 0.30959666 -0.14098187
0003d0 0d db 98 3d 7c 34 cd 3e 1b bc 38 be c6 a8 cd 3c
       0.074636556 0.40079105 -0.18040507 0.025104892
0003e0 6e 6c f2 3c de a5 d9 3d 5f 5b f5 bd 3a 6e a8 bd
       0.029592719 0.1062734 -0.11980318 -0.08224149
0003f0 35 f9 0e be 5f f2 18 3e b6 fc 08 bd cd 77 3e 3e
       -0.13962252 0.14936207 -0.03344413 0.18600388

layers.0.bias f4 [64]
000000 1e d2 9c b8 da 70 86 b8 ba 86 9e b8 12 b3 bd b7
       -7.477797e-05 -6.410638e-05 -7.559122e-05 -2.2613942e-05
000010 5f 6c 91 37 c2 b4 1f 38 a6 82 af b7 80 97 80 39
       1.7335811e-05 3.8076898e-05 -2.0922464e-05 0.0002452694
000020 fd 3b d3 b8 ff b3 35 38 0c 3d 92 b8 ee 25 85 38
       -0.00010072438 4.3321397e-05 -6.9731934e-05 6.348999e-05
000030 7b 1c c1 38 d6 3c 8a b6 c4 81 36 38 8b e5 14 38
       9.208262e-05 -4.1198027e-06 4.3513035e-05 3.549973e-05
000040 dd 54 1a 38 0c 78 0a 37 34 20 12 38 75 84 89 b7
       3.6795496e-05 8.253392e-06 3.4839104e-05 -1.6393353e-05
000050 9a 51 02 39 e2 55 e7 b7 b2 d5 3d 38 a4 d3 02 37
       0.00012428165 -2.7577338e-05 4.526013e-05 7.79788e-06
000060 19 dd 07 39 9a 5b e5 37 29 49 4d 38 62 17 5c b8
       0.00012956969 2.7341583e-05 4.8943944e-05 -5.2473864e-05
000070 65 0e 83 b8 33 8c 27 38 2b 81 41 b7 93 a2 b0 38
       -6.249248e-05 3.9946473e-05 -1.1533771e-05 8.422616e-05
000080 72 12 b3 38 33 33 80 38 d6 d7 cf 38 7e d5 f7 b7
       8.538821e-05 6.113052e-05 9.910732e-05 -2.954411e-05
000090 b1 bb 90 38 f4 b2 5e 38 cb e8 65 38 68 81 56 b6
       6.901415e-05 5.3095588e-05 5.481466e-05 -3.196381e-06
0000a0 38 99 fe b7 ad 5e e3 b7 f4 c1 dd 37 dc 5d 5d b8
       -3.0350508e-05 -2.7104596e-05 2.643557e-05 -5.277792e-05
0000b0 67 79 87 b7 0c 0b d3 36 6f f6 f7 b8 8f 1f e9 b6
       -1.6149786e-05 6.289576e-06 -0.0001182378 -6.947615e-06
0000c0 32 d7 c1 38 f7 94 af b7 1b 21 46 b9 90 24 84 38
       9.2430404e-05 -2.0930993e-05 -0.00018895084 6.301061e-05
0000d0 0f 03 bc b8 a9 55 3b 38 a5 f9 77 38 3e 18 8b 38
       -8.965108e-05 4.466405e-05 5.912189e-05 6.632552e-05
0000e0 6a 66 19 37 4e 9a 7b 38 8a 62 81 37 13 dd 7e b8
       9.143356e-06 5.998677e-05 1.5423884e-05 -6.076421e-05
0000f0 82 2a fc b7 9e 59 23 37 48 5d 3a 37 ec d3 78 b8
       -3.0060535e-05 9.736423e-06 1.1108183e-05 -5.9325175e-05

layers.1.weight f4 [32, 64]
000000 d9 a0 8d be 64 d9 a5 be 30 51 35 be 7b 83 c9 3d
       -0.2766178 -0.32392418 -0.17706752 0.09839531
000010 64 dd c6 bc d7 d8 66 3d 76 6a 18 3e b9 97 12 be
       -0.02427549 0.05635914 0.14884362 -0.1431569
000020 64 e1 68 be bb 2e 8a bd c4 6e e3 be 75 90 54 be
       -0.2274223 -0.067471944 -0.44420445 -0.20758231
000030 07 1c c7 bd 91 f8 8e 3d 46 35 1b be b3 77 f5 3d
       -0.09722143 0.06981004 -0.15157041 0.119857214
000040 e6 75 8f 3d 7b 67 f4 3d 2e 20 05 3e 10 49 8a bd
       0.07004909 0.119338 0.13000557 -0.06752217
000050 92 5f de bd 9b eb dc 3d 8b 2f 4c bc 5b 48 7a bd
       -0.10858072 0.10787126 -0.012462507 -0.06110416
000060 5b 14 ac be 63 e9 30 3e 56 c0 b7 bd ad db f2 3d
       -0.3360928 0.1727653 -0.08972232 0.11858306
000070 98 50 84 bd 71 cd 1e 3d c3 ff e5 bd 47 87 e7 3d
       -0.064606845 0.038770143 -0.11230423 0.11305099
000080 c9 2b 5b 3d df 06 a4 3c 1a f4 31 bc 23 ca 67 3c
       0.053508554 0.020022808 -0.010861421 0.014147314
000090 86 0f 8e 3e 18 c4 ab 3d 70 9a e4 bd 2a f4 99 bc
       0.27746218 0.08387011 -0.11162269 -0.018793184
0000a0 2d 14 8a be 8e 0d 39 3d 6f 59 59 be ed ca 4b 3d
       -0.26968518 0.045178942 -0.21225522 0.049754072
0000b0 19 2f 73 3e 33 fb b9 be b0 0e 9a be 86 cd 85 3e
       0.23748435 -0.36324462 -0.3008933 0.26133364
0000c0 8d 3b 17 be 63 4f f8 3d 66 01 62 be 65 01 7f be
       -0.1476881 0.12124517 -0.22070846 -0.24902876
0000d0 49 0f 5c be 9f b2 d5 bd 76 ba 1a 3e 69 cc 61 3e
       -0.21490206 -0.1043446 0.15110192 0.22050633
0000e0 c6 a3 a7 3d 66 3d 05 3e ba 3b 49 be bf c3 4a 3d
       0.08185534 0.13011703 -0.1965169 0.049503084
0000f0 48 95 8b 3d 78 e9 e2 3d 88 25 14 be ff f7 88 be
       0.068155825 0.11079687 -0.14467442 -0.26751706
000100 9d 2f 6c bd 30 0a 13 be 4c 3e 33 3d 08 5c dc bd
       -0.057662595 -0.14359355 0.043760583 -0.10759741
000110 e4 47 46 3e 13 79 4e be 5d 23 e2 bc 81 a4 36 3e
       0.19363362 -0.20163374 -0.027604753 0.17836191
000120 91 65 0d 3e a0 3f 06 be 5f 44 86 3c 9b cb 24 3e
       0.13808276 -0.13110209 0.016390024 0.16093294
000130 cc a4 04 3e 42 e4 13 be 49 1c df 3c a5 ee 49 3c
       0.1295349 -0.14442542 0.027235167 0.012324964
000140 25 12 1f 3e e1 63 83 3e 86 99 e6 3d cd 90 b0 bc
       0.15534265 0.2566214 0.11259751 -0.021553421
000150 b1 31 9f be e5 4f 75 bd b3 75 45 bd ee 14 4f be
       -0.310926 -0.059890646 -0.04820795 -0.20222828
000160 d1 55 d9 bc 75 46 a1 3e 66 81 30 be 23 40 3c 3e
       -0.026530178 0.31499067 -0.17236862 0.18383841
000170 a0 93 13 bd 6e f3 9f bd 11 0f b2 3d 04 74 b4 3e
       -0.036029458 -0.078101024 0.0869428 0.35244763
000180 8e 85 c4 39 da bb ba be 19 3b 29 be 42 5d 94 3d
       0.0003748354 -0.36471444 -0.1652645 0.0724435
000190 bf a6 70 3b 14 35 54 3e 57 1b 90 be 08 e9 83 bc
       0.0036720482 0.20723373 -0.2814586 -0.016102329
0001a0 3a 1f b4 bd f7 94 5f 3e 34 d3 5b be df 45 56 3e
       -0.087950185 0.2183417 -0.21467286 0.20925091
0001b0 06 63 de bc ad 7d 56 be b8 eb 81 bd 2f be 73 bd
       -0.027146827 -0.20946379 -0.06343788 -0.059507545
0001c0 02 62 6a be 21 c1 fa bd 1d 38 8e bc 4d 65 e6 bc
       -0.2288895 -0.12243868 -0.017360741 -0.028124476
0001d0 21 69 03 3e c0 e1 08 be d5 b9 60 3d 25 58 b7 3e
       0.12833072 -0.13367367 0.054864723 0.35809436
0001e0 f1 f7 12 3e 36 10 92 bd d8 91 20 be cf 65 7c bc
       0.14352395 -0.07131998 -0.15680635 -0.015405132
0001f0 d1 2b 45 be ac 08 ea 3d 60 b5 a7 3d dc ba 0a 3b
       -0.19254996 0.11427435 0.081888914 0.0021168506
000200 09 91 2a 3d a1 66 7a 3d 40 c5 06 3e 83 9f d8 3d
       0.041642223 0.06113303 0.13161182 0.105772994
000210 ea d0 2a 3e 12 85 10 3e a3 08 5a 3e 6e b5 ca be
       0.16681257 0.14113262 0.21292357 -0.39591545
000220 e1 ac a7 bc 3d 4b 90 be 4e 5d 19 bd 5a 48 03 3e
       -0.020468177 -0.28182402 -0.037442498 0.12820569
000230 89 d2 9f be 44 ab b3 bd 56 2d ee bd 8d 4a 8f be
       -0.31215313 -0.08772901 -0.11629741 -0.27986565
000240 5f a9 45 bd 6d 48 99 3d a5 e9 b7 be db 32 f8 3d
       -0.048257228 0.07484517 -0.35920444 0.12119075
000250 d6 ba 15 be f1 f7 14 3d de a6 e7 3c 00 b9 86 bd
       -0.14622054 0.036369268 0.02827781 -0.06578255
000260 d9 99 c8 bc 4c 98 21 bc ae b0 19 bd 6b 62 94 3d
       -0.024487423 -0.009862971 -0.03752201 0.07245334
000270 5b ed e9 bd ce 75 79 3d a3 a0 61 3e fe 90 88 be
       -0.11422225 0.060903363 0.22033934 -0.2667312
000280 5e 76 02 3e 78 b9 6b 3e c0 01 d2 3c 80 16 2e be
       0.12740466 0.2301997 0.0256356 -0.1700077
000290 c1 2b ae 3d c0 e9 32 3d bb 96 65 3e 74 75 2e be
       0.08504439 0.043679953 0.2242078 -0.17036992
0002a0 b8 a9 18 3e 68 cb 8d be e5 b9 97 bc e2 b5 3a 3e
       0.14908493 -0.2769425 -0.018521259 0.18233445
0002b0 02 bb 93 be 82 9a 6a be 6f 13 cd 3c 7b 54 1b 3c
       -0.28853613 -0.22910503 0.02503368 0.009480591
0002c0 60 4c 1f 3e 1b 6e 2b be 1d 55 88 3d b4 77 f5 3b
       0.15556479 -0.1674122 0.06656859 0.0074910764
0002d0 ad 09 d9 bd 3c 46 26 3c 6d dc ad bd ec 98 9d bd
       -0.10597549 0.010148581 -0.084893085 -0.07695183
0002e0 0a df ab bd 28 f5 d8 bd a5 74 90 3d 41 9b 65 be
       -0.08392151 -0.10593635 0.07053498 -0.22422506
0002f0 6f b3 95 bc d5 2e 23 3e 34 ea c9 bd 1d 44 83 ba
       -0.018274037 0.15935834 -0.09859124 -0.0010014806
000300 5c d4 b4 bd b6 12 01 be 4e cf d8 be f6 6d b3 bc
       -0.08829567 -0.12604794 -0.4234566 -0.02190302
000310 0a d0 f1 bd 06 a1 50 bd 27 af 7c 3d 15 d1 dc 3d
       -0.118072584 -0.050934814 0.061690476 0.10782067
000320 fb 89 ea be 4d d2 e7 3c 61 7e 8a be 5a 3a 6d be
       -0.45808396 0.028298521 -0.27049544 -0.2316679
000330 68 d4 eb 3d 22 23 19 3c 20 9c cf be f0 4a 14 3e
       0.11515123 0.009346755 -0.405488 0.14481711
000340 44 0d 96 bd 6a 87 10 3c 1d 5e 18 bc 4d 43 57 3e
       -0.07326749 0.008821348 -0.009299782 0.21021767
000350 f2 ba 2e bc 4c f1 16 3c b4 62 00 be 60 5a 54 be
       -0.010664688 0.009212803 -0.12537652 -0.207376
000360 af 33 93 be e6 ee 03 3e 9b cc 9f ba 4d 5a 42 be
       -0.2875037 0.12884101 -0.0012191714 -0.1897976
000370 cc 20 a0 bd 92 be 69 bd 5c f1 85 3d 12 1f 8e 3d
       -0.078187555 -0.057066508 0.06540176 0.0693952
000380 d1 8e c5 3d 5d 63 86 3d 66 cc 82 be 02 32 9d 3c
       0.09646381 0.06561921 -0.2554657 0.019188885
000390 6d 50 6d 3e 6c 85 8e bd 8f cc 1c bd ef 64 46 bd
       0.23175211 -0.06959042 -0.03828102 -0.0484361
0003a0 fb c9 11 3d 0a 23 d8 3d d8 5a 8c 3c c3 1c d9 3d
       0.035593014 0.10553558 0.017133161 0.10601189
0003b0 f4 f3 66 bd 29 1e 60 be 30 8e 84 be 4a 15 95 3d
       -0.056384996 -0.21886505 -0.2588973 0.07279451
0003c0 be 53 2f bb 93 0f e9 3c 58 c4 04 bf ac af e0 3d
       -0.0026752795 0.02844981 -0.51862097 0.10971007
0003d0 ce d5 af 3d a5 32 dd be ec 66 81 bd 72 d2 17 bd
       0.08585702 -0.432027 -0.06318459 -0.03706593
0003e0 57 d2 ad 3d 31 be bf 3b a1 b7 4f 3b f4 b6 d2 3d
       0.08487385 0.00585153 0.0031695145 0.10288802
0003f0 96 28 c6 3d 5f 2c 24 3e b4 bb cf bd d1 64 d4 be
       0.0967571 0.16032551 -0.101432234 -0.41483167

layers.1.bias f4 [32]
000000 57 b1 59 b8 62 3b 11 b8 06 13 0b 38 f4 d3 16 38
       -5.1901992e-05 -3.4626e-05 3.31579e-05 3.5960184e-05
000010 30 79 82 b8 e6 76 5c 37 ea a9 f0 37 4a b1 5c b8
       -6.221456e-05 1.3140705e-05 2.8689352e-05 -5.26172e-05
000020 79 7e 7a 38 08 a9 91 b8 78 07 2b b8 28 f2 92 37
       5.972243e-05 -6.945623e-05 -4.0776533e-05 1.7517319e-05
000030 df e8 0b 37 e0 3c d5 b7 0d f8 4d b9 a5 6b 09 39
       8.339265e-06 -2.5419926e-05 -0.0001964273 0.00013105439
000040 32 9e e4 38 9c a1 3c 38 b9 a1 d5 36 d9 07 48 37
       0.000109013534 4.4973203e-05 6.3667217e-06 1.1922756e-05
000050 f3 a6 25 b8 89 97 2b 37 46 5e 4c 39 40 ea 84 36
       -3.949455e-05 1.0227676e-05 0.00019490076 3.961177e-06
000060 80 d2 bb b4 d8 7d 92 b7 44 75 58 38 c6 14 7a b8
       -3.4984623e-07 -1.7463157e-05 5.1607625e-05 -5.962399e-05
000070 9a 63 e8 b6 4c 4b 6f b8 f3 e6 38 39 b2 6d 5d 38
       -6.925734e-06 -5.7052166e-05 0.00017633643 5.2792668e-05

layers.2.weight f4 [16, 32]
000000 03 51 fe bd b8 96 e1 be 31 40 98 3e 26 4e 62 be
       -0.124177955 -0.44060302 0.29736474 -0.22100124
000010 b9 aa f0 bd 87 3a f1 bd c1 96 35 3e 76 6b 1a 3c
       -0.11751313 -0.11778741 0.1773329 0.009425035
000020 03 5f a8 be 97 9f 8f 3d 6c 37 48 3d 29 0b bc bc
       -0.32884988 0.07012861 0.04888098 -0.02295454
000030 c9 c1 e5 bc 5c ba a6 3d af 2b b7 3b cd 4b 5d be
       -0.028046506 0.08141014 0.0055899243 -0.21610947
000040 61 29 e8 3d 16 c3 7a be 04 45 f7 3d d5 1d a1 3d
       0.113360174 -0.24488482 0.120737106 0.07867018
000050 d6 19 27 3e fd 95 58 be f7 42 d0 be 56 34 3d 3e
       0.1631845 -0.21150966 -0.4067609 0.18476996
000060 aa 40 19 3d dc ee 16 be a8 16 3e 3e 7f 36 fe 3c
       0.037415184 -0.14739555 0.1856333 0.031031845
000070 95 c4 5b 3e 40 ef 4c be 71 2f 17 be 3d e5 b7 bc
       0.21461709 -0.20013142 -0.14764191 -0.022448177
000080 15 85 b4 bc d6 df 59 be 97 41 23 3e 11 21 6b be
       -0.022036115 -0.21276793 0.1594299 -0.22961833
000090 9b 76 fb bd 57 d5 33 bd da c2 20 3e cf 56 b7 3e
       -0.122784816 -0.04390463 0.1569933 0.35808417
0000a0 bd 6b 9b bd 9c 9c 99 3e 41 5e aa be a8 82 5f be
       -0.07588909 0.30002296 -0.33275035 -0.21827185
0000b0 1a a5 04 be 8c 8c 8a be 9f 72 85 bd e0 a4 82 be
       -0.12953606 -0.27060354 -0.06516003 -0.25516415
0000c0 38 d4 ea 3d 38 b2 98 be e6 e0 f4 bd 62 32 f6 bc
       0.11466259 -0.2982347 -0.119569585 -0.030053321
0000d0 99 21 70 be 8c 7f 29 3e 5f cd b7 be 73 ee 55 3e
       -0.23450316 0.16552562 -0.35898873 0.20891742
0000e0 69 6e 50 3e 47 14 33 be a9 3f f4 bd f8 de ad be
       0.20354618 -0.17488204 -0.11926205 -0.33959174
0000f0 03 13 63 3e 88 63 34 be 76 56 4a be fc da 0f 3e
       0.22175221 -0.17616093 -0.19759545 0.1404838
000100 b9 85 39 3e 38 a2 27 bc d7 e8 80 3d e4 ea a5 3e
       0.18117417 -0.010231547 0.06294411 0.3240577
000110 9a 50 11 3c 83 10 30 3e 7f fb 83 be 49 26 93 be
       0.008869315 0.17193799 -0.25777814 -0.28740147
000120 3d 4d 8a 3d fb fd d8 bd df 90 b4 3d ce ba 4e 3e
       0.06753013 -0.10595318 0.088166945 0.20188448
000130 4f e7 a8 be af f9 ad 3e f4 7a 3e 3e 12 b3 8b 3e
       -0.32988974 0.33979556 0.1860159 0.27285057
000140 7f bf 0a 3d a2 21 dd 3c 54 57 02 be 69 81 a3 be
       0.03387403 0.026993576 -0.12728626 -0.3193467
000150 29 ea 07 bd da a7 24 3e 4f 89 94 3d cd a7 0e 3e
       -0.033182297 0.16079655 0.07252752 0.13931198
000160 e8 0f fb bb 91 6c b7 3d 4e 9d 39 be e5 5d d9 be
       -0.0076618083 0.08956254 -0.18126413 -0.42454448
000170 69 4b 3c be d4 7b 86 3e 3d 81 87 3e ef 8d d7 bd
       -0.18388142 0.26266348 0.26465788 -0.105251186
000180 5e ee c7 3e fb df 9b 3e b6 1d a9 be 56 00 0d bd
       0.39049047 0.3044432 -0.3303048 -0.03442415
000190 1e 0b 5e bd d5 40 94 b9 68 76 db bc 6e 0c 85 bd
       -0.05420982 -0.00028277063 -0.026789859 -0.064965114
0001a0 a0 d4 b2 3e d9 7a 86 be 21 5c a3 3e 47 bc ec 3d
       0.34927845 -0.262656 0.31906226 0.115593486
0001b0 48 dc a2 be 0a 7f 90 3c 8e 00 6d 3e 6c 8b e4 3e
       -0.31808686 0.017638702 0.23144743 0.4463762
0001c0 90 70 9e be 12 15 64 3e f7 ef be be 4a ea c9 3c
       -0.30945253 0.22273663 -0.37292454 0.02464785
0001d0 cb b4 8a bc d6 1a 0e be 50 d9 74 3e 6c c8 28 3d
       -0.016931912 -0.13877425 0.23911023 0.041206762
0001e0 37 22 1f bd b2 27 a7 3d 79 57 49 be 6f 71 7f bd
       -0.03885099 0.08161868 -0.19662274 -0.062364038
0001f0 77 fe 68 bc 40 8c 54 be 1d 54 45 3d 2f 34 8e 3d
       -0.014220825 -0.20756626 0.04817592 0.06943547
000200 01 49 86 bd bb 76 82 3e 4b c1 d8 bd 14 6f 04 3f
       -0.06556893 0.2548121 -0.10583743 0.5173199
000210 46 fa a0 bd 80 7f 1b 3e ca 27 2c be 30 f3 ee 3c
       -0.07860236 0.15185356 -0.16812053 0.029168695
000220 39 37 77 3e 06 11 07 3d f7 55 10 3e 29 87 83 3e
       0.2414216 0.03297522 0.14095293 0.25689057
000230 1e 0b 73 be c9 be 27 3e 7a fa 29 3e b8 84 43 be
       -0.2373471 0.16381373 0.16599455 -0.19093597
000240 9a 93 d8 bd 4c 88 84 3e 09 4a aa be db fa 03 be
       -0.10575028 0.25885236 -0.3325961 -0.12888663
000250 ce 0b f0 bd 3f ff 6b be 2c e5 5a 3e a4 5e 52 3b
       -0.117210016 -0.23046587 0.21376485 0.0032099867
000260 62 46 b1 be 69 9e 06 3d d2 ee a9 bd 6f 0d 7e 3c
       -0.3462401 0.032865915 -0.082975045 0.0155061325
000270 2a cd 24 be 84 28 ae 3e a7 a3 07 bd d3 43 82 be
       -0.16093889 0.34015286 -0.033115055 -0.2544237
000280 53 eb 97 be 3a f6 96 be 40 3f 14 3e d9 3a 8b bd
       -0.29671726 -0.2948473 0.14477253 -0.06798334
000290 11 72 b4 be 1a 15 0e be ec 55 7b 3e 1f e0 06 3e
       -0.35243276 -0.13875237 0.24544495 0.13171433
0002a0 c9 77 0a bd 9e 12 d6 3e 04 fd 7c be 0c 9a a9 3d
       -0.033805642 0.4181108 -0.24705893 0.08281335
0002b0 42 13 6e be 39 1c a4 bd 30 0a 5a be 99 94 56 be
       -0.23249534 -0.080131955 -0.21292949 -0.20955123
0002c0 62 4e be 3e a9 ef 2f be 59 d6 2e 3d 43 47 89 3e
       0.37169176 -0.17181267 0.042684887 0.2681218
0002d0 d5 57 8c 3c f9 38 d1 3e 7f fd bb be f9 9f 29 3c
       0.017131725 0.4086378 -0.3671684 0.010353082
0002e0 0f 30 90 be 91 5f 5b be 10 a3 d3 bc d5 97 ce bd
       -0.28161666 -0.21423174 -0.02583459 -0.100875534
0002f0 0a 7b 4e be c1 58 84 be 11 0e 91 be 42 b7 a6 bd
       -0.20164123 -0.25848964 -0.28331044 -0.081404224
000300 f3 d1 c3 3d 53 f7 16 be 8a 68 49 3d 2b 1d d9 3e
       0.09561529 -0.14742784 0.04917196 0.42405066
000310 56 0a bb 3e c5 ce 4a 3d 2b fa 29 bd c6 e4 29 be
       0.36531323 0.049513597 -0.041498344 -0.16591176
000320 de f2 0f bd 60 eb 6d 3d b3 71 37 3e 59 65 52 3e
       -0.035143726 0.0580858 0.17914467 0.20546474
000330 b2 aa 8c be 72 87 2e 3d f2 d3 3d 3e 1d 37 bf 3e
       -0.2747398 0.04260964 0.18537882 0.37346736
000340 c8 80 f4 bd bf 87 c5 3e bd 6a d2 3c 91 50 2b bd
       -0.119386256 0.3858013 0.025685662 -0.04182488
000350 ba ce 11 be 24 92 f5 bd 94 2e 71 bc 04 ae 5f bd
       -0.14239016 -0.11990765 -0.014720578 -0.054609314
000360 ce 9a ff bd 24 30 41 be 9b 16 92 be 92 82 99 be
       -0.124806985 -0.1886602 -0.28532872 -0.2998243
000370 04 e4 e9 3d 41 a4 40 3e 0f c7 89 be e2 cc 6a be
       0.11420444 0.18812658 -0.26909682 -0.22929719
000380 8c 61 ac be d0 59 9c 3d cd 49 fd 3d 87 d5 dd 3c
       -0.33668172 0.07634318 0.12367592 0.027079357
000390 7c 68 a9 be db ef 64 3e 7f c4 a3 3e 2a 6c 41 3e
       -0.33087528 0.22357123 0.31985852 0.18888918
0003a0 80 3c 90 be b3 54 76 3e 21 76 8c be cc 29 5a be
       -0.28171158 0.24055748 -0.27433875 -0.21305007
0003b0 c3 72 a2 3d 8e 66 c0 be 8d d4 53 3c 49 b1 6b be
       0.07932045 -0.37578243 0.012929094 -0.23016848
0003c0 36 cb 4f 3d ee 2a 34 be f5 35 8a 3e 3f 24 ec bd
       0.050730906 -0.17594501 0.2699429 -0.11530351
0003d0 8b 45 2f 3e 08 fd 34 be 50 44 99 bd 1d 29 4c be
       0.17116372 -0.17674649 -0.07483733 -0.19937558
0003e0 84 18 84 3e 62 5c 11 be e2 a3 a0 3d 3e da 0c 3e
       0.25799954 -0.14195397 0.07843758 0.13755128
0003f0 8f e5 00 3d 67 82 7f be 7d 43 ec be a7 33 82 3e
       0.031468924 -0.24952088 -0.4614524 0.25430033

layers.2.bias f4 [16]
000000 21 43 1c 39 45 f9 60 b8 2e 4f 19 38 4b 4e b9 38
       0.00014902327 -5.3637912e-05 3.6551784e-05 8.8360706e-05
000010 a2 45 ae 37 d8 c4 7f 36 79 4a 80 37 75 01 50 38
       2.0774842e-05 3.811254e-06 1.5293468e-05 4.959242e-05
000020 b4 b9 f3 b7 9f 12 18 b9 76 3f ab 37 ee 39 8e 37
       -2.9054332e-05 -0.00014502787 2.041434e-05 1.6954695e-05
000030 38 43 8d b8 d2 b5 5f 38 9c 38 3d 38 f2 3c 9c b7
       -6.7359244e-05 5.3336677e-05 4.5113833e-05 -1.8625029e-05

layers.3.weight f4 [1, 16]
000000 b7 fe 00 bf 6b 63 a6 be 0f d2 db 3e a5 82 8d 3e
       -0.50388664 -0.32497725 0.429337 0.27638736
000010 bf 4b c4 3e 4f 80 a7 be 4c b4 e6 3e 0c 35 d1 be
       0.3833904 -0.3271508 0.4505943 -0.40860784
000020 e9 d8 7d be 67 83 07 bf c8 0a 84 be a1 94 6a be
       -0.24789776 -0.5293488 -0.25789475 -0.2290826
000030 c1 9c 08 bf ea f8 d5 3e 8d 1e 80 3e 1e b9 ef 3e
       -0.5336419 0.4179147 0.25023308 0.4682092

normalizations.0.weight f4 [64]
000000 a5 2f 4e 3f e5 26 83 3f 06 73 8f 3f a8 06 57 3f
       0.8054145 1.0246245 1.1206977 0.8399453
000010 41 26 55 3f f9 34 82 3f 7c d5 61 3f d5 b2 99 3f
       0.83261496 1.0172416 0.88216376 1.20077
000020 7c b6 80 3f 23 a9 78 3f 57 99 85 3f 38 ff 6e 3f
       1.005569 0.9713308 1.0437421 0.9335818
000030 c4 7b 64 3f 04 4e 63 3f d6 71 89 3f 62 d4 7d 3f
       0.8925135 0.8879092 1.0737865 0.99152195
000040 7a 5c 56 3f df df 63 3f ab b1 65 3f aa 47 5b 3f
       0.8373486 0.89013475 0.89724225 0.85656226
000050 1d 49 47 3f 4d 4c 5d 3f b1 13 2f 3f b6 0a 55 3f
       0.77845937 0.8644455 0.6838942 0.8321947
000060 8d 0c 92 3f b3 7c 82 3f ef 48 71 3f a0 9a 5d 3f
       1.141008 1.0194305 0.9425191 0.86564064
000070 2a 1a 60 3f 09 a3 52 3f b1 3a 61 3f 27 7d 8d 3f
       0.87539923 0.8228002 0.8798018 1.1053818
000080 06 63 5d 3f 44 61 79 3f d6 f8 7a 3f 38 e7 57 3f
       0.8647922 0.9741404 0.98035944 0.84337187
000090 17 66 86 3f 48 81 50 3f d8 53 67 3f b2 d8 6a 3f
       1.0499905 0.8144727 0.9036231 0.917369
0000a0 ed 45 66 3f 7b d0 58 3f 9b e4 57 3f c6 cf 47 3f
       0.8995045 0.84693116 0.843332 0.7805141
0000b0 ed 98 90 3f ba 88 67 3f 22 86 59 3f 03 2b 38 3f
       1.1296669 0.90443003 0.84970295 0.7194063
0000c0 cf 44 65 3f 92 3e 43 3f f5 a8 8e 3f a9 9b 86 3f
       0.8955812 0.7626735 1.1145312 1.0516254
0000d0 a0 e6 4a 3f 9d 9e 66 3f 24 21 6d 3f 69 80 7b 3f
       0.79258156 0.90085775 0.92628694 0.98242813
0000e0 11 3c 80 3f 3e 2a 5d 3f af 49 59 3f 8a 4e 88 3f
       1.0018331 0.8639258 0.8487806 1.0648968
0000f0 ff fb 39 3f 9b 9b 66 3f 1e 5c 4b 3f b0 6c 7f 3f
       0.7265014 0.90081185 0.79437435 0.9977522

normalizations.0.bias f4 [64]
000000 85 7f fa bd 10 89 a8 bc e9 56 8d 3e 92 85 3d be
       -0.12231354 -0.020573169 0.2760537 -0.18507984
000010 a8 8d 92 be 30 e7 89 be 53 c0 a8 be c4 2b cf be
       -0.286237 -0.26934195 -0.32959232 -0.40463078
000020 85 cb 04 bf 4d 18 a2 be 4a 70 3d bf 64 5b 46 be
       -0.51873046 -0.31659165 -0.73999465 -0.193708
000030 01 61 df be 9a 3c b7 be ef af ed bd 84 1d 4b be
       -0.43628696 -0.35788423 -0.11605822 -0.19835478
000040 1b 40 34 be 1f 5d 5d be 22 7c 07 be af a3 8e 3c
       -0.1760258 -0.21617554 -0.13230947 0.017412035
000050 55 44 34 be f6 ae 64 be 6b 33 8a be 07 91 2c be
       -0.17604192 -0.22332367 -0.26992354 -0.16852199
000060 0f 74 b4 3e 5d 06 af be 65 93 68 be 8e f7 9f bc
       0.35244796 -0.34184542 -0.22712477 -0.019527223
000070 74 ae 77 3d 4b 81 bd be 7e c6 14 be d3 91 29 be
       0.060469106 -0.37012705 -0.14528844 -0.16559534
000080 8c 91 51 be 93 53 6f be f6 71 8a bd 82 d8 8f be
       -0.20465678 -0.23371725 -0.067600176 -0.2809487
000090 ea fd 1a be 34 bb 60 be c2 b3 6a be 51 07 29 be
       -0.15135923 -0.21946412 -0.22920135 -0.16506697
0000a0 19 6b 43 be 6e 2c c2 be de c0 15 be 58 09 61 be
       -0.19083823 -0.37924522 -0.14624354 -0.2197622
0000b0 fe 04 8b be 4a 80 42 be 87 3d 3b 3e 91 5b a9 be
       -0.27152246 -0.18994251 0.1828519 -0.33077672
0000c0 a3 69 0f be 04 8a 35 be 89 60 54 bf dd a6 2c be
       -0.14005141 -0.1772843 -0.829598 -0.16860528
0000d0 16 c7 6f be a9 aa fc be d3 79 a3 be 87 1f ec be
       -0.23415789 -0.49348953 -0.31928882 -0.46117803
0000e0 38 d8 f0 be 58 12 a2 be 60 87 64 bd 80 65 a4 be
       -0.47039962 -0.3165462 -0.055793166 -0.32108688
0000f0 73 00 87 be de 4b 2f be 60 8b 87 bd b7 2e c9 3d
       -0.2636753 -0.17118785 -0.066183805 0.09823363

normalizations.0.running_mean f4 [64]
000000 04 99 14 3c 80 92 82 3b c0 f7 a0 b9 18 25 a3 ba
       0.009069685 0.0039847493 -0.00030702166 -0.0012446968
000010 e1 6d 76 3c d0 5f 9d 3b 54 45 c5 bb 97 25 26 bc
       0.015040846 0.0048026815 -0.0060202274 -0.010140798
000020 c0 22 d2 3b 3d 55 7b bb 9a 21 c2 3b 76 b2 d0 bb
       0.006412834 -0.0038350367 0.005924416 -0.0063689305
000030 d0 2c d2 bb ea 23 f5 39 a4 be bb 3b 6a a0 73 bb
       -0.0064140335 0.000467568 0.0057295132 -0.0037174472
000040 b6 d5 3f 3c 2b a6 ae bc 8b 99 b8 bb 3f 31 af 3c
       0.0117086675 -0.02131947 -0.005633538 0.021385787
000050 1f 53 d8 bb 76 83 5d 3c df d6 d8 39 0e bd 15 bc
       -0.0066017057 0.013520112 0.00041358822 -0.009139312
000060 e0 6e ec 39 d4 c7 23 bc 79 31 87 3b b5 36 19 3c
       0.00045096036 -0.009996373 0.0041257706 0.009351422
000070 1f c0 75 3c f7 7f 58 bb 55 ba 9b 3c 0e 84 0a bc
       0.0149994185 -0.0033035257 0.019009748 -0.008454336
000080 40 53 dc bb 4e b9 6b 3c e9 59 15 3b 88 35 4e bc
       -0.0067237914 0.014387442 0.0022789186 -0.012586005
000090 7d e5 49 3c ee 06 f3 bb 58 f2 ee 3a 64 cd b0 ba
       0.012322781 -0.0074165976 0.0018230183 -0.0013488946
0000a0 24 a1 62 3b 6a 8b 17 bc 0d 2a 53 3c 5d d4 f6 3b
       0.003458091 -0.0092495475 0.012888444 0.00753264
0000b0 f4 55 12 bc 6c 20 86 ba 3c cb b0 ba cd c7 eb 3b
       -0.008931626 -0.0010233051 -0.0013488303 0.007195449
0000c0 c0 0f 13 3c 7e 6a b7 bb 8c 9e c2 3b a8 6a cd 3a
       0.008975923 -0.0055974117 0.0059393104 0.0015672045
0000d0 ec a8 7f 3c 0c 3a bc 3b 5a d0 74 bc 5a 94 7a bc
       0.015604239 0.0057442244 -0.014942253 -0.015294159
0000e0 5d fa a7 bc 8b b7 25 3c 86 fc 2c 3c 24 8a 23 bc
       -0.020505125 0.010114561 0.010558253 -0.009981666
0000f0 ce c7 94 3a 56 65 35 3c 45 12 02 3c 8e 4c 6c bb
       0.001135105 0.011071524 0.007938926 -0.0036056372

normalizations.0.running_var f4 [64]
000000 b8 46 e5 3e 0b 3b 0c 3f 09 fd 01 3f 95 20 d5 3e
       0.44780517 0.5477759 0.50776726 0.4162642
000010 9a 0e c3 3e 4d 50 de 3e 16 18 dc 3e 3a 4f ed 3e
       0.38097078 0.4342064 0.42987126 0.46349508
000020 c7 50 0c 3f 7a 16 36 3f c8 11 46 3f e0 f4 b3 3e
       0.54810756 0.71128047 0.7737088 0.35147762
000030 dc cc 01 3f 2c 12 1b 3f d1 0a 22 3f e5 38 f7 3e
       0.50703216 0.60574603 0.63297755 0.48285595
000040 ca 22 20 3f 04 c7 fd 3e a1 53 ff 3e 7e 28 1d 3f
       0.62553084 0.495659 0.4986849 0.6138991
000050 e6 ac b1 3e 08 ef 0a 3f a4 c6 1f 3f 7f 0f 12 3f
       0.34702224 0.5427098 0.62412477 0.57054895
000060 78 fa 0b 3f 67 ac 09 3f d9 25 eb 3e 2d b1 28 3f
       0.5467906 0.5377869 0.45927313 0.6589535
000070 87 c7 22 3f b2 65 04 3f 3f d1 04 3f d6 39 14 3f
       0.63585705 0.51717675 0.51881784 0.5790075
000080 9b 2b 03 3f c2 d9 0a 3f 15 3d de 3e 55 e5 ca 3e
       0.5123841 0.5423852 0.43405977 0.3962809
000090 cc cb fd 3e 55 a6 0f 3f 15 17 03 3f da 3d 0e 3f
       0.49569547 0.5611318 0.51207095 0.5556313
0000a0 89 a5 b5 3e eb a3 d6 3e 2e db 2b 3f 1d 5c 03 3f
       0.35477856 0.41921934 0.67131317 0.5131243
0000b0 68 16 16 3f 6f d6 c8 3e 48 95 dc 3e 1c f7 04 3f
       0.5862794 0.392261 0.43082643 0.5193956
0000c0 86 63 02 3f b8 6c 2a 3f a7 25 08 3f 48 3e df 3e
       0.5093311 0.6657214 0.5318245 0.43602204
0000d0 aa 51 e1 3e 07 28 1a 3f 97 83 24 3f 44 7d 08 3f
       0.44007617 0.60217327 0.6426329 0.5331614
0000e0 3a 52 82 3f af 75 05 3f bc 56 13 3f 53 49 25 3f
       1.0181344 0.52132696 0.5755422 0.6456501
0000f0 b1 b8 fb 3e 8c 13 b7 3e e9 4d f2 3e 72 92 d1 3e
       0.49164346 0.357571 0.47325066 0.4093204

normalizations.1.weight f4 [32]
000000 93 0c 73 3f ba 97 71 3f 95 c4 73 3f 17 34 79 3f
       0.9494106 0.9437214 0.95221835 0.9734511
000010 36 3c 80 3f 4f 28 3f 3f c6 3e 79 3f a3 d7 6a 3f
       1.0018375 0.7467088 0.9736141 0.91735286
000020 b6 e6 75 3f 00 97 81 3f a6 cb 70 3f 64 1f 68 3f
       0.9605516 1.0124207 0.9406074 0.906729
000030 9b d0 6a 3f 5a 62 60 3f 4e b1 78 3f 7e cc 6b 3f
       0.91724557 0.8765007 0.97145545 0.92108905
000040 74 9b 87 3f 10 1d 86 3f 2f 8e 84 3f b9 a7 5e 3f
       1.0594316 1.0477619 1.0355891 0.86974674
000050 e0 b3 80 3f 26 6e 6e 3f 8c 3e 89 3f a2 97 2d 3f
       1.0054893 0.93136823 1.0722213 0.678095
000060 f0 4d 7d 3f 50 40 7a 3f 97 91 7f 3f cf b7 7f 3f
       0.9894705 0.97754383 0.9983153 0.99889845
000070 cd 4e 5a 3f 46 1c 79 3f 9e fd 7f 3f a4 0d 63 3f
       0.8527649 0.97308767 0.99996364 0.8869269

normalizations.1.bias f4 [32]
000000 7e d0 9e be 87 ae dd bd 03 5f b6 bd 7a b5 f4 be
       -0.31018442 -0.10824304 -0.08904841 -0.47794706
000010 1b ba 61 be 88 bf 90 be 29 f3 0d bd cc 8b 34 bc
       -0.2204365 -0.28271127 -0.034655724 -0.011019658
000020 1d e5 44 be fc 1b 20 be 04 f0 99 be 99 98 95 be
       -0.19228025 -0.15635675 -0.3006593 -0.29217985
000030 aa df 15 be 64 df d5 be b5 e2 a6 be 67 21 eb be
       -0.14636102 -0.41771996 -0.3259484 -0.4592392
000040 4d 87 78 bd fe 5b e6 be ff e0 63 bc 8e 51 80 be
       -0.060675908 -0.4499206 -0.013908624 -0.2506222
000050 ed 1d 83 3d 17 d5 64 be f2 3c 60 bd 24 7b 45 be
       0.06402192 -0.22346912 -0.054745622 -0.19285256
000060 f3 ea bb ba d9 90 06 be f2 c4 6b bd 77 d4 30 be
       -0.0014336988 -0.13141192 -0.05756087 -0.17268549
000070 15 c3 00 be 7d 53 8e be a0 6d ac be db 3c f0 bd
       -0.12574418 -0.27798072 -0.33677387 -0.11730357

normalizations.1.running_mean f4 [32]
000000 ad 3c 7f bf 6e 97 ef bd d0 9a c4 be b8 bc 97 bf
       -0.9970196 -0.11698805 -0.38399363 -1.1854467
000010 9e 9f 33 3c 73 c6 fc bd 2f 5c 83 bc f6 9e 89 3e
       0.010963349 -0.12342539 -0.016035168 0.2687909
000020 fa c5 da be 19 44 30 bf 4b 9d 39 bf af 00 5d bf
       -0.4272917 -0.6885391 -0.72505635 -0.8632917
000030 1d 00 e5 3d 4e 2e 9a bf 2a fe 52 bf 95 2c 61 bf
       0.11181662 -1.2045381 -0.82419074 -0.8795865
000040 91 ae fc be 30 db 5c bf ad e7 8f be e4 c0 a3 be
       -0.49351934 -0.86271954 -0.28106442 -0.319831
000050 35 a1 ad be 41 f1 e3 3e 96 75 90 3b 10 0d 34 3f
       -0.33912054 0.4452 0.0044085486 0.7033243
000060 40 f0 94 3e 34 65 41 3f d5 28 23 3e 20 5f 47 bd
       0.29089546 0.7554505 0.15933545 -0.048674703
000070 4e 1f 1a 3e 35 36 2e bf 1f 02 77 bf cb a6 ac 3e
       0.15051004 -0.68051463 -0.9648761 0.33721003

normalizations.1.running_var f4 [32]
000000 7c 94 1b 40 b4 00 c2 3f c6 db a4 3f af 4e ee 3f
       2.4309378 1.5156465 1.287957 1.8617762
000010 b7 e9 b2 3f a6 0c 1f 3f 08 ab c4 3f b2 d1 96 3f
       1.3977574 0.62128675 1.5364695 1.1782744
000020 55 b1 dc 3f ac e6 cb 3f 42 7e fa 3f 51 6d c1 3f
       1.7241617 1.592977 1.9569781 1.5111486
000030 ca 0a 2a 3f 9b eb 19 40 9a 2f b0 3f b2 79 c2 3f
       0.6642271 2.4050052 1.3764527 1.5193388
000040 4d bb a8 3f 85 e4 b2 3f 10 9f af 3f e5 9b 56 3f
       1.318216 1.3975989 1.3720417 0.83831626
000050 26 5d c3 3f 52 d4 e8 3f 67 14 95 3f 6f b7 12 3f
       1.5262802 1.8189795 1.1646851 0.5731115
000060 8d 61 98 3f a0 3b 81 3f 0b 6d 8a 3f 51 1a 60 3f
       1.190477 1.0096321 1.0814527 0.87540156
000070 63 e2 c5 3f 2f a4 e6 3f ad d6 f0 3f 79 9b 9c 3f
       1.5459713 1.8018855 1.8815514 1.2234946

normalizations.2.weight f4 [16]
000000 57 ba 70 3f 67 d9 94 3f 02 3c 72 3f 5a 46 79 3f
       0.9403433 1.1628846 0.94622815 0.9737297
000010 b6 48 7d 3f 57 fa 98 3f 54 2f 6a 3f e1 64 91 3f
       0.98939073 1.1951398 0.91478467 1.1358911
000020 ea 4c 9d 3f 3b 3f 77 3f 31 2f a8 3f 6e ce 8e 3f
       1.2289097 0.9658086 1.3139402 1.1156747
000030 aa b9 73 3f 08 99 65 3f c3 f1 96 3f 97 2f 65 3f
       0.95205176 0.8968663 1.179253 0.8952574

normalizations.2.bias f4 [16]
000000 88 b2 bd 3d 7b 6c 25 3e 9d 01 df bd 7c 3c 50 bd
       0.09262568 0.16154663 -0.108889796 -0.050838932
000010 be 39 d3 bd 24 43 35 3e d1 a8 0f be a7 77 28 3e
       -0.10313748 0.17701393 -0.14029242 0.16451894
000020 f6 9c 6b 3e 59 07 17 3e bd cd 80 3e f0 98 04 3e
       0.23009095 0.14748897 0.25156966 0.12948966
000030 bb bb e5 3d 00 11 34 be 54 61 0c 3d 6b 74 f8 bd
       0.11217447 -0.1758461 0.034272507 -0.1213158

normalizations.2.running_mean f4 [16]
000000 17 36 57 be b9 9d cf be c0 26 ca bd 79 3b e9 bd
       -0.21016727 -0.4055002 -0.09870672 -0.11388297
000010 39 81 2b be f4 88 db be 81 95 43 be 29 ca cd 3c
       -0.16748513 -0.42877924 -0.191 0.025120812
000020 22 57 76 3d a0 16 a5 3c 4b f9 5a be 2b 4b d7 be
       0.06014169 0.02015239 -0.2138416 -0.42049536
000030 03 2f 4c be a2 be 19 bf 01 25 99 bb 99 2b b3 be
       -0.19939809 -0.6005651 -0.0046736007 -0.349942

normalizations.2.running_var f4 [16]
000000 ab 16 ea 3f 38 8c 01 40 af fd da 3f e4 95 14 40
       1.8288168 2.0241833 1.7108668 2.3216486
000010 6a 7c 10 40 d8 69 17 40 cc 7b 8e 3f 10 60 3b 40
       2.2575936 2.3658352 1.113153 2.9277382
000020 32 d3 bd 3f 06 a9 13 40 1e d9 eb 3f e2 21 08 40
       1.4830077 2.3071914 1.8425634 2.127068
000030 d4 d9 2f 40 d9 a7 12 40 e1 91 a9 3f f1 1e 0e 40
       2.7476702 2.2914946 1.3247644 2.2206385

exp_avg f4 [64, 19]
000000 b3 65 c5 ba 0c b7 05 3b 36 43 21 bb af 71 29 ba
       -0.0015060216 0.0020403294 -0.0024606711 -0.00064637786
000010 98 53 ea ba e4 e8 e4 3a bb 4a 13 ba 2c e2 bc 39
       -0.0017877696 0.0017464426 -0.00056187407 0.00036026665
000020 20 25 45 bb e5 51 c0 ba cd 1a ca 3a 96 02 35 b8
       -0.0030081943 -0.0014672844 0.0015419364 -4.315617e-05
000030 68 14 51 ba 00 3b e9 ba 8a 19 2d 3b 80 e1 07 3a
       -0.0007975758 -0.0017794073 0.0026412928 0.00051834434
000040 e1 06 58 3a 84 ac 02 3b 46 81 09 ba 91 e6 95 3a
       0.0008240771 0.0019939253 -0.00052453985 0.0011436512
000050 fc a3 c4 b8 f2 f7 8e bb d2 e3 27 bb b4 8c bd bb
       -9.376553e-05 -0.0043630535 -0.002561797 -0.0057845954
000060 b2 41 81 ba 66 6f 7f ba 50 23 eb 38 3a 81 2d 3a
       -0.0009861498 -0.00097440777 0.00011212251 0.00066186825
000070 f8 33 c5 39 95 51 bf 3b a5 16 85 ba 2a a5 37 bb
       0.00037613488 0.0058385828 -0.0010153843 -0.002802203
000080 1c 8b 50 38 ba e7 37 3b 66 ec f7 3a 1b 0b 87 3a
       4.972062e-05 0.0028061704 0.0018915057 0.0010302992
000090 68 b2 44 3b b9 25 64 bb 3b 85 0f bc 10 28 12 bc
       0.0030013565 -0.0034812524 -0.008759792 -0.008920684
0000a0 d7 bd 96 bb 09 3a 82 bb 30 3f 49 bb 5c 07 d0 3a
       -0.0046002674 -0.0039742035 -0.0030707829 0.0015871334
0000b0 8a 7e f7 bb d8 7c 7d 3b 1c bc 73 3b d8 6c 2d bc
       -0.0075529264 0.003867915 0.003719098 -0.010585032
0000c0 d9 6d 70 3b 34 06 00 bb d0 b6 dd ba 35 29 03 bb
       0.0036686568 -0.0019534947 -0.0016915444 -0.0020013575
0000d0 08 2b 66 3b 59 9b 6d bc a5 d4 46 3b 93 37 a7 bb
       0.0035120863 -0.01450237 0.0030339148 -0.0051030605
0000e0 90 5b 13 bb 87 e7 85 3a 66 72 36 3a 1f d5 09 bb
       -0.0022484995 0.0010216095 0.0006959796 -0.002103157
0000f0 80 bd 0b bb 13 90 c8 ba 78 ed 70 b9 5f ec 5d ba
       -0.0021322668 -0.0015301727 -0.00022976648 -0.0008465703
000100 14 c2 92 b9 1d 0d 79 bb e2 74 dd ba 80 4a a9 3a
       -0.0002799189 -0.00380022 -0.0016895796 0.001291588
000110 2d f5 33 ba d0 e2 26 b9 e5 a6 8e 3a 15 b4 9e 3b
       -0.0006864842 -0.00015915488 0.0010883479 0.004843245
000120 8e af 3e bb 98 e4 6c 39 35 3d 05 3a 4e be 07 bb
       -0.0029096338 0.00022591872 0.0005082668 -0.0020712796
000130 02 c1 6c 3a 29 e6 3d 3a 80 a7 5b ba 8a 96 6a 39
       0.0009031446 0.00072440744 -0.00083791465 0.00022372059
000140 37 45 0b bb c1 60 5f ba 78 26 34 ba 2f 02 2c b9
       -0.0021250972 -0.00085211924 -0.00068721874 -0.00016404012
000150 90 b4 b3 39 44 10 71 ba 7e 82 d6 b8 14 40 8d 3a
       0.0003427607 -0.0009195844 -0.00010228621 0.0010776543
000160 5a 7f 99 3a 97 59 cf 3a b0 34 2c 3a c1 1a 0b b9
       0.0011710927 0.0015819547 0.00065691303 -0.0001326604
000170 4f d9 9b ba 50 12 4f 38 76 6f ba ba c0 c9 a9 b7
       -0.0011890325 4.93697e-05 -0.0014223892 -2.0240317e-05
000180 88 da d0 ba 20 a4 8b ba b8 4a 6b 39 60 e5 8f ba
       -0.0015934268 -0.0010653771 0.00022439181 -0.0010978393
000190 ba 72 4b 39 cc 62 8a 39 8a b0 4a 3b 6c 32 62 bb
       0.00019402328 0.0002639502 0.003092798 -0.0034514917
0001a0 da f9 19 bb 7c b9 e7 3a a6 83 86 ba e9 b3 12 3a
       -0.002349487 0.001767918 -0.0010262623 0.0005596267
0001b0 18 d4 36 36 d5 a8 da 3a 51 5b cf bb 59 2e 26 3b
       2.7243568e-06 0.0016682396 -0.0063280244 0.0025357215
0001c0 0a c6 26 3a 63 76 84 ba ec f3 05 3b dc bc 50 38
       0.00063619076 -0.0010106083 0.0020439578 4.9766953e-05
0001d0 82 98 de ba 20 a7 3b ba 84 b1 6b bb 10 f1 36 bb
       -0.0016982707 -0.00071583875 -0.0035963962 -0.002791468
0001e0 fc 72 97 3a e2 30 b3 ba 21 1f 62 bb 44 a3 57 bb
       0.0011554654 -0.0013671184 -0.0034503418 -0.003290371
0001f0 c6 83 32 3b bb 16 4c ba d7 61 36 3a d2 61 a1 ba
       0.0027239188 -0.00077853695 0.00069573283 -0.0012312478
000200 a3 71 2f 3a aa 3e 78 ba 11 5c 3b 3b 81 a7 fb b9
       0.00066926534 -0.0009469787 0.0028588811 -0.0004799925
000210 93 6b 6a bb 95 4e 38 3b 44 68 f8 3a 41 63 5f bb
       -0.0035769686 0.002812301 0.0018951972 -0.003408626
000220 32 45 a4 3a 8e f4 6e bb c6 6c 2d bc 38 05 50 3c
       0.0012532829 -0.0036461684 -0.010585016 0.012696557
000230 68 b4 14 bc ee 4f 9d 3b 00 ea 0b 3a b9 f1 0b 3c
       -0.009076215 0.004800788 0.0005337298 0.008541518
000240 23 42 70 3b ae 24 a6 bb 73 9d 1b 3c 85 3e ac b9
       0.0036660514 -0.0050702905 0.009497988 -0.00032852977
000250 48 76 05 ba 53 d1 0f 3c f3 6c f1 ba 72 3c 2f bb
       -0.00050911726 0.008777934 -0.001841931 -0.002673891
000260 37 b9 3a ba 62 7d 36 bb 43 cd 81 3b d7 f1 37 3b
       -0.0007122936 -0.002784573 0.0039612367 0.0028067732
000270 d8 85 e3 3a 6e 35 92 38 86 fb 97 ba 57 38 88 3b
       0.0017358614 6.9717746e-05 -0.0011595346 0.004157107
000280 28 71 b6 b9 14 13 84 3b 72 9f a7 3b 3c bb fd 3a
       -0.00034798053 0.0040305946 0.005115443 0.0019358168
000290 e0 de fc b8 23 25 25 bb e3 03 a9 3b 0c 2f 72 ba
       -0.0001205781 -0.0025199137 0.005157934 -0.0009238578
0002a0 00 41 e9 ba 13 70 3b 3b 04 c2 11 ba d5 81 cd 3a
       -0.0017795861 0.0028600737 -0.00055602216 0.0015678952
0002b0 d5 3b ce b9 5c b4 3d bb 0a c1 46 3b 78 b4 a4 3a
       -0.0003933596 -0.0028946614 0.0030327463 0.0012565991
0002c0 d6 f0 15 bb b8 78 fc b9 f2 86 94 ba 56 a8 a7 3a
       -0.0022879145 -0.00048155128 -0.0011331721 0.0012791257
0002d0 14 f2 ec 3a 8c 08 bb 39 75 a4 8e ba bf 97 54 bb
       0.0018077516 0.00035673787 -0.0010882752 -0.003243908
0002e0 69 1b 92 3b 42 24 a0 3a e7 89 66 3a 58 6d 16 bb
       0.004458834 0.0012217837 0.0008794353 -0.0022953358
0002f0 38 ed 30 ba 05 8f 89 3a 2d 1d 8d ba 5e 86 e6 ba
       -0.00067492155 0.0010494894 -0.0010766141 -0.0017587652
000300 0d 24 b4 3b 84 1b 40 ba cf 41 d0 ba c7 c1 3e bb
       0.0054974617 -0.0007328319 -0.0015888753 -0.00291072
000310 88 8d 67 3a c4 c8 87 3b 07 9f 99 bb 54 9f 68 3a
       0.00088330405 0.004143806 -0.004688147 0.00088738394
000320 ef fd 2c 3b cc 9d 88 b9 fc ac 9e 3b 4a 13 8b ba
       0.0026396473 -0.0002605751 0.0048423987 -0.0010610607
000330 f9 b4 67 ba 74 d7 6e bb d4 3e ad 39 28 83 00 bb
       -0.0008838918 -0.0036444338 0.00033043942 -0.0019609425
000340 42 0a 2c bb 45 09 8b 39 b8 f0 bc 39 ba e2 50 3b
       -0.0026251231 0.00026519052 0.00036037504 0.003187342
000350 51 20 c1 bb 2a cb 82 ba dd b8 42 bb 54 83 e8 ba
       -0.005893745 -0.000997876 -0.0029712238 -0.0017739334
000360 60 b2 8a 3a 38 1f 45 3b e7 4d 34 bb 5a 28 5c bb
       0.0010581724 0.0030078422 -0.0027512254 -0.0033593387
000370 53 98 f8 3a aa 99 f6 39 b6 2e e8 ba b4 3f 98 3a
       0.0018966295 0.00047035265 -0.0017714116 0.0011615665
000380 98 39 53 bb 42 51 ce ba 43 71 80 b9 58 fc f3 b9
       -0.0032230373 -0.001574077 -0.0002449845 -0.00046536583
000390 e2 5c ee 3a 32 e1 12 3a 66 9d f7 39 aa 24 cb 3a
       0.001818564 0.0005603015 0.00047228782 0.0015498598
0003a0 06 87 c0 3a c2 72 a4 3a 01 85 d9 3a 2a 01 95 b9
       0.0014688678 0.0012546408 0.0016595424 -0.00028420362
0003b0 42 6e 92 b9 e9 51 81 3b e8 3c 2b 38 fd ba 14 3a
       -0.00027929439 0.003946532 4.08263e-05 0.00056736154
0003c0 a2 39 16 ba 25 4b b7 ba 68 ea 86 39 58 b9 59 3a
       -0.0005730634 -0.0013984187 0.00025733118 0.00083055114
0003d0 be 05 08 3b e8 87 cf 37 0a 38 b7 3a 6d 70 de ba
       0.0020755376 2.473961e-05 0.0013978493 -0.0016970761
0003e0 f4 5b 00 ba a1 e0 ad ba 76 8b 07 bb 18 2f a5 ba
       -0.00048965146 -0.0013265797 -0.002068249 -0.0012602536
0003f0 99 aa 59 bb e0 ea 3e ba 81 39 33 3a 4e f2 00 bb
       -0.0033213256 -0.0007282924 0.0006836877 -0.0019675675
