models/fraud_detection/final_model.pth (torch, 213071 bytes, 59 tensors)

layers.0.weight f4 [128, 30]
00000000: 272e 323e 5b85 0bbe b021 e63c 0dd3 39be
00000010: dbf9 d63c 5455 a53d 14bf 42be 1016 7d3c
00000020: 1d95 c0bd e7aa e5bd a6e9 3f3e d650 42be
00000030: 2354 533d 0f9d 1e3e 8d30 053e 73ef ba3d
00000040: f333 a63b fce2 6a3e 0d0e 5ebd b52d d23d
00000050: 401b d93d c326 1ebd f922 83be cc2d 0a3e
00000060: 9a53 11bc 03f1 d33b 1070 973c c01a 34bd
00000070: 9756 7cbe ee22 0c3d 022c 5bbd 1221 99bd
00000080: fe3d a33c a20d abbd 5c4a 82bd df1b 3d3d
00000090: 86e1 643c d48e 86bd c5cd 133e 00e4 a93d
000000a0: 1f1d 5a3e bfaa 053e af75 233e a036 393e
000000b0: 5d4c 3e3d 1e70 af3c 3698 90bd ee42 edbd
000000c0: 81eb d93d 6f46 5dbd 0c47 563e 6a5f b0bd
000000d0: efdd 933d f215 1d3e d1d5 6cbd 27cd 5fbd
000000e0: 3624 a6bd 2689 5b3e 438d 46be f037 d3bd
000000f0: 43fc 1ebe 9a29 c93d 8679 d3bd 9934 64bc
00000100: 00da 813e be5c 7c3c e97f 6e3e d2c7 013d
00000110: f994 61be 105f ac3d ab75 24be 8289 56bb
00000120: 8e91 1abe 955b 3bbe d26e cd3d 9e22 5f3e
00000130: ee59 86bd 1da7 ffbd 75d2 acbb e3f0 2cbd
00000140: 4f2a c33c 643c 38be 8cf9 ab3c f588 07be
00000150: 5221 0a3e a21c fdbd e242 2abe fd7f d5bd
00000160: ccef 3238 26a7 043d 27a8 eabc 8a85 00be
00000170: fd1c e7bd 4efe b63d 2aca 143e 4b74 013e
00000180: 1303 a83d 54af 0ebe 8f83 b43b 15f7 023e
00000190: 2db9 493e 59bc c8bd 657b 90bc 659b 203d
000001a0: 79ad 043e a153 083c aaee a9bc 28b9 1bbd
000001b0: 1457 11be 4795 b53c 7907 d13c 270b 393e
000001c0: 5455 643e b39c 15be c6a8 c73d c627 793d
000001d0: 9b31 063e 1f2a c0bd f842 e73d e9e7 ff3c
000001e0: 1f0a 2b3e 65d8 2e3e 0499 803c 8949 423c
000001f0: 186b 24bc 785d 40be 1456 f5bd c6de b0bd
00000200: 558f 7bbe dd9f 353d f021 683e eac6 4f3e
00000210: f083 eb3d fce2 8f3e 8aec 2abd fc2c a9bd
00000220: ec5b 853e ed2c e73c 4f17 65bc 9f0f 44be
00000230: 3eda 73bd 6547 07be d014 7c3d 9bd8 99bc
00000240: c758 573d 61a6 88bc 9482 f63d 354e 82bd
00000250: 036e 1c3e a5af de3b 2522 9fbd d8e6 973e
00000260: 7702 313d c842 783c 65f1 27bd 3fb8 02be
00000270: 5327 a03d fe84 08be 5587 de3d ee4a d63c
00000280: e1fd 243d e4ab 133e 1c99 8bbd 4642 fbbc
00000290: a197 133e cabd d03d e420 413d 2a91 ac3d
000002a0: c72c c1bd 2c9b 9f3d 091f 25bb 7c38 9f3c
000002b0: 4ab0 413d d651 a73d 1a4b 46bd 7824 2d3d
000002c0: 9063 e03c 100b 773d 6bc4 5cbd 7cd6 33bf
000002d0: 0c6d 2dbe 350c 1cbe c0ed 66bd 48e8 54be
000002e0: 05e3 1b3d 32f3 3dbe 3f1a 25bb 0029 e7bd
000002f0: 4aaf 263e 6cd0 dcbd 8208 21be db5c 0cbe
00000300: 3b90 1dbe e92f b73d aa70 ddbd 7017 bb3c
00000310: a65a d63d b5c8 e7bc 9f51 23bc 0ee5 ff3d
00000320: 77e1 c43c 8bc4 333d 6cdb 783a 7fa0 15bd
00000330: 9fd7 5fbe 3473 7bbe 8825 513e f614 163e
00000340: 7412 e5bb c653 143c f142 533e 817b 333e
00000350: e903 083d d119 7f3c 3d54 183e aa8e 753d
00000360: 0ba9 69be 5a0b ebbd 29ca d73c fe85 34be
00000370: 3253 15be 4ee4 eb3d e6b0 453e 6e91 2d3e
00000380: fa66 66be 6f9a 3c3e f0ab 063e 3873 aebd
00000390: bf1b 633d f341 ed3d dc09 2c3e 6fd3 cfbd
000003a0: b9ba 233d c101 dcba 4cf4 253e ef6c cabd
000003b0: ff9e 143e 0a57 babd 3495 8fba 88ff d9bb
000003c0: fcbc 20be 2a5a 463e 2ba9 e0bb 6d20 53bd
000003d0: 1d6c e3bd ae36 91bd b580 75bc 48bf 3c3d
000003e0: 7362 0a3e 21c6 72be 7007 4a3e 793d 48be
000003f0: a1fd 71bd e43e c9bd def2 01be 7d87 f03d
0.17400418 -0.1362509 0.028092235 -0.18146916 0.026242187 0.08072916 -0.19018203 0.015447155
-0.09403441 -0.11214238 0.18741474 -0.18976149 0.05159391 0.154896 0.13006802 0.091277026
0.005072111 0.2293815 -0.05421262 0.10262624 0.10600901 -0.038611185 -0.2561262 0.13494033
-0.00887003 0.00646794 0.018486053 -0.043970823 -0.24642406 0.034213 -0.053508766 -0.07477011
0.019927021 -0.0835221 -0.06361839 0.046169158 0.013969785 -0.06570211 0.14433964 0.08295441
0.21300171 0.13053416 0.15962861 0.18087244 0.046459544 0.021415766 -0.07060282 -0.115850314
0.10640622 -0.05402225 0.2092554 -0.08611949 0.07220065 0.15340403 -0.0578211 -0.054639008
-0.081123754 0.21439037 -0.19389825 -0.103134036 -0.15525918 0.09822388 -0.10325913 -0.013928556
0.25361633 0.015402971 0.23290981 0.031684704 -0.22029485 0.08416569 -0.16060512 -0.003273577
-0.15094587 -0.18296655 0.10030903 0.21790549 -0.065601215 -0.12483046 -0.005274112 -0.042221915
0.023823885 -0.17991787 0.020993017 -0.13235839 0.13489273 -0.12358977 -0.16627076 -0.104248025
4.2661835e-05 0.032385968 -0.028644634 -0.12550941 -0.11284826 0.089352235 0.14530244 0.12642018
0.08203711 -0.1393407 0.005508847 0.12789567 0.19699545 -0.098015495 -0.017636964 0.039210696
0.129568 0.00832072 -0.020743687 -0.038018376 -0.14193374 0.022165908 0.025516259 0.1807066
0.22298175 -0.14610557 0.09748988 0.060828947 0.1310486 -0.09383034 0.1129207 0.031238513
0.1670308 0.17074735 0.015697964 0.011858352 -0.010035299 -0.18785655 -0.11979309 -0.08636241
-0.24566396 0.04434191 0.22669196 0.20290723 0.114997745 0.28102863 -0.041729487 -0.08260533
0.26046693 0.028219664 -0.013982608 -0.19146584 -0.059534304 -0.13210829 0.061543286 -0.018780043
0.0525749 -0.016680898 0.120366246 -0.06362573 0.15276341 0.006795841 -0.077701844 0.29668307
0.04321524 0.015152641 -0.041001696 -0.12765597 0.078200005 -0.13331982 0.10865656 0.026158776
0.04028118 0.1442104 -0.06816313 -0.03067125 0.1441331 0.101924494 0.047150508 0.08426125
-0.09432369 0.077932686 -0.00251955 0.019436114 0.047287263 0.08169906 -0.048411466 0.042271107
0.027391225 0.060313284 -0.053898256 -0.7024915 -0.1693613 -0.15239032 -0.05637908 -0.20791733
0.0380583 -0.18549803 -0.0025192646 -0.11287117 0.16277805 -0.10781941 -0.15725902 -0.13707297
-0.15387051 0.08944685 -0.108125046 0.022838324 0.104665086 -0.028293947 -0.00996819 0.124948606
0.024033291 0.04388861 0.00094931456 -0.036530014 -0.21859597 -0.24555665 0.20424473 0.14656433
-0.006990725 0.009053176 0.20631005 0.17527582 0.033206854 0.01557012 0.14875884 0.05995051
-0.22818391 -0.114767745 0.026341515 -0.17629239 -0.14582518 0.11518155 0.19305763 0.16950008
-0.2250022 0.18418287 0.13151526 -0.0851807 0.055446383 0.115848444 0.16800636 -0.1014775
0.039972994 -0.0016785191 0.16206473 -0.09884059 0.14513777 -0.09098633 -0.00109545 -0.006652776
-0.15697092 0.19370332 -0.006856104 -0.051544596 -0.11104605 -0.070905074 -0.014984299 0.046080858
0.13514118 -0.23708393 0.197294 -0.195547 -0.05907977 -0.098264486 -0.12690303 0.11744592

layers.0.bias f4 [128]
00000000: e0eb e3b5 2c55 a434 a290 5eb5 5e25 67b6
00000010: 2d72 afb5 f2a9 9c34 1225 08b5 e8fe 8733
00000020: b61a 3e35 f48e dc36 f524 a736 6b02 8835
00000030: c8da 8ab5 9dcd 8436 963a 2b35 54e9 3bb4
00000040: 3c7c 3d36 7071 0534 3190 dab6 ee02 ebb4
00000050: 5084 eb32 f80b d8b5 0a7f 9ab6 4947 8cb5
00000060: 5ad6 32b6 60f7 35b4 add9 19b5 33d1 d1b5
00000070: 4ede c7b5 3736 adb6 a6a7 3fb5 b943 b834
00000080: 6c93 3e35 963e 1db6 d8a3 6936 f354 82b5
00000090: 30c0 ac35 0334 5f36 c0fd 0eb6 acb5 6433
000000a0: 0e6f c436 140f d635 f65f c2b5 1d75 0036
000000b0: 5b15 1a36 2df1 88b6 d16e d234 0beb 43b6
000000c0: a9ef 07b6 4826 03b6 6842 35b3 2ac0 93b5
000000d0: 5699 f335 5747 cc35 9797 82b4 a204 2a36
000000e0: 7380 d0b6 40df 0d36 0668 9236 13b0 e6b4
000000f0: 258d 2c37 328b 00b5 2e0a 8835 550f 33b6
00000100: 9650 45b6 cb92 2c36 7837 84b5 d091 1535
00000110: 64fc b336 eb08 71b6 059e 9135 f710 5eb5
00000120: d60c 9635 1eaa bf37 6e2f fc35 216f b0b5
00000130: 2c1e 1035 e6c1 40b5 9d6c c1b5 104b 10b6
00000140: a8ae 3635 4fd2 1136 eeb3 0636 660e b3b4
00000150: 1638 a4b4 b0d8 48b4 16e9 a033 ef48 16b6
00000160: 6404 1cb6 d61b dfb5 fe47 25b6 5ea2 8034
00000170: 76e0 3d34 5533 3fb6 e3af f4b5 34c4 f334
00000180: a4b2 0a36 9c00 1bb5 fa64 5036 aa8e 6cb5
00000190: d0d4 bd35 06ef 51b5 3a64 60b5 94fe 38b6
000001a0: 8ade 96b6 152a aeb6 b6f1 cc35 0aa5 8fb5
000001b0: 2ec0 6235 2c54 7335 0864 a1b6 710d 4a36
000001c0: 9b91 6634 c048 fb35 40c5 9c36 209d 5132
000001d0: 3344 2b36 c743 65b5 f90e aeb7 84f6 b335
000001e0: 9225 93b5 ba77 acb6 0cce f4b5 be36 0035
000001f0: ba13 0636 24f5 7134 46c7 8e36 aa2e 96b6
-1.6981467e-06 3.060935e-07 -8.2911913e-07 -3.4443433e-06 -1.3071746e-06 2.9180916e-07 -5.071789e-07 6.3327946e-08
7.0819385e-07 6.573153e-06 4.98129e-06 1.0133493e-06 -1.0345475e-06 3.957843e-06 6.378772e-07 -1.7500616e-07
2.8235509e-06 1.2427859e-07 -6.5136924e-06 -4.3774293e-07 2.741777e-08 -1.6096737e-06 -4.604347e-06 -1.045156e-06
-2.6648836e-06 -1.6946933e-07 -5.73137e-07 -1.5632598e-06 -1.4891355e-06 -5.162113e-06 -7.1397005e-07 3.4321945e-07
7.099504e-07 -2.3431253e-06 3.4815075e-06 -9.710478e-07 1.2870933e-06 3.3259864e-06 -2.130735e-06 5.3250616e-08
5.8541837e-06 1.5948631e-06 -1.4482055e-06 1.9141655e-06 2.2960219e-06 -4.0811924e-06 3.9196178e-07 -2.9194077e-06
-2.0256068e-06 -1.9542804e-06 -4.2202743e-08 -1.1008281e-06 1.8149537e-06 1.5219947e-06 -2.4324683e-07 2.533467e-06
-6.2138365e-06 2.1140586e-06 4.363249e-06 -4.296895e-07 1.0284862e-05 -4.788627e-07 1.0135752e-06 -2.6682003e-06
-2.9402195e-06 2.5715442e-06 -9.85091e-07 5.571901e-07 5.363998e-06 -3.591699e-06 1.0849332e-06 -8.272613e-07
1.1179607e-06 2.2848191e-05 1.8789267e-06 -1.3145365e-06 5.3688086e-07 -7.1807733e-07 -1.4411231e-06 -2.1501364e-06
6.805444e-07 2.17291e-06 2.0072289e-06 -3.3351824e-07 -3.0588188e-07 -1.8705282e-07 7.492979e-08 -2.2394195e-06
-2.3248367e-06 -1.6622896e-06 -2.462882e-06 2.3959996e-07 1.7683655e-07 -2.8491097e-06 -1.8230606e-06 4.5405034e-07
2.0667585e-06 -5.7742886e-07 3.1053191e-06 -8.8124455e-07 1.4143534e-06 -7.820639e-07 -8.359235e-07 -2.756632e-06
-4.4962553e-06 -5.190503e-06 1.5269532e-06 -1.0702363e-06 8.447122e-07 9.064704e-07 -4.809819e-06 3.010817e-06
2.147339e-07 1.872213e-06 4.672125e-06 1.2201127e-08 2.5520683e-06 -8.5407777e-07 -2.0749389e-05 1.3408285e-06
-1.0963288e-06 -5.1399375e-06 -1.8239384e-06 4.7763376e-07 1.9979038e-06 2.2534056e-07 4.2551283e-06 -4.4757808e-06

layers.1.weight f4 [64, 128]
00000000: 9753 67be 3691 b53d 2b11 d4bc 2aa5 1ebc
00000010: 3459 5b3d 7bfe aabc d0eb b8bb fb4c 5f3e
00000020: b9e3 4a3d d405 963d a9af 0a3d 1ff7 8f3c
00000030: 7deb 45be 2b67 103c 2416 ab3d 646c 093d
00000040: c634 dd3b 1ebf acbc e635 10be 7ffc 84ba
00000050: a383 953d d273 313e 124d 6bba ae39 8dbc
00000060: 94b7 0c3e a770 313e cfb1 94bd c002 aebd
00000070: 3e4b 78bd 832e ea3d cd94 b43d d4f7 d4bc
00000080: 36a6 edbc 51d1 39ba 0846 213d 6937 5ebb
00000090: 26c5 663e 6a97 c33d 0bbd 9f3c 063f db3d
000000a0: d258 1e3c 86d9 963c 89cf eb3d 6a12 d1bd
000000b0: 974e 01be 4d88 853b ba88 373e a5f6 6a3d
000000c0: 34a8 fd3c 67fc 2c3d 1b9e 193e 0044 ea3d
000000d0: 607b f93d 5cef d23d c0d8 0f3e b857 b63d
000000e0: 83e8 163e 7cc9 503e 2af7 9bbd 7789 743c
000000f0: ae64 0d39 b5f3 3dbc f018 3dbd ff5d d8bd
00000100: ef22 933d 2a4c ba3d 4be2 e6bb e7a5 c1bc
00000110: b73d 903d 6e05 3a3e 5125 d73d 74a8 1c3d
00000120: e35a 21bd a86f c73d 6afd c93d 9927 ef3d
00000130: 3d3a 093b 7dec 0f3d 0329 763d 6d23 5a3e
00000140: 5f1f 503d c16c af3d da65 84bd 7bba d83d
00000150: 66a1 90bd d65c 5e3d 242d 7dbd 0bfb 96bd
00000160: 4403 113e c768 f83d 04a2 2f3d 7200 213e
00000170: b5c8 863d c294 893d eeac adbc 38b5 e73d
00000180: e011 e13a 6156 04bb 6c8f 1dbd 3997 083e
00000190: a7bf 973d 6b91 723b 8f34 d83d c399 b53d
000001a0: b573 abbb fe31 d93d ea27 813d 43a0 b2bd
000001b0: 06de 223e c275 533d 8fb0 a53d bd2d fa3d
000001c0: a28e 75bb f853 843c 7b61 e8bd 4a41 cfbc
000001d0: 900b 083e e6d1 bb3c 9c64 a7bb 2fcf a23d
000001e0: 0269 fb3d da0d 913d 2e4c d9bd b562 cfbc
000001f0: 5f00 aebc 2e20 f53d fb81 b73d b3c2 d63d
00000200: 23a8 d9bd 6a96 5bbd 28ea f3bd 181c 8ebe
00000210: 98e1 1abc 1ad6 333e 5c88 4fbd 31c5 01bd
00000220: 0482 d4bd c9e2 9abd 55fc 1fbe 0cfa f4bd
00000230: 6581 22ba 4ea2 613d 87a6 abbd d850 86bd
00000240: 1cc4 57bd 8c35 083d 1a3a 08be b382 febd
00000250: ee6c a4bc fafb 403a 7722 acbd ec4c 47bd
00000260: bc79 96bd 57e7 533d a7c3 383c b8b9 4c38
00000270: 5eb6 39be 3da6 4d3d 1316 803d fcea a83d
00000280: 7074 1abd b094 283d dd12 31be 2625 cf39
00000290: 4f3b e93d 5ec9 92be 21d6 c0bd 9be3 d5bd
000002a0: e965 05be 9bdc 333d d40d 0f3e f411 4ebd
000002b0: 659b c7bd 0dc3 01bc a5b3 c33d f2fa 80bd
000002c0: da62 ad3d 0386 2ebd 35e1 a83d 657f 0fbe
000002d0: 18d1 abbd 5302 9bbd b913 783d 3e27 5f39
000002e0: 1790 debd db6f de3d cf93 05be d053 f8bd
000002f0: 2e55 28be d771 50bd db60 14be 3fae 44bd
00000300: 97fc 1cbd d1e0 853d 78af f93d 9d2a 003e
00000310: 3e8a f23d 0d15 573d 7ad1 163e b414 493d
00000320: 0f93 b7bd 8cb0 ddbd 548e d73d dd0e 9b3d
00000330: 2c6a 28bd 45ff 08be f952 543d fc60 57bd
00000340: 3b12 6ebd cbbf da3d 2186 e73d 1278 c83d
00000350: b7cf dfbd 383f b335 ed47 54be 120f 03be
00000360: 5443 85be bdbb 17be 37b0 803e 5774 b7bc
00000370: fa7a 283d e56a cc3d 580a f63c 5604 f4bc
00000380: fda1 debd a20e aabd d09b 09be 99a8 ce3d
00000390: d952 58bc 6b6f 57bd fc89 61bd 8598 e0bd
000003a0: dea0 69bd fd65 38be a53c 053e 041a c3bd
000003b0: b8a1 513d d5b4 e3bd 28d9 a9bc f872 943b
000003c0: 201d 93bd 271d fabc 2f72 d6bd 24b7 65be
000003d0: aa9f 6538 8108 fe3d 969b 10be 9b29 45be
000003e0: 3f8a 73bc 02db 63bd 5087 fdbd a0c1 c2bd
000003f0: 59f8 a0bd 3871 103e f329 933d 4ae3 a6bd
-0.2259048 0.088655874 -0.025887093 -0.009682933 0.053551868 -0.020873299 -0.0056433454 0.2180671
0.04953358 0.073253304 0.03385893 0.017573891 -0.19328113 0.00881366 0.08353832 0.033550635
0.006750676 -0.021087226 -0.1408306 -0.001014605 0.07300498 0.17329338 -0.0008976023 -0.017239418
0.13741904 0.1732813 -0.07260477 -0.08496618 -0.06061863 0.11434653 0.08817444 -0.02599708
-0.02900992 -0.00070883805 0.039373428 -0.0033907539 0.22536144 0.09550364 0.019499322 0.1070538
0.009664731 0.01841427 0.115141936 -0.1020859 -0.12627636 0.004075086 0.17923251 0.057364125
0.030963995 0.042232897 0.15001719 0.11438751 0.12181735 0.102995604 0.14047527 0.0890345
0.14737134 0.2038936 -0.07615502 0.014925352 0.00013484314 -0.011593749 -0.04616636 -0.10564803
0.071843974 0.090965584 -0.007046019 -0.023638679 0.07043021 0.18166134 0.105051644 0.038246587
-0.039393317 0.097380936 0.09862788 0.116774745 0.0020939254 0.035137642 0.060097706 0.21302576
0.050811168 0.08565665 -0.06464739 0.10582443 -0.07062034 0.054287754 -0.061810628 -0.073721014
0.14161402 0.1212936 0.04287912 0.15722826 0.065812506 0.067178264 -0.021200623 0.113138616
0.0017171465 -0.0020193087 -0.038466856 0.13338937 0.07409602 0.0037012945 0.105569 0.08867218
-0.005232299 0.106052384 0.06306441 -0.08721974 0.15905008 0.051625974 0.080903165 0.12215755
-0.003746905 0.01615332 -0.11346718 -0.025299687 0.1328566 0.022927236 -0.005108429 0.079496734
0.12275888 0.0708272 -0.10610233 -0.025315622 -0.021240411 0.119690284 0.08960339 0.10486355
-0.10627773 -0.053610243 -0.11909896 -0.2775581 -0.0094532 0.17562142 -0.05066715 -0.031682197
-0.10376361 -0.07562787 -0.15623601 -0.11961755 -0.0006199091 0.055086426 -0.08381372 -0.065583885
-0.05267726 0.03325419 -0.13303414 -0.12427273 -0.020071473 0.0007361766 -0.08405011 -0.048657343
-0.07347438 0.051734295 0.011277116 4.8810354e-05 -0.18135974 0.050207365 0.0625421 0.08247945
-0.0377087 0.041157424 -0.17292352 0.00039509794 0.11388265 -0.28669256 -0.09415842 -0.10443803
-0.13027157 0.043911558 0.13970119 -0.05031009 -0.09746436 -0.007920039 0.09555749 -0.06297864
0.0846612 -0.042608272 0.0824608 -0.14013441 -0.08389491 -0.07568803 0.060565684 0.00021281556
-0.10867327 0.108611785 -0.13044666 -0.12125361 -0.16438743 -0.050889816 -0.14490072 -0.048017737
-0.038326826 0.06537021 0.12191671 0.12516256 0.11842774 0.05251031 0.14728346 0.04909201
-0.08963596 -0.10824689 0.10525194 0.07571194 -0.04111688 -0.13378628 0.05183694 -0.052582726
-0.058122855 0.10681113 0.1130488 0.097885266 -0.1092829 1.3354938e-06 -0.20730563 -0.12798718
-0.2602793 -0.1481771 0.2513444 -0.022394342 0.041132905 0.09981326 0.03003423 -0.029787224
-0.108707406 -0.08303572 -0.13438344 0.10090751 -0.013203346 -0.05259649 -0.055063233 -0.10966591
-0.05703818 -0.18007655 0.13011415 -0.095264465 0.051179618 -0.11118475 -0.020733431 0.004530307
-0.071832895 -0.030531479 -0.104709975 -0.22433144 5.4746553e-05 0.12403966 -0.14121851 -0.19254152
-0.014864503 -0.055628784 -0.123793244 -0.09509587 -0.078598686 0.1410569 0.071857356 -0.08148821

layers.1.bias f4 [64]
00000000: c52f 82b6 f9e3 8e34 8d1b d936 323b 0937
00000010: 7e81 6f36 20f4 9cb6 4b55 1035 98ca a036
00000020: 1850 00b5 43ad 67b4 700f 4d35 845f 90b5
00000030: 4128 6e35 2ccf 85b3 4e1e 74b6 9d82 18b6
00000040: ea30 56b5 3b19 e1b5 5f4a 1736 d7ee a535
00000050: 1b20 ba36 eef3 46b6 682c 8fb6 80f0 d232
00000060: d832 1cb3 6570 2036 8c30 8c36 887f 1135
00000070: 5c6e 9034 8423 3a35 c6be 0937 fc92 6b35
00000080: f841 2d36 5a0f ebb6 6656 86b5 8985 78b5
00000090: 349c c435 114c 9ab6 99fc a034 4229 f9b5
000000a0: 0a9e 8d35 445f 6eb6 722b 2c35 5fb7 d135
000000b0: 74ba e8b5 b327 e836 0052 4e30 b50a 9b36
000000c0: bbde 63b6 383c 7036 2f7b 0cb7 3bc7 0335
000000d0: 47e5 0036 40ad a733 0a1b fd35 ca86 c934
000000e0: 6bbc 1a36 a8cf 91b5 49e3 cab5 584b 90b6
000000f0: f2e3 b2b5 ecbb 3033 8843 1135 a404 f8b5
-3.879863e-06 2.6615433e-07 6.4703113e-06 8.179619e-06 3.568915e-06 -4.677582e-06 5.37683e-07 4.7919566e-06
-4.780027e-07 -2.1576584e-07 7.6390916e-07 -1.0756635e-06 8.8720486e-07 -6.2309795e-08 -3.6376473e-06 -2.2725792e-06
-7.979239e-07 -1.6771149e-06 2.2544043e-06 1.236297e-06 5.5469695e-06 -2.9646285e-06 -4.2669017e-06 2.4556584e-08
-3.6367823e-08 2.390728e-06 4.1779767e-06 5.420229e-07 2.6902387e-07 6.934208e-07 8.210254e-06 8.775821e-07
2.5817408e-06 -7.005333e-06 -1.0008923e-06 -9.258152e-07 1.4648599e-06 -4.598413e-06 2.998611e-07 -1.8563953e-06
1.0551314e-06 -3.5520216e-06 6.4138214e-07 1.5625081e-06 -1.7339612e-06 6.9187604e-06 7.505889e-10 4.6206064e-06
-3.3955282e-06 3.5797839e-06 -8.373331e-06 4.909122e-07 1.9206943e-06 7.8080575e-08 1.8857838e-06 3.753724e-07
2.3057462e-06 -1.0863778e-06 -1.5116321e-06 -4.3003056e-06 -1.3328374e-06 4.1149107e-08 5.411498e-07 -1.847879e-06

layers.2.weight f4 [32, 64]
00000000: fabd e63d 9a12 583d d85d c53d 53ef 44be
00000010: 98a3 04be 92f2 65be 4c0c 92be d2e7 0ebd
00000020: 094b c9bd a487 b73c ae79 42bd 3375 39be
00000030: 0a88 8cbd 9944 d33d c32f 0c3e 3280 823e
00000040: 697b a23d bf88 0cbd 7e86 083e f1b6 6cbb
00000050: d0a6 ca3e c195 f7bd b12b 003e cde0 a03d
00000060: a7a7 99bc 3758 1bbc b2d4 ca3d bf04 c03d
00000070: 94eb 37bb 5bf7 d6bb 39e2 afbd 318d 973e
00000080: 0bb6 51be e516 023e 36b4 b63d a47c c2bd
00000090: 5d78 39be 4455 833c b19d 5fbe 25fa 263e
000000a0: 9217 92be 83fe 173e c458 4d3d febb 1c3d
000000b0: 901e a63d 6e20 003e e565 2cbe fb89 973c
000000c0: a93f 393e 74cf 03bd f931 01be a208 b6bc
000000d0: 5206 63bd bf91 8f3e f499 71bd 2090 e1bd
000000e0: bc76 073e 95b6 e83c a973 b5bc dbf4 393e
000000f0: e47c fc3c 5db8 e13d c243 263e 5ea9 7dbe
00000100: 51e4 f03c 3c92 f93d e084 25be a088 afbd
00000110: 2d55 643d 144e c6bd bcf9 a1bd f16e 643d
00000120: 0303 b9bc 241d a23c 5d3a 13be e369 633d
00000130: 311e cc3d 34db 7c3d 2c3f 86bd bd3a 7e3e
00000140: daf5 93bd 491a 9e3b fc66 10be 5e88 5bbd
00000150: 2927 c23d d4f8 f6bd 78a7 16bd 0983 283e
00000160: a729 c13d b5df b4bd 66ff 28be bbc8 793d
00000170: ff35 04be 5121 67bd 1149 993d fa61 b43c
00000180: 9b13 b4bd 00ae 42be 057a b13d 031e 07be
00000190: 376e 23bd 4f09 a6bc 9d04 8cbd 9b6c 9e3e
000001a0: 365a b6bd 9ced 40be 875f 37be bf92 843d
000001b0: 5569 d8bd 81a1 54bd f023 ccbd 00d8 ba3d
000001c0: c54e 753d e214 38be 438e 98bd c07d 42bd
000001d0: 86f4 a4bd 1f4c 9ebd 6f34 b03d 313a 003b
000001e0: 8943 48bd 775f dfba b7a6 0ebe b77a 39be
000001f0: 69e6 f8bd 8645 fbbd 421a 3c3d 4c15 53bc
00000200: 768b 033e f8e6 b4be da4e 593e a158 103d
00000210: 14fa 58be 5e99 693e 828f 793d 5565 2ebe
00000220: 4a1d ddbd 7ede 463c eb7d 6e3e 8c6c 08bd
00000230: 79e5 54bd 5764 92be d076 d53d 7f2a 70be
00000240: a13c fb3a 3336 87be 3ba8 723e c3e6 513e
00000250: 0e0a 5dbe 1e53 373e c7ba 603e 5501 153c
00000260: 3a53 e43c 8c2c 92bd a7bb 88bc 2f69 6f3e
00000270: 25af b3bc b3e0 623d 3bf4 b2be 101f 083d
00000280: 9649 babd 9b9b b63d faa8 0cbe 5d8a 5cbd
00000290: 3c23 cfbd 12e4 283e 5e32 113e 319b 903d
000002a0: 6bc9 6bbd ac13 5e3e 81dd fe3d 3224 313c
000002b0: 1843 963d ed7a 863d 6409 53bd 6b74 1abd
000002c0: 8bb3 863d bee2 c2bd 56c6 a43d 5b78 973c
000002d0: ad09 833d 1825 193e 64cd 60be e916 1c3d
000002e0: db62 d13c e4c1 01be a175 5f3e f331 a33d
000002f0: b238 d63d 2a98 2c3d b2b4 e53d 7fce 293e
00000300: 44d8 aa3d b455 fa3d 46dd cd3d 8b6b b6be
00000310: afcb 4dbe 723e 3bbe 61f6 2fbe 227e 10be
00000320: 49e9 f6bc b5c9 243c 90e7 ce3c eecc bfbd
00000330: 145d cf3d fd89 c33d c8cc 1e3d c811 a1bd
00000340: 8981 e83d abe0 923d 8b2b 6f3e 336a 38be
00000350: 7dcf 0f3e 19d8 bcbd 7767 0b3e 9249 503e
00000360: 740d 9b3c edd0 9bbc 1e34 33bd 5f88 1b3e
00000370: 6e7d 7bbe 33ce 193d cfa7 13be 3063 bd3d
00000380: e1e3 03be ad73 a53d 9ad5 a23a 52c0 09be
00000390: ef47 a3be 34dc 09bc b739 74be 211a 203d
000003a0: 043a 3cbe a8b2 573d 9f39 c63d 8bc3 8ebd
000003b0: 77a8 563d d1de 953e 9883 0fbe e26e 7d3c
000003c0: 8ba4 b13d 117d 69be fd02 2fbd 879a 173d
000003d0: e203 7c3e ea77 753d 2f62 203d cba8 cdbd
000003e0: c7d9 a63d 5d33 0f3e b608 71be a105 c2bd
000003f0: ac89 1a3e 9d94 003e f53c 293e e87f 8cbe
0.11266704 0.052752115 0.0963704 -0.1923192 -0.12953031 -0.22455814 -0.28525007 -0.03488905
-0.09828765 0.022403546 -0.047479324 -0.18111114 -0.06861885 0.10315818 0.13690095 0.2548843
0.07933695 -0.0343101 0.13332555 -0.0036119784 0.39580393 -0.1208911 0.12516667 0.07855377
-0.0187567 -0.009481481 0.0990385 0.09375905 -0.0028064 -0.006560249 -0.085880704 0.29599908
-0.204796 0.12704046 0.08921091 -0.094964296 -0.18112321 0.016031869 -0.21837498 0.1630636
-0.28533608 0.14843182 0.05013348 0.03826522 0.08111298 0.12512371 -0.16835745 0.018498411
0.1809069 -0.032180265 -0.1261672 -0.022220913 -0.05542595 0.28040883 -0.05898471 -0.11013818
0.13228887 0.028407374 -0.022149878 0.18159811 0.030821271 0.11021493 0.16236785 -0.2477164
0.029405745 0.12186095 -0.16163969 -0.08570981 0.055745292 -0.09682861 -0.07908961 0.055769864
-0.022584444 0.019789286 -0.14377733 0.055520903 0.09966696 0.061732486 -0.06555018 0.24827094
-0.07224627 0.004824911 -0.14101785 -0.053596847 0.094801255 -0.12059179 -0.036780804 0.16456236
0.09431773 -0.08831731 -0.16503677 0.060982447 -0.12911223 -0.056428257 0.074846394 0.022019375
-0.08792802 -0.19011688 0.086658515 -0.13195042 -0.03990003 -0.02026811 -0.068368174 0.30942234
-0.08903925 -0.18840641 -0.17907535 0.06473302 -0.105669655 -0.051911835 -0.09967792 0.0912323
0.059889574 -0.17976716 -0.07449009 -0.047483206 -0.08054452 -0.07729363 0.08603751 0.0019565935
-0.04889253 -0.0017042 -0.13930784 -0.18113218 -0.12153322 -0.1226912 0.04592348 -0.012883496
0.12846169 -0.35332465 0.21221486 0.035240773 -0.21189147 0.22812411 0.060927875 -0.17030843
-0.10796602 0.012138007 0.23290221 -0.033306643 -0.051976655 -0.28592178 0.10423052 -0.23453711
0.0019167849 -0.26408538 0.23696987 0.20498185 -0.21585867 0.179028 0.2194625 0.009094556
0.027871717 -0.07137403 -0.016691042 0.23379968 -0.021934101 0.05539007 -0.34951958 0.03323275
-0.09096067 0.08916398 -0.13736334 -0.05384289 -0.10114142 0.16493252 0.1417937 0.070608504
-0.057565134 0.21687192 0.12444592 0.010811852 0.07337016 0.06566415 -0.051522627 -0.03770868
0.06577214 -0.09515904 0.08045642 0.018490007 0.0639833 0.14955556 -0.2195335 0.038107786
0.025559833 -0.1267162 0.21822216 0.079685114 0.104600325 0.042137302 0.112161055 0.16582678
0.08342031 0.12223378 0.1005197 -0.35628924 -0.2009723 -0.1828554 -0.1718383 -0.14110616
-0.030140536 0.010057856 0.025256902 -0.09365259 0.10125175 0.095478036 0.038769513 -0.0786472
0.11352832 0.07171758 0.23356454 -0.18009262 0.14043994 -0.09220905 0.13613687 0.20340565
0.018927313 -0.019020522 -0.043750875 0.1518874 -0.24559566 0.037550163 -0.14419483 0.09247434
-0.12879898 0.08078704 0.0012423277 -0.1345227 -0.31890818 -0.008414317 -0.23850141 0.03908742
-0.18381506 0.052660614 0.09678959 -0.069708906 0.052406754 0.29271558 -0.14015043 0.015468331
0.08673962 -0.22801615 -0.04272746 0.037012603 0.24610856 0.059928812 0.039156135 -0.1004196
0.081470065 0.13984437 -0.23538479 -0.0947373 0.1509158 0.12556691 0.1652716 -0.27441335

layers.2.bias f4 [32]
00000000: beab ad35 0ce4 a335 c0d5 b0b4 d0e3 14b6
00000010: 55f0 3b36 4e5c 0136 d894 be35 0d91 65b5
00000020: 21e6 d734 e0a3 0ab3 6e8d e834 3407 0636
00000030: 3225 7a35 2781 ba36 c29e 9a36 d1e7 cab5
00000040: 3691 bc35 669d 4635 033d 9eb4 0066 8531
00000050: b48d b9b6 9c24 43b6 c59c 1735 0692 9ab5
00000060: 8c6c 9b34 aa52 fb34 1911 19b6 f4c5 0eb7
00000070: 1a7b 3ab6 411e 7636 4e3d b934 2e3a c3b5
1.2939488e-06 1.2210817e-06 -3.2938078e-07 -2.2186323e-06 2.8005063e-06 1.9276226e-06 1.4199422e-06 -8.5520225e-07
4.0214312e-07 -3.2279672e-08 4.331627e-07 1.9971749e-06 9.3186384e-07 5.5582673e-06 4.6080395e-06 -1.511764e-06
1.4049353e-06 7.398979e-07 -2.9474185e-07 3.8824055e-09 -5.529926e-06 -2.9078574e-06 5.6480013e-07 -1.1516393e-06
2.8949978e-07 4.681254e-07 -2.2808729e-06 -8.509949e-06 -2.7787814e-06 3.6674467e-06 3.450354e-07 -1.4545565e-06

layers.3.weight f4 [16, 32]
00000000: 9a3e 0ebe 8239 14be b741 2abd a2cd d4bd
00000010: d5c0 de3d 906e 8b3e 57d0 13be f1ed 55bd
00000020: 8213 3cbe f97b 73be fc67 913d a187 423e
00000030: ab2b 903e 69fc 8bbc 7399 923e 34e8 85bd
00000040: a2cc 0bbe 5397 11be 82a1 1abe 6dd6 213e
00000050: b440 623d 9957 1abe f937 ab3e c869 47bd
00000060: cc11 28bf f728 283e da84 bf3c 69a6 c6bc
00000070: 25b8 25be 6c5c b53e e0b1 823e 9f83 973e
00000080: f917 83bd abb9 7b3e 5bdf 3b3b 8927 b1bd
00000090: fd49 5a3e 21be 443e 4c9d b4bd 3ddc 82bd
000000a0: 5c70 1e3e 5e75 a5bd 99aa 413e fbd0 90bc
000000b0: e21b 983e 2c30 e9bc 6b05 653e abd1 83bd
000000c0: c614 723d 0e88 abbd 5c4d f3bc 0475 443e
000000d0: ab5d 913e d979 ad3c af76 343e 8446 81bd
000000e0: 2835 5e3e 4016 393e 2ef0 c53d 040a 7c3d
000000f0: a3a0 bc3e 380f 69bf b394 ee3d 05af 6cbe
00000100: f146 49bd d335 633e 4e94 dabd 9085 06bd
00000110: 036a 353e 5856 dc3d fd7c a7bd 703a dfbd
00000120: 0132 d03d fcca 38bc c09a 3a3e a044 cc3d
00000130: b34f 3ebf 0250 1dbe 68a5 133d 4c30 61bd
00000140: 1c38 2f3e 2309 0cbd 1be7 a3bc 6837 cd3d
00000150: 0957 4a3d d560 673c 84cf 6f3e fb36 30be
00000160: c576 d83d 456b 1f3e c359 133d e263 893b
00000170: e19d 763e e9ba ad3e 9885 cfbe ec81 253e
00000180: b907 083e 7d71 f5bd 9824 483e c7b3 943e
00000190: abb1 ce3d 1ffd b53d 4ddd 1d3d 4d91 8d3e
000001a0: 2dc7 1e3e b869 8b3e 33fa a03d 6319 aa3d
000001b0: d70f 953d 86f6 f1bb 6a9a 7ebd f181 af3a
000001c0: 659e 1abe c712 b93e 1d39 223e 0fe5 4a3e
000001d0: 5642 4d3e e09b 40be 3b53 75bc 55f9 813e
000001e0: e36f 093e 620e 31be d86b b63e c598 4cbd
000001f0: 43bd b6bc dd3f 033e 8f0c debb 9759 ca3d
00000200: bcbc e2bd 413b 5d3e c12c 73bd 46ec 0dbe
00000210: f04c 8f3e 98b7 783e 970b a7bd bd23 e7ba
00000220: 05bf adbe 0e52 e9bd a3aa 973e f3bc b9be
00000230: 650e 073e f83d 2cbc 701e 193e 2c58 e8bc
00000240: 00cf c73d 9c89 22be a4ed f1bd 95ee 08bf
00000250: 60a4 3d3e 7611 013d cc6e 323e 02cd 53bd
00000260: cde3 c2bd d6f6 d13d 4793 54be 7204 873e
00000270: 37cc e3be 90ae 733e d40e 0a3e f439 533e
00000280: dc22 7c3d 0580 413d c06f 5bbe b3d8 5abd
00000290: 86f6 0d3e b798 cf3c 3a49 9cbe 9bb1 9bbe
000002a0: 4346 af3d c62a 45bd e55b 873d 9cf9 ab3d
000002b0: 2b81 253e ad13 89be 0680 b83d 2dac 88be
000002c0: 48e3 c53d a141 c4bc 465d 003b bc1f e53c
000002d0: ca2c d6be 323c 7abd 3ca6 babd 8eb8 4dbe
000002e0: ba9f 9d3d 1085 813d 6160 603d e0d5 413e
000002f0: c296 113e f283 af3d 0ffb 18be 1535 093e
00000300: af9c 47be daf0 473e e7c6 a9bd 8e16 63be
00000310: 69f2 a83e 4534 6e3e d301 ae3a 1f9a 54bd
00000320: 9d11 1f3e 4924 1bbe 5c8e 92be 998d 53bd
00000330: ab56 033d bdb3 e6bc 3781 053e ff41 30bd
00000340: 5b7c 713c f3a1 51be 8199 8bbe d9cc 18bf
00000350: 3929 793e c377 d4be babf 2c3e f023 15bd
00000360: 5c1c b8be fb91 c73c 5dd5 81bc 8fbe ef3d
00000370: 2c47 ee3e d76e 463e c25e 463e 3a62 0e3e
00000380: ce73 80bd 5a57 343e b27a abbe 0e11 c6bd
00000390: e28c ed3d 71ad 1bbf c0f9 0ebe a11a 8abe
000003a0: a33f 053e 9e2d f43c e473 2b3e 562b da3d
000003b0: 0874 713e 7cd1 9dbe d029 4e3e 36e5 52be
000003c0: cb45 233d d1e5 5dbd 8f6b 2dbb 7173 973d
000003d0: 439f 27be ca09 8cbd 0f61 833e e80a 8ebe
000003e0: c466 9a3d 877d 493e fc6e ed3d 5251 1a3e
000003f0: cb31 623e 3859 e63d a79d 48be ca64 2e3e
-0.13891068 -0.14475062 -0.041566577 -0.10390784 0.108766235 0.2723279 -0.14434944 -0.05222887
-0.18366817 -0.2377776 0.070999116 0.18997051 0.28158316 -0.017088132 0.28632697 -0.0653843
-0.1365228 -0.14217882 -0.15100673 0.15804453 0.055237487 -0.15072478 0.3344114 -0.048684865
-0.65652156 0.16421877 0.023378778 -0.024249272 -0.16183527 0.35422075 0.25526333 0.29592606
-0.06401057 0.24582545 0.0028667066 -0.08650119 0.21317287 0.19213153 -0.088190645 -0.06389663
0.15472549 -0.08079027 0.18912734 -0.017677775 0.29708773 -0.028465353 0.22365348 -0.06436475
0.059101842 -0.0837556 -0.029699974 0.19185263 0.28391775 0.021176266 0.17623399 -0.06312278
0.21699965 0.18074894 0.09664951 0.06153299 0.36841306 -0.91038847 0.11649456 -0.2311364
-0.04913992 0.22188501 -0.10672818 -0.03284222 0.17716222 0.10758656 -0.081781365 -0.10899818
0.101657875 -0.011278864 0.18223095 0.09974027 -0.7434036 -0.15362552 0.036046416 -0.0549777
0.17111248 -0.0341884 -0.02000766 0.100203335 0.04939941 0.014122208 0.23419005 -0.17208473
0.105695285 0.15568264 0.035974275 0.004192815 0.24083664 0.33931664 -0.4053161 0.16162843
0.13284196 -0.11984537 0.1954521 0.2904341 0.10092481 0.0888617 0.038541127 0.27649918
0.15505667 0.27229095 0.07860222 0.083056234 0.07278412 -0.007384124 -0.06215898 0.0013390166
-0.15099485 0.36147138 0.158421 0.19813941 0.20044836 -0.18809462 -0.014973457 0.25385538
0.13421588 -0.17290643 0.35629153 -0.04995038 -0.022307044 0.1281733 -0.0067763994 0.09880369
-0.110711545 0.21604635 -0.059368853 -0.13859662 0.27988386 0.24288785 -0.081565075 -0.0017634552
-0.339348 -0.11392604 0.29622373 -0.3627697 0.13189085 -0.010512821 0.14953017 -0.028362356
0.09756279 -0.15872806 -0.118129045 -0.5348905 0.18519735 0.031510793 0.17425078 -0.051709183
-0.09516106 0.10252158 -0.20759307 0.2637058 -0.4449174 0.23797059 0.13482219 0.20627576
0.061556682 0.04724123 -0.21429348 -0.053429317 0.13863572 0.025341375 -0.30524617 -0.3040894
0.08558323 -0.048136495 0.06609324 0.083972186 0.16162555 -0.26772824 0.090087935 -0.2669386
0.09662491 -0.023957076 0.0019586845 0.027969234 -0.41831046 -0.061092563 -0.09113738 -0.20089933
0.07696481 0.06324208 0.054779414 0.18929243 0.14217666 0.085700884 -0.14939521 0.13399155
-0.19493364 0.19525471 -0.08289891 -0.22176573 0.32997444 0.23262127 0.001327569 -0.051904794
0.15534063 -0.1515056 -0.28624237 -0.05164871 0.032065075 -0.028161878 0.13037573 -0.04303169
0.014739121 -0.20471935 -0.27265552 -0.5968757 0.24332131 -0.4149762 0.16870013 -0.036411226
-0.35959136 0.024361601 -0.01584881 0.11706268 0.46538675 0.1937822 0.19372085 0.13904658
-0.06272088 0.17611447 -0.33492047 -0.09671222 0.11599137 -0.60811526 -0.1396246 -0.2697344
0.13012557 0.029806908 0.16743428 0.10652797 0.23579419 -0.30823886 0.20133138 -0.2059525
0.03986148 -0.054174248 -0.0026461815 0.073950656 -0.16369347 -0.068378046 0.25659987 -0.27742696
0.07539132 0.19676791 0.11593434 0.15070084 0.22089307 0.11247486 -0.1959139 0.17030635

layers.3.bias f4 [16]
00000000: ddb3 9cb6 062c 9db6 ab23 27b7 9f27 1236
00000010: f796 77b6 b651 80b6 78d6 33b7 2da2 1f37
00000020: ce22 b5b5 0639 8d36 6b34 d736 5046 7f37
00000030: 7b82 c136 5ecb 9935 b63c 8336 ba4d b536
-4.670101e-06 -4.6840896e-06 -9.96228e-06 2.1778758e-06 -3.6893741e-06 -3.8242097e-06 -1.0719166e-05 9.514898e-06
-1.349568e-06 4.208766e-06 6.4136016e-06 1.5215555e-05 5.767038e-06 1.1458576e-06 3.911172e-06 5.403269e-06

layers.4.weight f4 [1, 16]
00000000: f6ba 3abf d65e 45bf 327e 52bf 9b3a 923e
00000010: e87d 69bf 04fb 8bbf ccd2 8dbf 732b 6dbf
00000020: 40c2 87bf 3120 7fbf fbd4 ac3e c1ab 51bf
00000030: 0c53 90bf 1590 8ebf 9670 31bf b3d7 87bf
-0.7294153 -0.77097833 -0.8222381 0.28560337 -0.9120774 -1.0935979 -1.1079955 -0.92644423
-1.0606155 -0.99658495 0.3375624 -0.819027 -1.1275344 -1.113772 -0.6931242 -1.0612701

normalizations.0.weight f4 [128]
00000000: 9cf9 3f3f 6781 363f ec8c 363f 70d0 083f
00000010: 4c56 2b3f ba95 353f 31eb 2b3f 82cd 283f
00000020: 1eda 413f 29a9 423f 34ca 313f df8c 303f
00000030: 3900 5c3f e33b 233f f772 383f 0a3a 253f
00000040: 0cd4 273f fa2e fb3e a42e 563f 4f77 303f
00000050: 56e9 dd3e 7ba4 2b3f 4581 2c3f 12d7 1d3f
00000060: 99fb 2d3f 7f29 2f3f 8cd4 053f 9fe0 2c3f
00000070: c7d3 2e3f 6997 263f 7320 2c3f 13df 323f
00000080: d8f4 183f eb05 0b3f 321c 4c3f 2ed2 2b3f
00000090: ab75 2b3f e20b 2d3f 350c 4f3f deed 103f
000000a0: ac0f 213f b961 3a3f e18e 313f 2147 2d3f
000000b0: 5603 243f c365 293f 2753 303f 27f4 1c3f
000000c0: f07a 423f ce49 333f 8039 3e3f eb20 3e3f
000000d0: de9a 233f 0edf 263f eba7 1b3f 373e 263f
000000e0: fd63 2b3f 1935 6a3f 102b 283f 665e fa3e
000000f0: 819a 393f fcd8 253f d72a 3f3f 00a1 2a3f
00000100: 4568 0e3f 555d 193f 9539 023f 26c7 193f
00000110: ff44 273f 8e6d 3f3f 2d82 383f bca4 ed3e
00000120: d3d2 0b3f 9532 553f 3f19 2e3f 5c08 323f
00000130: 1f38 343f c239 193f 96ed 343f 74af 343f
00000140: f95d 253f 201b 413f 06cb 2a3f 1503 493f
00000150: 3876 0a3f cf2b d83e a519 1a3f 1a62 563f
00000160: 309a 323f 1f6f 0a3f ea98 4e3f 99db 193f
00000170: a0e6 2a3f 742e 4c3f e2fd 293f ae26 0f3f
00000180: b153 143f 8718 9b3e de7a 2b3f 5817 243f
00000190: 92ee 323f 0d2b 2b3f e180 063f 7987 4d3f
000001a0: 4220 333f 005d 4c3f ce15 353f 844d 423f
000001b0: 77b2 393f 43f2 2b3f 7205 313f 3bc3 2b3f
000001c0: 1113 313f 9210 1a3f 433d 593f bf88 263f
000001d0: 5bfd 303f a16b 193f 0f84 6e3f 6ef0 333f
000001e0: 3764 0e3f d2b1 373f c8cb 443f ae95 0a3f
000001f0: aafa 063f 6931 363f 6598 143f 8d08 183f
0.7499025 0.712912 0.7130878 0.5344305 0.66928554 0.7093159 0.6715575 0.6593858
0.75723445 0.7603937 0.6944916 0.6896495 0.8593784 0.63763255 0.7205042 0.64541686
0.6555793 0.49059278 0.8366492 0.6893205 0.43342084 0.6704785 0.6738475 0.61656296
0.6796203 0.68422693 0.52277446 0.67530245 0.68291897 0.65074784 0.67237014 0.69871634
0.597486 0.54305905 0.7973052 0.67117584 0.6697642 0.67596257 0.80878 0.56612957
0.6291454 0.7280536 0.6935864 0.6768666 0.6406759 0.661709 0.6887688 0.61310047
0.7596884 0.7003449 0.7430649 0.7426898 0.63908184 0.65184104 0.608031 0.6493868
0.66949445 0.9148727 0.6569071 0.48900145 0.7250138 0.64784217 0.74674743 0.66651917
0.5562785 0.5990804 0.50869113 0.600695 0.65339655 0.7477654 0.7207363 0.46414745
0.5461857 0.8328031 0.6800727 0.69544005 0.70398134 0.59853756 0.7067503 0.7058022
0.64596516 0.75432014 0.6671604 0.7852033 0.5408664 0.42220923 0.6019538 0.8374344
0.6976652 0.5407581 0.8070208 0.60100704 0.66758156 0.7975838 0.6640302 0.55918396
0.579402 0.3029215 0.66984355 0.6409812 0.6989528 0.66862565 0.52540404 0.8028484
0.69971097 0.79829407 0.70736396 0.7589953 0.7253794 0.6716654 0.69148934 0.67094773
0.6916972 0.60181534 0.848591 0.6505241 0.6913659 0.59929854 0.93170255 0.7028874
0.55621666 0.7175571 0.76873446 0.54134643 0.52726233 0.71169144 0.58045036 0.5938805

normalizations.0.bias f4 [128]
00000000: 65d0 033e df98 fabd 0449 aabe 7724 2abe
00000010: b462 66be ca3a 9d3e ef91 d2be a9ca c1be
00000020: f37f 99be e004 02bf 1ff1 cdbe f744 ffbd
00000030: ef99 0abd 0b93 86be b6b3 a9be a9cd 4abe
00000040: 8e75 a7be 974e 5ebe 9944 a23c 67f1 cabe
00000050: afc4 9bbe 0406 46be 918a 42be 420e 81be
00000060: 25cf 6fbe 67b7 6abe 2416 133e 82f9 4a3e
00000070: ad1a adbe 3d40 47bd aec7 f6be 7d09 0abe
00000080: fa51 03be ee05 8fbe 3468 eebe 4f79 36be
00000090: 25b6 dabd 505e 90be e90c a5be 4262 d3bd
000000a0: 933f 94be 431a b7be 3e33 cbbe 2f3c 95be
000000b0: 263b 5fbe 4365 c4be daf8 dabe e3ab 67be
000000c0: 88eb 43be 7326 88be c6a8 cdbe 5125 97be
000000d0: aed4 b9be efb5 fdbd 7ce8 31be bbfb d9be
000000e0: 4884 4ebe ee42 fbbc ff53 fabd 6153 0bbe
000000f0: dbe4 5fbe cfe0 9bbe 9b7c 9fbe 8273 a7be
00000100: b8ae 25be 2f1a 5dbe a1bc 633d d8cc 8dbe
00000110: 23aa 6bbe 612a bebe ad45 55be 57a0 87be
00000120: 45b3 43be 42c7 89be f983 edbe e2ae babe
00000130: 7489 9cbe 12b0 68be 2508 9fbe 7e35 2abe
00000140: 2758 a4be 5db0 8cbe ceff 9dbe eb0e 6c3e
00000150: cec3 f1bd c65a 1dbd 2400 70be a6e0 c8bc
00000160: 6047 32be 403b 22be 40bf af3d 5022 38be
00000170: 00e7 5ebe a202 50be f1b9 d0be 51ac a4be
00000180: 14f7 4abe 0f16 29be 832f febd 4954 cebd
00000190: 39e4 89be bd1f 1ebe b59e 01be 513c 85be
000001a0: 3332 7cbe 70bf 10be 8893 d0be 5daf 8bbe
000001b0: 7e79 93be 1198 8ebe ee68 14be ed22 c7be
000001c0: 0ab3 f6be e361 88be f560 6fbe 7081 58be
000001d0: 9a99 c4be 3749 eabe 6ef4 48be 644e 8dbe
000001e0: 9c22 9fbe fa6f d3bd c107 1f3e d078 88be
000001f0: 7e52 c8bd 501b 73be 2756 0abe 7287 88be
0.12872465 -0.12236189 -0.33258832 -0.16615473 -0.2249859 0.30708915 -0.41126963 -0.3784993
-0.2998043 -0.5078869 -0.40223023 -0.12464326 -0.03383821 -0.2628406 -0.3314492 -0.19805016
-0.32706875 -0.21709667 0.0198081 -0.396373 -0.30423495 -0.19338232 -0.18998171 -0.2520619
-0.23418863 -0.22921525 0.14363915 0.19821742 -0.33809415 -0.048645247 -0.4819922 -0.13480182
-0.1282424 -0.27934211 -0.46563876 -0.17819713 -0.106792726 -0.28196955 -0.32236412 -0.103214756
-0.28954753 -0.35762224 -0.39687532 -0.2914748 -0.21799907 -0.38358507 -0.42767984 -0.22624163
-0.19132817 -0.26591834 -0.40167826 -0.29520658 -0.36295074 -0.12388217 -0.17373842 -0.42574868
-0.20167649 -0.030671563 -0.12223052 -0.13606025 -0.21864645 -0.30444953 -0.31149754 -0.32705313
-0.16179931 -0.2159202 0.055599812 -0.27695346 -0.23014121 -0.37141708 -0.2082736 -0.26489517
-0.19111355 -0.26909834 -0.4638975 -0.3646155 -0.30573618 -0.22723415 -0.310609 -0.16621968
-0.32098505 -0.27478305 -0.30859226 0.23052566 -0.11804925 -0.038416646 -0.23437554 -0.024521183
-0.1741004 -0.15842915 0.085814 -0.17981839 -0.21767807 -0.20313504 -0.40766862 -0.32162717
-0.19820815 -0.16512321 -0.12411406 -0.1007467 -0.26931933 -0.15441795 -0.12658198 -0.2602258
-0.24628524 -0.14135528 -0.40737557 -0.2728223 -0.2880363 -0.27850392 -0.14493152 -0.38893834
-0.4818347 -0.26637182 -0.2337683 -0.21143126 -0.3839844 -0.45758983 -0.19624493 -0.2759887
-0.31081092 -0.10324092 0.15530302 -0.26654673 -0.09781359 -0.23740888 -0.13509427 -0.26665837

normalizations.0.running_mean f4 [128]
00000000: acaa 9c3b db22 48bc 5a54 163b a8d2 e8b8
00000010: fd0f 49bc 7896 e43c 2250 6a3b 62e3 a8bb
00000020: bea1 0e3c e0c4 0dbc 2267 5d3b a09a 6d3a
00000030: 870a be3c 9078 4339 d987 213b 0c9e 163b
00000040: 1a95 93ba 6d8a ca3b 71a0 533c b932 243c
00000050: fa4f 6c3b 6650 02bc c056 d63b c1ad 34bb
00000060: 2045 793b 5e74 2d3c f931 f73a 22ec 2e3c
00000070: 8ac1 483c 76dc da3b b60a bcbb cdb4 913b
00000080: ee2b 6d3c 85af 0e3c cc40 513a 5dd2 973a
00000090: 180f 223c f9ec dabb 624a 56bc a050 9a3b
000000a0: d90c 28bc 9349 d13b c6ba a63b f262 a73b
000000b0: bbd0 9ebb ca85 46bb 1261 f8ba 16e3 cf3a
000000c0: 7a84 133c da16 23bc e010 c23b c8b1 b7b9
000000d0: 93b2 823b 1617 3a3c ce7e 9cbb a002 0c3a
000000e0: b36e 1fbb f72c 2bbb 84d4 a5ba 1860 7bbb
000000f0: 8e3b 49bc 4a82 ebbb 86d6 48bb 257a 1ebc
00000100: 8da7 03bc 21cf 11bb eeaf 133c 31f6 0c3c
00000110: 36fa 113c c7b6 91bc 7b82 a73b 770b 223b
00000120: 20b5 1a3a e188 c1ba 6f60 683b 8c90 a2bb
00000130: fbd6 17bb 87ea fd3b 0d11 4fbb 00f6 d8bb
00000140: 00da 5338 1d3b 5bbb 8899 8abb 3cfa 223c
00000150: 7f38 1fbb 5356 68bb 1eca 79bb ce4f 6f3c
00000160: 56d7 f23b 9047 36bc 126d c43b d91d 9d3b
00000170: e2f5 c2bb 50c6 2abc 1984 b23b 5eb1 c8bb
00000180: 407a 063a 6e15 49bb e0f1 52ba b07d 66bb
00000190: 7993 4abc d067 56bb 78ab 43ba 303c 43bb
000001a0: 6ae4 fd3b 1653 2a3c 731e 053c 7677 74bb
000001b0: 26fb 42bb a616 33bb 02dd 9bbb 2c7e 9b3b
000001c0: 452f 1c3b a2b4 053c 8684 a33b cec2 493a
000001d0: 7c87 f6bb cafd 22ba f891 3e3c 755d 823c
000001e0: 3ad6 9d3b b032 c6ba e664 863c 869a db3a
000001f0: 5ee1 8f3a 4ec7 51bc 7db8 5f3b 4ff7 6fbc
0.004781088 -0.012215341 0.002293846 -0.0001110186 -0.012271878 0.02790378 0.003575333 -0.0051540593
0.0087055545 -0.008652896 0.0033783396 0.00090638734 0.02319838 0.00018641562 0.0024647622 0.0022982387
-0.0011259646 0.0061810524 0.01291667 0.010021859 0.0036058412 -0.007953739 0.006541103 -0.0027569386
0.0038035586 0.010586826 0.0018859498 0.010676416 0.012253175 0.006679113 -0.0057385815 0.004446602
0.014475806 0.008708839 0.0007982373 0.0011583079 0.009891294 -0.0066810814 -0.013079258 0.0047093183
-0.010256969 0.0063869446 0.005088183 0.0051082307 -0.00484666 -0.0030292147 -0.0018949828 0.0015860524
0.009003753 -0.009954179 0.005922422 -0.00035036937 0.003988573 0.011358043 -0.0047758585 0.00053409673
-0.0024327456 -0.002611933 -0.0012651836 -0.0038356837 -0.012282265 -0.0071871625 -0.0030645444 -0.009672676
-0.008035553 -0.0022248703 0.009014113 0.0086036185 0.008909753 -0.01778735 0.00511199 0.0024726072
0.00059016235 -0.0014765525 0.003545787 -0.004961079 -0.002316891 0.007748905 -0.0031595856 -0.0066211224
5.050935e-05 -0.0033451982 -0.004229728 0.009947356 -0.002429515 -0.0035451844 -0.0038114856 0.014606429
0.007410924 -0.01112546 0.0059944475 0.004794818 -0.0059497217 -0.010423258 0.005447876 -0.0061246594
0.0005129911 -0.003068294 -0.00080469064 -0.003517013 -0.012364262 -0.0032715686 -0.00074642105 -0.0029790513
0.0077481763 0.010395786 0.008124935 -0.003730265 -0.0029751747 -0.0027326732 -0.004756571 0.0047452655
0.0023831886 0.008160742 0.0049901633 0.00076965697 -0.007523475 -0.0006217627 0.011631481 0.015913704
0.0048167976 -0.0015121307 0.016405534 0.0016754426 0.0010977199 -0.012803866 0.0034137063 -0.014646365

normalizations.0.running_var f4 [128]
00000000: 9b28 f73e 010e c43e f4c1 ff3e 0190 b73e
00000010: 5ce2 083f 9537 1b3f 9536 ee3e 4046 043f
00000020: 72ad 043f bdda 133f fcbd 183f c00c 1e3f
00000030: f5b1 153f 2a0a e43e 288f f83e e332 e33e
00000040: 750f 0a3f 5410 be3e 16d9 043f f161 043f
00000050: b960 a83e 335a d93e 5920 fd3e 980c d23e
00000060: 61bc f63e bbde d23e 4ea1 d03e 4a79 033f
00000070: baa5 fb3e 2e15 e23e d1f1 f53e 4084 eb3e
00000080: c01f f83e 4665 e23e dede 193f 6833 df3e
00000090: 7ece e53e eeca e23e d7c1 e43e ac2a b43e
000000a0: 7bb9 f13e e5ed 033f 8f76 0d3f af94 e63e
000000b0: 3a04 e13e aabc f73e 2d69 0c3f 01c3 ce3e
000000c0: 8055 033f 8a2b e33e ac54 053f 89f5 0d3f
000000d0: 26b2 fa3e 90a7 033f 20fd fb3e 6e78 de3e
000000e0: 2b33 003f f6cc 1e3f e7c9 f03e 9f4d ca3e
000000f0: e9dd ed3e d68c fb3e e941 ef3e 61ff 0a3f
00000100: 8957 f23e 3d95 033f 86bf bd3e 6bc4 d73e
00000110: 7656 013f e703 003f 2d2b ec3e 9523 b73e
00000120: 7f24 b03e 5708 ce3e 4508 023f 9874 123f
00000130: 100d 033f 3496 cf3e fd25 043f 12d7 133f
00000140: b230 e93e 55db f83e 9881 f53e f3ce 133f
00000150: b547 ac3e 421d 973e 3783 d93e fde0 023f
00000160: a9d2 013f 3e7e c63e afa8 003f 67a6 083f
00000170: 2743 c23e 70ac f23e dca3 dd3e eb0e cd3e
00000180: c981 043f e8f5 813e 63e5 eb3e bae5 f23e
00000190: 49b5 013f 3243 d93e b368 ac3e 3003 fc3e
000001a0: bd86 ff3e 55f7 0c3f 554a 123f 86c9 fc3e
000001b0: 391f f93e 4df6 e63e 6ef9 093f 3066 123f
000001c0: 59f2 f63e 1a7f ea3e 98aa 153f e738 fe3e
000001d0: 7971 053f 6afb f73e b2f5 153f 1409 f13e
000001e0: d04c d23e 89c0 063f 61fb 013f 5f6c cc3e
000001f0: 7017 b73e f44d ce3e 40f1 e33e 9e8d 123f
0.48273167 0.38291934 0.49952662 0.35852054 0.53470397 0.60631686 0.46526018 0.51669693
0.51827157 0.57755643 0.59664893 0.61738205 0.58474666 0.44539005 0.4854672 0.4437476
0.53929836 0.37121832 0.51893747 0.51711947 0.32886294 0.4245163 0.49438742 0.41025233
0.48190597 0.41185555 0.40748066 0.5135695 0.49149877 0.44156784 0.48036054 0.45999336
0.48461723 0.4421789 0.60105693 0.43593907 0.44884104 0.44295448 0.44679138 0.35188806
0.47211823 0.51534873 0.5525903 0.45035312 0.43948537 0.48386127 0.54847986 0.4038315
0.5130234 0.44369155 0.52082324 0.5545278 0.4896404 0.51427555 0.49216557 0.43451256
0.50078076 0.62031496 0.4702904 0.39512345 0.46458367 0.49130887 0.46729973 0.5429593
0.4733241 0.51399595 0.37060183 0.42142043 0.50522554 0.50005955 0.4612669 0.35769334
0.34402844 0.40240738 0.5079387 0.5720916 0.51191807 0.40544283 0.51620466 0.57750046
0.45544964 0.48604837 0.47950435 0.57737654 0.33648458 0.2951451 0.4248292 0.51124555
0.50712067 0.3876819 0.5025739 0.5337891 0.37941858 0.47397184 0.43289077 0.40050444
0.51760536 0.25382924 0.46073446 0.47440892 0.50667244 0.42434078 0.3367363 0.49221182
0.49907485 0.550649 0.5714467 0.493725 0.48656633 0.45109788 0.53896224 0.57187176
0.48231772 0.45800096 0.5846343 0.49652788 0.5212627 0.48434 0.58578026 0.4707724
0.41074228 0.52637535 0.507742 0.3992643 0.3576007 0.4029385 0.44519997 0.5724734

normalizations.1.weight f4 [64]
00000000: d7ae 0b3f 7b08 5a3f ad83 293f 9f03 803f
00000010: 6e81 203f 3bef 6f3f a43f fc3e 3b06 033f
00000020: 1157 cd3e 5161 ed3e 2ca4 193f fac1 aa3e
00000030: 7c7b 1b3f 5417 633f 9dc8 1b3f 5cb3 663f
00000040: 02aa 183f 3d54 213f a5de 2c3f 630f 2a3f
00000050: a5e6 9b3f f241 413f adad 223f 5136 2f3f
00000060: 04f5 983e a202 333f 5cd8 0d3f 1476 1a3f
00000070: 540d 4f3f e85b d93e fceb 3a3f 4d4f 0c3f
00000080: bbe4 f53e c4ee 343f c365 283f cb70 233f
00000090: d685 633f 58e1 1c3f 4941 353f c964 4d3f
000000a0: fda0 043f 5e73 463f e8d8 1c3f c60b 0f3f
000000b0: 20f6 373f 8d3c 443f 992b 613f cf3a e03e
000000c0: d88f ea3e 8299 5e3f 3f67 2a3f e44b 613e
000000d0: 254e 163f fabc 3b3f 8a12 423f f7c8 f03e
000000e0: 4312 263f 81bd 013f 5ee1 5c3f 2039 343f
000000f0: 458a 243f a665 cf3e 57a4 4e3f ef5b 313f
0.5456366 0.8516919 0.66216546 1.0001105 0.62697494 0.9372441 0.49267304 0.5118138
0.4010549 0.4636331 0.6001613 0.33351117 0.607353 0.8870747 0.60852987 0.9011743
0.5963441 0.6301916 0.6752723 0.6642973 1.2179762 0.7549125 0.6354626 0.68442255
0.29874432 0.6992589 0.55408263 0.6033642 0.8087971 0.4245293 0.73016334 0.54808503
0.4802607 0.7067683 0.65780276 0.63843983 0.8887609 0.6128135 0.7080274 0.8023191
0.5180815 0.77519786 0.6126847 0.5587734 0.7185993 0.76654893 0.8795715 0.43794867
0.4581287 0.86952984 0.6656379 0.22001606 0.5871299 0.7333523 0.7580954 0.47028324
0.64871615 0.50679785 0.86281383 0.70399666 0.6427348 0.4050724 0.8071951 0.69280905

normalizations.1.bias f4 [64]
00000000: 0641 82be 3f43 bc3e 2b3e 0cbf 1a42 5f3e
00000010: 1f12 2a3e bfa5 543e e431 9dbd 32d6 1c3e
00000020: 6f1c ee3d 512b 023d 7ec5 70be a5bb b83c
00000030: dadf feba 7281 ed3d 50c3 cabe 912e 083e
00000040: 58fc 18bf 36d4 3c3e 0202 24bf a3a3 81bd
00000050: e862 323e 6b2e 22bd 0861 cebe a349 8bbe
00000060: d7bd ebbd e836 b6be 29e1 c4be 31df 5fbe
00000070: 315c 603e 7ab8 03be 3100 803e 74b1 18be
00000080: 318e cfbc 2554 8fbe 4cd0 253e 69ed d7bc
00000090: 77e2 013e 4c63 c1be f1cd 2cbc f1a5 c23b
000000a0: 3e12 b93d f987 1fbf 45c6 adbe cbfd 463e
000000b0: d00a 44bf 82d4 1cbf f28b fdbd 6eae 0fbe
000000c0: 3bd5 8ebe 1d15 5fbd a5ce 30be 0a09 8dbd
000000d0: bbe8 aabe e154 dabe 9537 843e af3e 6bbe
000000e0: f2d8 fbbe 0b8e c93c ab76 2e3a 33d0 dfbe
000000f0: af1b 0bbf dbee 84bd aab1 2dbf aa0d 033e
-0.25440234 0.36770055 -0.5478236 0.2180256 0.16608475 0.20766352 -0.076755315 0.15316084
0.11626517 0.03177959 -0.23512837 0.022550413 -0.0019445375 0.11596955 -0.39602137 0.13299014
-0.59760046 0.18440327 -0.64065564 -0.06330039 0.17420542 -0.03959505 -0.40308404 -0.27204618
-0.115108185 -0.35588765 -0.38453034 -0.21862485 0.21910168 -0.12863341 0.25000146 -0.14911443
-0.025336357 -0.27993885 0.1619274 -0.026358323 0.12684046 -0.3777107 -0.010547147 0.005940192
0.090366825 -0.6231685 -0.3394033 0.19432752 -0.76579 -0.6126176 -0.12380208 -0.14031383
-0.27897057 -0.054463495 -0.17266329 -0.0688649 -0.33380684 -0.42642882 0.25823656 -0.2297313
-0.49188954 0.024603864 0.0006655256 -0.4371353 -0.54339117 -0.064908706 -0.6784922 0.12798181

normalizations.1.running_mean f4 [64]
00000000: de98 3a3f 5313 20bf 2c00 5b3f ab1d 0fbf
00000010: a618 1dbe bda6 febe ea07 97be 803d c6be
00000020: 4dbe 723c fc3d 97be a034 673e 2ec8 42be
00000030: 73c3 9bbd 2bc5 09bf 9f9d b03e 03d8 81be
00000040: f194 6d3f 628f d2be e0b0 293f b403 3bbe
00000050: 6630 05bf f7d3 03bf fadb 243f 6ac5 6d3f
00000060: f4fe 223d d433 7b3f 80ae 123f a30a 83be
00000070: 19d8 09bf 7375 82be 651f 16bf ee22 aa3d
00000080: 92f5 43be ab1c 1c3f 20be e0be 7e2c 8dbe
00000090: 9379 dbbe dc9b 523f 2a41 08be d005 0abf
000000a0: 3191 efbe a79c 8e3f 6416 95bc a3a4 e9bd
000000b0: 84fe 8b3f 5b37 233f 0578 fbbe 165d 87be
000000c0: 1738 de3e 2556 75be 367e 98be d52e 25bd
000000d0: 2d42 933e 9f8c 923f 3cb2 a8be 0240 923d
000000e0: 325b 453f dd20 afbd 09ab 90be 425d 073f
000000f0: fb5e 143f 6e16 e4be 678d 433f d533 f3be
0.72889507 -0.62529486 0.8554714 -0.55904645 -0.15341434 -0.49736586 -0.29498225 -0.38718796
0.014815879 -0.29539478 0.22578669 -0.19021675 -0.07605638 -0.5381648 0.34495255 -0.25360116
0.9280539 -0.41125017 0.66285515 -0.18263131 -0.52026975 -0.5149531 0.6439816 0.92879355
0.039793923 0.9812596 0.57297516 -0.25594053 -0.53845364 -0.25480232 -0.58641654 0.083074436
-0.19136646 0.60981244 -0.43895054 -0.27573007 -0.4286619 0.8226907 -0.13306108 -0.5391512
-0.4679046 1.1141557 -0.018199153 -0.11408355 1.0937047 0.6375634 -0.49115005 -0.26438206
0.43402168 -0.23958643 -0.2978379 -0.040327866 0.28761426 1.1449164 -0.32948482 0.07141115
0.7709228 -0.0855119 -0.2825549 0.52876675 0.5795743 -0.44548362 0.7638764 -0.47500482

normalizations.1.running_var f4 [64]
00000000: 3e0b db3e 0c69 203f 8e8b d33e 743c 003f
00000010: 61ea 853e e5ec 083f 733a 893e 747d 893e
00000020: 9025 903e b708 8c3e da44 f13e 92d7 f53d
00000030: 62e9 983e 6d2a d23e b0d7 aa3e d896 ed3e
00000040: ec2f aa3e 1588 993e 2b35 df3e 9700 bd3e
00000050: 9fbc d63e 2930 0e3f 142b 9f3e e86c f23e
00000060: c162 a33d 9913 023f 7aa5 973e 4781 8d3e
00000070: 8f67 133f d894 b03d 50d1 bd3e 8955 b13e
00000080: a53e 213e df28 d83e ba44 a83e 03a3 e13e
00000090: 38db d53e f4ff 703e 0408 bf3e 7c2c c43e
000000a0: 79aa a43e ea66 db3e e8c7 db3e 01a4 8e3e
000000b0: f00a a83e 18a3 bd3e f587 093f 3b43 003e
000000c0: 32ce 733e a4ca ec3e b083 be3e 052f f73d
000000d0: 2873 a33e e0c8 fb3e 846f e83e b2cd 873e
000000e0: be79 d53e a1b8 853e 1fe0 c83e 32a2 053f
000000f0: 7191 a73e bde7 b43d 892b d53e 1254 c03e
0.42782015 0.6266029 0.4131741 0.50092244 0.2615538 0.5348647 0.26802406 0.26853526
0.28153658 0.273504 0.47122842 0.120040074 0.29865557 0.41047993 0.33367682 0.46404147
0.33239686 0.29986635 0.4359525 0.36914513 0.4194078 0.55542237 0.31087554 0.47348714
0.0797782 0.50811154 0.29618436 0.27637693 0.5757989 0.0862214 0.37073755 0.3463557
0.15746553 0.42218682 0.32864934 0.4406968 0.41768813 0.23535138 0.37310803 0.3831519
0.3216131 0.42851955 0.42925954 0.278595 0.32820845 0.37038493 0.5372308 0.12525646
0.23809126 0.46248353 0.37209845 0.12069515 0.31923795 0.49176693 0.4539758 0.2652412
0.41694444 0.26117423 0.3923349 0.52200615 0.3272815 0.08833263 0.41634777 0.3756414
