models/regression/final_model.pth (torch, 58684 bytes, 45 tensors)

layers.0.weight f4 [64, 2]
000000 57 a1 2c be 8d d3 fc bd 17 5c 69 3e 5d de fa 3d
       -0.16858421 -0.123450376 0.22789036 0.12249444
000010 70 02 1f be f8 51 e1 3d 83 51 10 3e 79 ef 8e be
       -0.15528274 0.110019624 0.14093594 -0.27917078
000020 cb ca 33 3d f1 03 b1 3d 74 d0 06 bd ba 13 8b 3e
       0.04389457 0.0864333 -0.03291364 0.27163488
000030 ae e3 47 be 61 dc 2d 3e 40 50 48 be 46 39 63 be
       -0.19520447 0.16978599 -0.19561863 -0.22189817
000040 a8 0e 3a 3e e8 f0 2a be e7 a4 b8 ba bf ae 39 3e
       0.18169653 -0.16693461 -0.0014087231 0.18133067
000050 e9 64 73 be 4f 76 8b be 07 1a de 3d cc 69 84 3e
       -0.23768963 -0.272387 0.10844808 0.25861967
000060 38 d5 74 3b 8c 4d 74 3e ff 14 d3 3d d9 4d bd 3d
       0.0037358534 0.23857707 0.10306739 0.09243364
000070 16 fa 3e be 62 28 96 3e 9b 29 06 3e 8e 6d 67 3d
       -0.18650088 0.29327685 0.13101809 0.056500964
000080 b6 25 4b 3e f5 97 8c be 66 68 27 3d 8a 8e 25 be
       0.19838604 -0.27459684 0.040871046 -0.16167656
000090 55 5f 1a bd e9 e1 be 3d 08 fb 2e 3e 91 4c b1 3c
       -0.037688572 0.09320433 0.17087948 0.021642955
0000a0 89 4e 70 be c0 7c 3e be 65 fd 1e 3c c0 b9 85 bd
       -0.23467459 -0.18602276 0.009703969 -0.065295696
0000b0 e2 d7 75 be f1 33 9e 3e f6 1b ed ba f5 6c 76 be
       -0.24008134 0.30899003 -0.0018089998 -0.24065001
0000c0 53 92 18 3e 45 8f ea 3d 4a 03 3d be 9c f3 dd 3d
       0.14899568 0.11453108 -0.18458286 0.108374804
0000d0 46 93 26 be 70 8e 03 3e 34 ab 86 3e 54 ed 63 3e
       -0.16267118 0.12847304 0.26302493 0.22258502
0000e0 5c 96 2b 3e ec 39 30 bd 47 43 84 3d 4b 37 cb 3d
       0.16756576 -0.04302399 0.06458145 0.09922656
0000f0 80 52 ae 3d 1f 23 45 bd 70 f7 51 3b 56 66 19 be
       0.085118294 -0.048129197 0.0032038353 -0.14980444
000100 8a b9 36 be e4 9e 8a be 41 4b 81 be 59 a7 3b be
       -0.17844215 -0.2707435 -0.25252727 -0.18325557
000110 6e b2 93 3e a4 99 7e 3d 8f 6d 89 be d0 46 22 be
       0.2884707 0.062158242 -0.268414 -0.15847325
000120 58 44 7c 3d 57 10 cd bd 5b b5 02 be c3 ad 88 bd
       0.061588615 -0.10012882 -0.12764494 -0.066737674
000130 c0 1b c8 bd 01 ae 0d 3c 34 d4 03 3d 40 f8 38 3e
       -0.09770918 0.008647443 0.032184795 0.1806345
000140 92 3c 50 3e ec 8b 73 3e 7e fb b3 bb ed 50 19 be
       0.20335606 0.23783845 -0.0054926267 -0.14972277
000150 4c df 6e 3b 36 7c 57 be 6e 78 81 3d 64 5f b1 bd
       0.0036449013 -0.21043476 0.06321798 -0.086607724
000160 96 c8 83 bd 08 98 91 be 96 88 21 3e ae 61 20 3e
       -0.06434743 -0.28436303 0.1577476 0.15662262
000170 24 a0 97 3e 4b ef af bd 78 1c da 3d b1 86 5b 3c
       0.29614365 -0.085905634 0.10649961 0.013398812
000180 44 71 4e be 62 86 37 be 4a 42 27 3e 9d 90 28 be
       -0.20160395 -0.17922357 0.16333881 -0.16461416
000190 7a 14 59 3e cc 5a e9 3d 30 c7 07 3e 1b e1 29 3e
       0.21199217 0.11394271 0.13259578 0.16589777
0001a0 f0 65 24 3e c0 54 f3 3d 7b 52 2f 3e ea af e4 bd
       0.16054511 0.11881399 0.17121308 -0.111663654
0001b0 07 b5 35 be 53 99 13 bd 49 ec 35 3e ad 78 4d 3e
       -0.17744838 -0.036034893 0.17765917 0.20065565
0001c0 73 ff 51 3e c2 a5 e5 bd 88 23 59 bd f8 44 45 be
       0.20507602 -0.112132564 -0.0530124 -0.1926459
0001d0 00 41 4c 3e 31 fa 3e be 30 50 1e be 04 9a 5f 3e
       0.1994667 -0.18650128 -0.15460277 0.21836096
0001e0 39 74 d0 3c fc c2 24 be 0f 69 5e be 06 f9 45 be
       0.025446044 -0.16090006 -0.21719764 -0.19333276
0001f0 a6 f7 62 3e f0 de 97 be ea 81 83 3e 07 3c 7b 3e
       0.22164783 -0.29662275 0.25685054 0.24534617

layers.0.bias f4 [64]
000000 ba 84 1a 38 75 47 c7 38 0c b4 23 ba cc 63 08 39
       3.6840072e-05 9.502369e-05 -0.00062447856 0.00013007148
000010 5d 65 25 3a 48 21 1f 39 32 70 2c ba 4c 7e af 38
       0.0006309355 0.0001517582 -0.00065779977 8.368175e-05
000020 d6 04 26 39 a5 8b 87 38 60 60 ef b6 3c 01 67 b8
       0.00015832795 6.4633125e-05 -7.1339746e-06 -5.507584e-05
000030 73 50 bc b8 e6 71 03 39 ae d5 67 b8 34 78 52 39
       -8.9795234e-05 0.00012535564 -5.5273696e-05 0.0002007194
000040 62 88 17 b9 4e 10 11 b9 ed 3b 84 b9 a1 7d 1a b8
       -0.00014451289 -0.00013834352 -0.0002522165 -3.6833462e-05
000050 d2 cc c6 38 0a 58 c7 37 2c 47 10 39 4d b8 af b9
       9.4795265e-05 2.3763645e-05 0.00013759424 -0.00033515916
000060 25 91 59 38 cd 88 8f b9 1e 67 80 39 d0 49 ce b8
       5.1872008e-05 -0.0002737701 0.0002449089 -9.836594e-05
000070 2c 1f aa 38 d8 63 83 37 e0 36 b8 b8 d2 b4 6d b9
       8.112038e-05 1.566291e-05 -8.784025e-05 -0.00022669442
000080 9e 88 bb b7 38 02 f9 b8 2c b6 1f 38 46 f5 0d b8
       -2.2355754e-05 -0.000118736585 3.8078215e-05 -3.384545e-05
000090 7a 16 34 39 5f a6 d7 39 ae 80 9d b9 79 16 64 b9
       0.00017174511 0.00041131952 -0.00030041247 -0.00021752146
0000a0 6e 62 37 38 e0 86 75 b9 39 47 ca 39 1f bd 8e 39
       4.372227e-05 -0.00023415266 0.00038581507 0.00027225257
0000b0 6e 5e d5 37 b5 1c b2 38 9e c7 3a 39 4e f2 0c b8
       2.5435551e-05 8.4930485e-05 0.00017812705 -3.3604265e-05
0000c0 92 e6 17 39 32 f4 2a ba 74 b1 e1 b8 ec d8 04 b9
       0.00014486376 -0.0006521373 -0.00010761889 -0.0001266931
0000d0 7b 08 4d ba 86 7a 42 38 47 8f 8c 38 9f 8d 5a 38
       -0.0007821393 4.6367313e-05 6.702408e-05 5.2107145e-05
0000e0 38 e3 74 37 ae 87 b0 38 e1 df 19 39 9a ec 76 39
       1.4596437e-05 8.417606e-05 0.00014674618 0.00023548529
0000f0 0c 47 1b 39 eb 82 fb 38 56 0f 63 b8 02 b1 24 39
       0.00014808419 0.00011992998 -5.41353e-05 0.000157062

layers.1.weight f4 [32, 64]
000000 9b 07 9b 3d b1 77 6a 3b d2 4e 5c 3e 52 69 11 3e
       0.0756981 0.0035776908 0.21514443 0.14200333
000010 d8 fa 80 3e 58 14 6e 3e 9e fd 03 be 65 77 35 3e
       0.2519138 0.23249948 -0.12889716 0.17721327
000020 88 97 1c 3e 60 be 11 be 0f 3c 1b 3e b8 7b e7 bd
       0.1529218 -0.14232779 0.1515963 -0.11302894
000030 70 b7 e4 bd f0 f0 d7 3c 87 e8 f4 3b 16 ca 10 bd
       -0.111678004 0.026360005 0.0074740085 -0.035348974
000040 bb 40 08 be b7 ff 2e 3e f6 fb 8f 3e d5 27 b9 bc
       -0.13305943 0.17089735 0.28121918 -0.022602001
000050 08 d3 01 be be ae d8 3c fb 60 32 be 94 03 31 be
       -0.12678158 0.026450511 -0.17419808 -0.17286521
000060 74 06 8b bd 1d af 41 3e b4 c3 32 be 20 e9 8b bc
       -0.0678834 0.18914457 -0.17457467 -0.017078936
000070 a1 e5 f7 bd d8 ee 69 be 40 bb 85 bc 13 9b b7 3c
       -0.12104345 -0.22845018 -0.01632464 0.022412812
000080 3f 1a c6 bb 4d b5 55 3e ae bc 00 3e cb 2e 47 3e
       -0.0060456092 0.20869942 0.12571976 0.19451444
000090 ad 19 02 3e e6 12 6e 3d 77 03 21 3e ab fe 0a be
       0.12705107 0.05812349 0.15723978 -0.1357371
0000a0 ef d8 10 3e b1 54 18 3e 12 45 73 bd ce f2 dc 3c
       0.14145254 0.14876057 -0.059392042 0.026971247
0000b0 b7 d5 18 be ed 6c 4a be fb 5f 3f 3c df c9 95 3d
       -0.14925276 -0.19768114 0.011680598 0.073138945
0000c0 fc 72 70 bc a2 b0 e0 3d 42 36 28 be e9 48 f7 bd
       -0.014675852 0.1097119 -0.16426948 -0.120744534
0000d0 e1 41 48 3e 50 61 4b be ea 0e 7b 3d 63 43 5c 3e
       0.19556381 -0.1986134 0.06129352 0.21510081
0000e0 46 c5 55 3e a5 09 07 3e c3 3f 3e be 2e b9 97 3d
       0.20876035 0.13187273 -0.1857901 0.07408367
0000f0 a6 f6 57 bd 0a 54 05 bd 0d 67 61 3e 01 8f 87 bd
       -0.052725457 -0.03255085 0.22011967 -0.06619073
000100 16 82 e5 bd 2c 38 41 be 3c cf 58 3e 52 f5 53 3d
       -0.112064525 -0.18869084 0.21172804 0.051747628
000110 66 3c 86 3e fd bd b4 3d 15 cc 3c be 4d 89 af 3d
       0.26217955 0.088253 -0.18437226 0.0857111
000120 71 56 4f 3e f0 75 30 3e 07 14 f9 3d e5 fa 29 be
       0.20247819 0.1723249 0.12162023 -0.16599615
000130 16 7b eb bd 63 fc 42 3e 3f e0 05 be 6b 0e ae 3d
       -0.11498086 0.1904159 -0.13073824 0.08498844
000140 bc b9 24 bd 06 a0 09 3e 85 57 85 3d 71 95 27 be
       -0.040216193 0.1343995 0.06510834 -0.16365601
000150 9d 2e 13 bd b2 1c 78 3e 55 0e a9 3d 8d b5 11 3e
       -0.035933126 0.24229696 0.08254687 0.14229412
000160 b8 67 b5 bd 2c d4 8c 3e 70 dd cb 3b 7b 71 76 bd
       -0.088576734 0.27505624 0.0062214658 -0.060166817
000170 8d 94 07 3d 60 da 8e bd 37 46 9a bd 28 6c b2 bc
       0.033100653 -0.069752455 -0.07532924 -0.021780089
000180 36 d9 23 3d cc de b2 bd 12 d7 c2 3d 43 02 3a be
       0.04000207 -0.087339014 0.09513678 -0.18164925
000190 c5 1c 1c 3e 1a 0f 8e 3e 65 1a c3 3d 7c 25 1c bd
       0.1524535 0.27745897 0.09526519 -0.038121685
0001a0 6b 8e 45 be 16 14 1c 3e 75 db 6e 3e 86 43 53 3e
       -0.1929261 0.15242037 0.23325904 0.20631227
0001b0 20 88 8b 3d 41 02 bd 3d 5a 0a 61 3e ee b5 dc 3c
       0.06813073 0.092289455 0.21976605 0.02694222
0001c0 48 0c 6e bd d4 08 75 be e7 9d 09 3e b2 7b ec 3d
       -0.05811718 -0.23929149 0.13439141 0.115470305
0001d0 72 f9 7f 3e 84 de ba bd e6 cc 23 3e f3 61 62 bd
       0.249975 -0.09124473 0.15996131 -0.055269193
0001e0 5c 9a 91 bd cb 45 4f 3e fb a4 4d be 4b 38 6b 3e
       -0.0710952 0.20241468 -0.20082466 0.22970693
0001f0 b9 de 0a 3e f8 99 b6 bd c3 46 10 3e ea 1c 5d bd
       0.13561524 -0.08916086 0.14089493 -0.053982653
000200 8e ad 78 bb 8d 7d 94 bd 2a eb 87 be 97 96 41 bd
       -0.0037945244 -0.072505094 -0.26546603 -0.047262754
000210 ff d8 e9 3d 46 3b 06 bd 7d 70 11 be d6 59 b8 bc
       0.11418342 -0.03277137 -0.14203067 -0.022503775
000220 2c 41 0c 3d 62 c7 a6 bd 06 5c 5b be 7a 73 17 be
       0.03424184 -0.08143498 -0.21421823 -0.14790145
000230 62 d4 5a bd 1d e2 9f 3d 42 b4 4c 3e 7b d0 ee bb
       -0.0534252 0.078067996 0.19990638 -0.0072880364
000240 74 56 98 3d fa 86 e8 3d 31 3e 13 be c8 1c d6 bd
       0.074383646 0.1135387 -0.14379193 -0.10454708
000250 d8 cd 0c 3e d3 71 1e 3e a3 2f 15 3d cd c7 5b be
       0.13750398 0.15473108 0.036422383 -0.21462937
000260 b1 b7 07 3e 96 c6 6e be ba 06 c5 3d 1b cf 6b 3c
       0.13253666 -0.23317942 0.096204236 0.0143926395
000270 99 29 8a 3d f9 dd 86 be fa 91 f0 bd f1 e5 b0 3d
       0.067462154 -0.26341227 -0.11746593 0.08637608
000280 17 77 2c 3e 8d 5e c6 bd 01 cf 4e 3e 66 b5 b1 bd
       0.16842304 -0.09686003 0.20196153 -0.08677177
000290 c6 af 2e be e8 e6 07 be 9e 5b 63 bc 83 1a 80 bd
       -0.1705924 -0.13271677 -0.013876824 -0.06255057
0002a0 33 a9 e5 3d 72 10 26 be a8 c1 b4 bd 49 33 81 be
       0.11213913 -0.16217211 -0.088259995 -0.2523444
0002b0 a7 e7 36 3e f7 71 88 bd 60 43 5a be 4d 9b b0 bc
       0.17861806 -0.06662362 -0.21314764 -0.021558428
0002c0 f3 da b3 bc b8 3e 59 3d 98 db 25 bd 0c a4 12 3e
       -0.021954989 0.05303833 -0.040492624 0.14320391
0002d0 2d 7d bf bd 3f 3b be bd 8d ba a9 bd 52 62 10 3d
       -0.09350047 -0.09288644 -0.08287535 0.035250016
0002e0 3f e0 3a 3e ff 7b 28 bd eb a2 28 3e d5 c2 31 3e
       0.18249606 -0.041133877 0.16468398 0.17359479
0002f0 81 22 0f be 39 5e 43 bd f1 f3 20 be da 7e b6 3d
       -0.13978006 -0.04769728 -0.15718056 0.08910914
000300 1e 72 0f bd ee 3b c7 3d f2 b4 16 3d a6 cb e3 bd
       -0.03502094 0.097282276 0.036793657 -0.11122827
000310 40 a7 26 be bf 73 4f be 1c 11 cd bd 48 9d a6 3d
       -0.16274738 -0.20258997 -0.10013029 0.08135468
000320 49 41 ef 3c 76 fb 69 3e 6a e9 3a be 3f 7f d9 3c
       0.029205935 0.22849831 -0.18253103 0.026549933
000330 e7 55 30 be be 4b b7 3c c1 b6 fd 3d 58 22 47 be
       -0.17220269 0.022374984 0.12388373 -0.19446695
000340 e4 02 72 3e ec 5e f3 bc 3d 3e 89 3e de 2b f8 bb
       0.23633915 -0.029708348 0.26805297 -0.0075735888
000350 6e 1d 40 3e f8 06 7e 3e 80 1b 31 bd 23 4b 57 bd
       0.18761227 0.24807346 -0.043239117 -0.05256189
000360 ce 63 17 3e b1 18 21 be 49 00 42 3e b5 78 00 be
       0.14784166 -0.15732075 0.18945421 -0.12546046
000370 27 d0 81 3e 77 3a 08 be 15 16 82 bd c5 89 4b 3e
       0.2535412 -0.13303553 -0.06351868 0.19876774
000380 06 a4 5d bd 7d 41 80 3e 7e 9c 4c 3e 0b 87 8d 3e
       -0.054111503 0.25049964 0.19981572 0.27642092
000390 ff 4b 5a be dc 4b de 3c f3 e3 3b bd 2e 35 d0 3d
       -0.21318053 0.027135782 -0.045871686 0.10166393
0003a0 8e 43 2d be 33 97 00 3e 07 38 11 3c 90 d7 d8 bd
       -0.16920301 0.12557678 0.008863456 -0.1058799
0003b0 47 d2 29 be e5 9f 1a 3e 98 ca 90 bd c8 37 54 3e
       -0.1658412 0.15100057 -0.07069892 0.20724404
0003c0 ae 42 d4 3d d7 b9 b6 3d 34 2c 8b bc db a4 e3 bc
       0.10364281 0.08922165 -0.016988851 -0.02778857
0003d0 e9 bd 96 bd c5 93 3d be 89 9c 3f 3e e3 9a 05 be
       -0.07360441 -0.18513401 0.18712057 -0.13047366
0003e0 e5 32 2b 3e cc 7d f6 bc 18 2d 3a 3e 0b a0 84 3e
       0.16718633 -0.030089281 0.18181264 0.25903353
0003f0 0e 42 fd bd b3 36 81 3e f8 4f df 3c c9 2a 3e be
       -0.123661146 0.25237045 0.027259812 -0.18571009

layers.1.bias f4 [32]
000000 a0 95 dd b5 ad 6c cd b9 8a 31 44 38 dc f5 37 b8
       -1.650933e-06 -0.00039181617 4.677618e-05 -4.3859574e-05
000010 6b 3b 4e 39 76 d6 34 38 0b d5 8e 38 80 b0 23 b6
       0.00019667826 4.3115077e-05 6.81077e-05 -2.439163e-06
000020 21 b7 1a b9 45 00 9e b8 a8 3b 8c b7 9d 57 9b 38
       -0.00014754805 -7.534077e-05 -1.671708e-05 7.407295e-05
000030 7b 9f 29 39 04 41 a2 38 68 a1 21 39 0d b1 52 38
       0.00016176507 7.736872e-05 0.00015414285 5.0232793e-05
000040 ca 89 79 b8 e9 1c 70 b9 4a c1 d3 37 7d a2 e6 b7
       -5.9494552e-05 -0.00022898953 2.5243167e-05 -2.7493801e-05
000050 c8 1a 09 b7 08 13 22 38 7c ef e3 b8 3c 60 15 b6
       -8.172072e-06 3.8641534e-05 -0.00010868811 -2.2258746e-06
000060 dc de 61 39 7c cb 14 b9 0f 8b 01 b8 50 af 09 39
       0.00021540694 -0.00014190184 -3.0885505e-05 0.00013130647
000070 9b 0b 84 b7 87 05 61 39 ef 61 37 b9 61 bf 78 37
       -1.574103e-05 0.00021459731 -0.00017488723 1.4826511e-05

layers.2.weight f4 [16, 32]
000000 9c 58 2e 3e 2f b3 f3 3c 09 6d 9c 3e 56 99 9d be
       0.1702599 0.029748527 0.30551937 -0.3078105
000010 23 41 d3 3d 7c a9 2b be 43 2b 56 3c b4 a5 3d 3e
       0.10315158 -0.16763872 0.013071838 0.18520242
000020 80 35 b0 be 51 5c 26 3e eb 8c 12 be e2 16 80 3e
       -0.34415817 0.16246153 -0.14311568 0.25017458
000030 3a bd 88 bd 08 d1 27 3e db 9c bf 3e 5b 24 40 be
       -0.06676717 0.16388333 0.3742436 -0.18763869
000040 d3 3a cc be e4 f0 92 3e 40 64 58 be 2c 29 80 3d
       -0.3988863 0.2869941 -0.21131992 0.06257853
000050 15 51 2d 3e 08 4b f8 bd af e3 8f 3e 9d 73 73 3e
       0.16925462 -0.12123686 0.28103396 0.23774572
000060 d4 7e 33 be 77 4b 86 3d 0c 9e 9b bc e1 20 89 3e
       -0.1752885 0.065573625 -0.018996261 0.26782897
000070 8d e7 72 3e 9a bc a2 be c5 62 40 bd 13 c3 01 3e
       0.23721142 -0.31784517 -0.046969194 0.12672071
000080 a8 ef 50 3e 0a d5 03 3e 56 9c 0b 3e 88 b4 fd bd
       0.20403922 0.12874237 0.13633856 -0.12387949
000090 6d f6 4a bd af 2a 82 be 26 2a 8f 3e 2c c5 84 3e
       -0.049551416 -0.2542319 0.27961844 0.2593168
0000a0 67 de 39 be 78 86 ab be be d3 5a 3e e0 24 db be
       -0.18151246 -0.3350103 0.21369836 -0.4280157
0000b0 3e 79 50 3e c1 03 df be 73 dd 88 be ab 1f 56 be
       0.2035875 -0.43557552 -0.26731452 -0.20910518
0000c0 2a 31 a9 3e a5 1d bb bd d5 0f 95 3e 3d 0d 57 3d
       0.33045322 -0.091365136 0.2911364 0.05250286
0000d0 71 79 90 3e 79 06 36 3e 6a 0b 85 3e d6 6d a6 3e
       0.28217652 0.17775907 0.2598527 0.32505673
0000e0 dc 6d ca bd b0 7c cf bd 91 94 94 3d 95 6b 85 3e
       -0.09884235 -0.10131204 0.07254899 0.2605864
0000f0 11 54 04 be 5f e5 ae be 9f 69 96 be fa b0 61 be
       -0.12922694 -0.3415937 -0.29377457 -0.22040167
000100 25 3e 3a 3d 6c 94 59 bc 2e e8 85 bd 52 66 40 be
       0.045469422 -0.013280015 -0.065384254 -0.18789032
000110 2e 7f c1 3d d9 cb 87 be 42 fa a2 3e fa c8 c4 bc
       0.09448086 -0.2652271 0.31831557 -0.024021614
000120 6d 1b 4a 3d 36 ee e5 3d 49 9a c2 bd 4d c4 81 3e
       0.04934256 0.11227076 -0.09502084 0.25345078
000130 f5 bc 3f 3c 61 b5 2b 3d 53 b5 b6 be 1b 07 bc 3d
       0.011702766 0.041921023 -0.35685214 0.09181043
000140 17 29 03 3e fd 8a a6 3d 7a 53 04 bc 4e fa 91 3e
       0.12808643 0.08131979 -0.008076543 0.2851128
000150 cc d7 a4 3e a4 cd 92 3e 71 5f 20 bd 7d c5 8e 3d
       0.3219589 0.28672516 -0.03915352 0.06971262
000160 d9 8a 76 be ae 4e 5b be 3c 9a 0c bd a9 ee a5 3d
       -0.24076404 -0.21416733 -0.034326777 0.081021614
000170 04 b5 23 be 03 76 82 be b0 d1 32 3e 69 d9 29 3e
       -0.1598702 -0.2548066 0.17462802 0.16586842
000180 c3 d8 49 be 4b 04 56 3e 50 38 85 be d1 04 94 3e
       -0.19711594 0.20900075 -0.26019526 0.28909925
000190 3c 3a 64 3e 1d 0d ec bd 63 46 a4 3e 4d 5b 2b be
       0.2228784 -0.11525939 0.3208495 -0.16734047
0001a0 81 54 24 be d1 3d 8f 3e ba c4 32 bd 37 35 0c be
       -0.1604786 0.2797685 -0.043644644 -0.13692175
0001b0 90 ab a2 3d cb d3 a3 bc 00 1d 6e 3e 68 43 b9 3e
       0.07942879 -0.019998452 0.2325325 0.3618424
0001c0 0a b7 1e 3e cf 16 e7 3d a5 bc e2 3d 8c 24 67 3d
       0.15499511 0.11283647 0.11071137 0.05643134
0001d0 8f d0 b5 3d 5d 0b 17 3d 9f 6d 4f 3e dc 27 2e 3e
       0.0887767 0.03687607 0.20256661 0.17007393
0001e0 8d fc dc bc 7d f6 0d 3e 29 a9 73 3d a3 57 3a 3e
       -0.026975894 0.13863559 0.059487496 0.18197493
0001f0 83 0a a0 3e 1d 2e 20 be d3 82 a5 3d 9b bc 3d bd
       0.3125802 -0.15642591 0.08081593 -0.046322446
000200 74 a6 c3 be 66 b8 b2 be c2 d9 b2 bd d8 17 67 3e
       -0.3821293 -0.3490631 -0.0873294 0.2256769
000210 15 d1 99 be 3c 47 0a 3d e5 3f 32 3e f8 22 ba be
       -0.3004233 0.03375934 0.17407186 -0.36354804
000220 f5 a4 00 3d 53 8c c9 3d 7e 88 c9 be f6 c6 bc 3b
       0.031407315 0.09841218 -0.39361948 0.0057610227
000230 64 59 de be b5 8e 98 3e 13 0d 53 3e 26 e6 53 3d
       -0.43427575 0.29796377 0.20610456 0.05173316
000240 cd 96 4f 3e 9e d8 7a 3e ee 98 b1 3e 88 2b 03 3e
       0.2027237 0.24496695 0.3468699 0.12809575
000250 b5 f3 ab be 45 76 86 3e 84 bd 0f 3e cf 4b 1d be
       -0.3358437 0.26262107 0.14037138 -0.1536095
000260 12 2d 65 be 20 80 9f 3e c1 59 9f bc a7 51 2d 3e
       -0.22380474 0.3115244 -0.019451978 0.16925679
000270 87 d1 15 3d 51 f9 54 3e f7 7e b3 be 0b 3d bb 3b
       0.036576774 0.20798232 -0.35057804 0.005714064
000280 f6 76 31 3d bb d3 b9 bb ef c6 90 3e 25 a5 01 3d
       0.04332634 -0.005670992 0.28276774 0.031651635
000290 51 f6 49 bd a5 5e 13 3e 84 aa a4 bd e7 34 08 be
       -0.04930717 0.14391573 -0.08040336 -0.1330143
0002a0 01 fb ca be 7d 2a 18 3d a2 42 75 be 69 a4 37 3e
       -0.39644626 0.037149895 -0.239512 0.17933811
0002b0 d4 0e 4c 3e ca 25 b6 be 4d b7 25 be 72 e2 7d 3e
       0.19927531 -0.35575706 -0.16183205 0.24793413
0002c0 22 3e 51 be 54 98 88 3e bb f2 af 3e 5f 7c f9 bd
       -0.20433858 0.26678717 0.34364876 -0.12181925
0002d0 6f 1d c6 be 6a a8 ce 3d 66 77 40 3e f4 b3 a7 3e
       -0.3869433 0.10090716 0.18795547 0.3275448
0002e0 40 ee 72 bd ef d1 40 3e aa b1 ce be de 3a 43 bc
       -0.059309244 0.18830083 -0.40369922 -0.0119158905
0002f0 02 aa e5 3d 12 6f 09 3e fc 78 85 be 9d e4 f7 bd
       0.11214067 0.13421276 -0.26068866 -0.121041514
000300 e9 b5 2d be b6 b7 7b be da a9 36 3e 7d 8d 82 3d
       -0.16963924 -0.24581799 0.1783823 0.06374643
000310 56 26 3a 3e 08 90 01 bc f9 18 e2 bc 5a 7d 39 bc
       0.18178686 -0.007907875 -0.027599799 -0.01132139
000320 7c ec 2a 3e e9 48 50 be 1a 27 e8 3d a7 2c 47 3e
       0.16691774 -0.20340313 0.11335583 0.19450627
000330 f3 32 4b 3e 28 68 f6 bd 0e 26 90 3e 15 99 42 be
       0.19843654 -0.12031585 0.28154033 -0.19003709
000340 6c 99 2d 3e a3 86 91 3e 84 c0 16 3d 36 67 1b 3e
       0.16953057 0.28423032 0.03680469 0.1517609
000350 bb af 95 be 20 5b e9 bd c4 83 de bd 11 16 a0 be
       -0.29235634 -0.11394334 -0.10864976 -0.31266835
000360 e5 86 d4 bd 20 c4 89 3e 1d d9 a5 bc 41 69 cb 3e
       -0.103772916 0.26907444 -0.02024513 0.3972874
000370 94 53 85 be 4f 05 62 3e 2b 81 8f 3e d5 db bc 3e
       -0.26040328 0.22072338 0.28028235 0.3688647
000380 75 a4 2a be 77 d5 c4 be dc 78 39 be a8 58 57 3e
       -0.16664298 -0.3844411 -0.1811251 0.21029913
000390 87 11 05 bd f2 71 99 3e 24 64 81 be 34 58 7e be
       -0.03248742 0.29969746 -0.25271714 -0.24838334
0003a0 74 27 03 3e 46 d1 c9 3d 62 87 9a be 8f 9c a3 3e
       0.12808019 0.09854369 -0.30181414 0.31955382
0003b0 5d 29 4f be 74 f0 9c be 42 2b bb 3d 82 40 9e be
       -0.20230623 -0.306522 0.0913911 -0.3090859
0003c0 2b 81 80 be 6f ce 65 be c1 e9 15 3d dd 40 0f 3e
       -0.25098547 -0.2244203 0.03659988 0.13989587
0003d0 8d d7 30 3e db 06 88 be 23 da 91 bd 30 3c 9e 3e
       0.17269726 -0.2656773 -0.071216844 0.30905294
0003e0 81 b4 7c be a1 43 3b be 9c 2f 07 be 11 7f c3 be
       -0.24678232 -0.18287517 -0.13201755 -0.3818288
0003f0 d7 5a 93 be ed 4c 68 3e de d5 d3 bb 40 32 be bb
       -0.28780243 0.22685595 -0.006464704 -0.00580433

layers.2.bias f4 [16]
000000 f5 5a d4 b9 27 f1 b8 b8 87 1d af 38 30 21 48 39
       -0.0004050356 -8.818722e-05 8.35015e-05 0.0001908585
000010 36 ec 72 b8 b6 70 ac 37 df 37 aa b9 00 61 db 38
       -5.7917285e-05 2.0556483e-05 -0.00032466554 0.000104608014
000020 32 93 c1 38 22 77 21 3a c0 a1 27 37 dc 49 88 38
       9.2303744e-05 0.0006159415 9.991636e-06 6.498743e-05
000030 17 f5 9e b9 7d f6 9b b9 70 e0 7f b8 52 e4 e3 38
       -0.00030318715 -0.00029747552 -6.100576e-05 0.000108667315

layers.3.weight f4 [1, 16]
000000 ac 87 59 be 9f c0 f4 bd 67 d1 05 3d 32 b0 a6 3e
       -0.21243161 -0.11950802 0.032670405 0.325563
000010 c5 20 1d be d7 e5 24 be d9 f8 f0 3d de 8f 7f be
       -0.15344532 -0.16103302 0.11766214 -0.24957225
000020 c4 aa d6 3e dc 93 bf 3e e6 8a c5 bb dd 15 a3 be
       0.4192716 0.37417495 -0.006028521 -0.31852618
000030 0c bd 19 3e d6 a8 c7 3e 22 41 db 3d b1 75 3a 3e
       0.15013522 0.38996 0.107057825 0.18208958

normalizations.0.weight f4 [64]
000000 72 5a 7e 3f b4 30 85 3f 12 66 83 3f f3 c8 7a 3f
       0.9935676 1.0405488 1.0265524 0.97962874
000010 60 09 80 3f b5 56 81 3f d0 4f 83 3f b0 95 81 3f
       1.0002861 1.0104586 1.0258732 1.0123806
000020 53 71 80 3f 40 47 83 3f 25 96 80 3f 29 36 83 3f
       1.0034584 1.0256119 1.004582 1.0250903
000030 bd f7 82 3f 43 0b 86 3f cf 98 77 3f 96 ad 7f 3f
       1.0231854 1.0472187 0.9671754 0.99874246
000040 9a 3c 7b 3f c5 dc 7e 3f 78 af 7a 3f 02 30 70 3f
       0.98139346 0.9955562 0.97923994 0.93823254
000050 9c f0 76 3f fa b3 7b 3f a5 bb 79 3f bf 6a 80 3f
       0.9646089 0.983215 0.9755195 1.0032576
000060 2d ba 7d 3f a0 f1 7f 3f 07 a8 82 3f 7c 63 75 3f
       0.99112207 0.99978065 1.0207528 0.95854926
000070 f8 7e 81 3f a9 24 84 3f ec d7 7a 3f f0 31 80 3f
       1.0116873 1.0323688 0.9798572 1.001524
000080 40 e7 7c 3f 54 39 81 3f 6f c1 7f 3f 72 a3 7c 3f
       0.9879036 1.009562 0.9990453 0.986869
000090 5d d2 7c 3f fd 68 86 3f 2e 57 82 3f fa 3a 83 3f
       0.9875849 1.050079 1.0182855 1.0252373
0000a0 be 6a 78 3f 23 8a 80 3f ba a8 7f 3f 3e 50 73 3f
       0.97037876 1.0042156 0.9986683 0.95044315
0000b0 b1 bf 71 3f bb 90 83 3f 91 86 7f 3f ea 8b 81 3f
       0.9443312 1.0278543 0.9981471 1.0120823
0000c0 05 d5 7d 3f 08 59 81 3f 0b a5 7b 3f 39 16 7d 3f
       0.99153167 1.0105295 0.9829871 0.98862034
0000d0 f6 5d 83 3f 55 e4 73 3f 89 66 80 3f a6 c4 7c 3f
       1.026305 0.9527028 1.0031291 0.9873756
0000e0 ad f6 80 3f ad 2b 83 3f ff 7f 76 3f 03 77 81 3f
       1.007528 1.0247704 0.96289057 1.0114444
0000f0 83 9f 82 3f 49 80 79 3f 25 1a 81 3f 36 66 85 3f
       1.0204929 0.9746137 1.0086104 1.0421817

normalizations.0.bias f4 [64]
000000 6c 7f 41 bc 46 89 16 bc e3 5e 1e bd 3a 52 1b bc
       -0.011810165 -0.009188002 -0.03866471 -0.009480054
000010 a0 12 56 bd 36 29 47 bd 15 78 3e bd e6 6f 94 bd
       -0.052263856 -0.048623286 -0.046501238 -0.072479054
000020 aa 8f 95 bc e5 ce bb 3c 83 0a a7 bc 21 e4 ac bc
       -0.01825698 0.022925803 -0.020390755 -0.021104874
000030 0d 2c 31 bd 7a 44 27 3b df b5 7c bd e2 44 d4 3b
       -0.0432549 0.0025522993 -0.061696883 0.006477938
000040 e4 61 db bc 56 1e 05 3c a8 9e d6 bc ba f8 ec bc
       -0.026780076 0.008124908 -0.0261987 -0.028927196
000050 3e a4 88 3c e2 09 53 bc 77 2e 9c 3b 73 3a f5 bc
       0.01667988 -0.012880774 0.004766281 -0.029935097
000060 e6 24 d1 3c 0f 76 c2 bc dc f3 19 bc 3c a4 3f bd
       0.02553029 -0.023737935 -0.0093965195 -0.046787485
000070 89 08 02 bc 9f 4d 3b bd d5 52 9f 3a 8b 40 57 bd
       -0.007936605 -0.045728322 0.0012155423 -0.052551787
000080 77 10 b6 bc eb 33 61 bd b0 50 d5 3c 29 e5 9a bc
       -0.022224648 -0.054981153 0.026039451 -0.0189081
000090 45 e8 2f bc 6a 25 83 bc f8 63 0f bd 05 47 e9 bc
       -0.01073653 -0.016009051 -0.035007447 -0.028476248
0000a0 c3 34 c0 bb 56 6e e7 bc be 8f 30 bc 98 c8 2d bd
       -0.0058656647 -0.028250854 -0.010776458 -0.04242763
0000b0 69 1b 31 bd dc cd 50 3c 29 ed d9 bc 9f 40 b6 bb
       -0.04323903 0.012744393 -0.026602345 -0.0055619027
0000c0 9f f6 b9 bc de ec 8e bc 12 7f 35 bc b0 ea 68 bd
       -0.022700606 -0.017446931 -0.011077659 -0.05686444
0000d0 b4 89 80 bd 84 d2 10 bd f0 65 5a bd 33 a1 32 bc
       -0.06276265 -0.035357013 -0.05331987 -0.010902691
0000e0 05 89 02 bc b0 28 a9 bc e4 6b b3 bc 09 45 0c 3c
       -0.007967238 -0.020649284 -0.021902032 0.008561381
0000f0 25 0e dc bc ef 52 57 bd a0 28 76 3b d3 4c 7b bc
       -0.026862213 -0.052569326 0.0037560835 -0.015338141

normalizations.0.running_mean f4 [64]
000000 20 a4 57 b8 cc 2a b1 b9 7b 65 40 3b 52 bb a6 bb
       -5.1412848e-05 -0.00033791957 0.0029357362 -0.0050882483
000010 30 62 b2 3a 3e 58 7a 3b ff a5 87 3b a0 ed 94 ba
       0.0013609584 0.003819957 0.0041396613 -0.0011362322
000020 b8 0e 70 bb bb 73 1e 3b 50 93 d3 ba 74 84 23 3b
       -0.0036629867 0.0024177867 -0.0016141925 0.0024950774
000030 b4 b9 57 3b c8 4b 27 39 31 cd ba 3b 26 98 bb b9
       0.0032917084 0.00015954592 0.0057007303 -0.0003578078
000040 f5 9f b6 bb f4 36 36 bb df e9 b3 3a 60 3f b5 ba
       -0.0055732676 -0.002780375 0.0013726315 -0.0013828091
000050 c0 ed a2 b9 53 fa 9a ba 25 9a d3 3b 5a 43 55 bb
       -0.00031076185 -0.001182387 0.0064575844 -0.0032541365
000060 60 20 99 39 56 a3 48 3b 2e 63 4e 3b 1c 67 14 3a
       0.00029206555 0.0030614934 0.0031492221 0.00056611164
000070 04 c1 ff ba 9c e1 32 3a 79 c0 dc ba 2e dd 02 bb
       -0.0019512479 0.00068237795 -0.0016842029 -0.001996826
000080 85 72 03 bb e0 f8 07 b9 8e c0 e9 ba 20 8b d9 38
       -0.0020057273 -0.00012967316 -0.0017833875 0.000103732804
000090 fd 92 f0 ba ea 1e b9 39 10 f4 a7 3a 95 71 0a 3b
       -0.0018354353 0.00035308982 0.0012813825 0.002112483
0000a0 98 5a b0 3a 7a 53 f2 ba 18 3e 2b bb 18 66 c4 ba
       0.0013454733 -0.0018488013 -0.002612954 -0.001498404
0000b0 81 f3 53 bb 5a dd 41 3a ea 9b 79 bb 5d 6f 39 ba
       -0.0032341185 0.00073953497 -0.0038087317 -0.00070737844
0000c0 dc 83 14 ba ec 76 7f bb 08 a3 07 ba 8c 8e 87 3a
       -0.00056654005 -0.0038980795 -0.0005174135 0.0010342165
0000d0 00 75 85 b6 38 56 52 bb e1 d4 99 3a a6 4a 97 3a
       -3.9773295e-06 -0.0032094847 0.0011736416 0.0011542633
0000e0 e2 c5 60 bb 1e 30 0b bb cf 5e 99 bb 69 56 96 3b
       -0.0034297635 -0.0021238397 -0.0046804915 0.0045879376
0000f0 c1 dc 28 bb e8 27 59 ba 7e 72 c2 bb d8 54 a3 3a
       -0.0025766345 -0.00082838396 -0.0059340587 0.0012461198

normalizations.0.running_var f4 [64]
000000 cb 2d 31 3d 0e 46 86 3d 93 59 0e 3d f2 a2 c6 3d
       0.043256562 0.065563306 0.034753393 0.09699048
000010 96 16 1c 3c 80 fe 96 3d e7 6c 84 3d 71 dd b3 3d
       0.009526869 0.07372761 0.06466084 0.08782471
000020 13 c5 71 3d b7 37 07 3d 37 4f 06 3e 5a ef a3 3d
       0.059025835 0.03301212 0.13116156 0.08004637
000030 96 d7 6c 3d 17 66 9c 3c 63 51 f3 3d 6d 61 a4 3c
       0.057822786 0.019091649 0.11880758 0.020065987
000040 49 72 e6 3d 44 4e e3 3c 7a 41 22 3c 69 f4 e8 3c
       0.11252267 0.02774728 0.009903306 0.028436856
000050 9f 54 b6 3d 4c 3e 88 3b 67 6b 19 3e bf 60 70 3d
       0.08902859 0.004157817 0.14982377 0.058686014
000060 65 75 0f 3d f4 7d 33 3d 03 14 29 3d 02 e1 f1 3d
       0.035024066 0.04382129 0.04127885 0.11810495
000070 bb c5 e8 3c 15 b0 67 3c b0 e4 15 3c 44 f4 b9 3c
       0.028414598 0.014141102 0.009148762 0.022699483
000080 a0 93 d9 3d 37 6e c5 3d 10 af ab 3d ad a6 c3 3d
       0.1062386 0.096401624 0.08383 0.09553275
000090 73 53 5e 3c da e4 a6 3c 2b 23 15 3c 58 50 0c 3d
       0.0135697005 0.020372797 0.009102623 0.03425631
0000a0 af 85 c9 3d d9 da ba 3c 00 ee 36 3d f9 91 38 3c
       0.09839951 0.022809433 0.04466057 0.011265271
0000b0 35 26 b1 3d 80 67 4a 3d 19 1a b9 3d 73 01 34 3c
       0.086498655 0.04941511 0.09038181 0.010986674
0000c0 f2 76 94 3d 60 af 55 3d 36 59 68 3d 59 1d 3a 3d
       0.072492495 0.052169204 0.056725703 0.045438144
0000d0 72 d3 21 3d e5 32 24 3d 27 0b 01 3d 8e a6 93 3d
       0.03950829 0.0400876 0.031504776 0.07209502
0000e0 2a 11 57 3d 3f e0 26 3d 9d cb 93 3d 0a dd 8f 3d
       0.052506603 0.0407412 0.072165705 0.07024582
0000f0 93 ad d9 3c 94 89 ac 3d 74 5d 09 3e 18 04 01 3e
       0.026572024 0.084246784 0.13414556 0.12599218

normalizations.1.weight f4 [32]
000000 1f 85 81 3f 02 0a 80 3f 22 49 77 3f 35 da 7f 3f
       1.011875 1.0003054 0.96595967 0.9994233
000010 87 c9 86 3f 22 10 75 3f d6 d8 79 3f 1f c3 88 3f
       1.0530251 0.9572774 0.9759649 1.0684546
000020 d8 7a 81 3f 94 0f 7f 3f ed 2e 87 3f f8 64 80 3f
       1.0115614 0.99633145 1.0561196 1.0030813
000030 8b 7b 88 3f 17 08 77 3f 5f c4 78 3f d0 8d 81 3f
       1.0662702 0.9649672 0.9717464 1.0121403
000040 fe 43 82 3f 43 84 79 3f ad 5b 77 3f 50 84 79 3f
       1.0177 0.9746744 0.9662426 0.9746752
000050 e8 09 72 3f d3 d8 84 3f 47 8a 74 3f 4d 4e 7c 3f
       0.94546366 1.037867 0.95523494 0.9855698
000060 8f d4 81 3f 75 87 82 3f 1c c4 82 3f 6a de 78 3f
       1.0142993 1.0197588 1.0216098 0.97214377
000070 6b 3e 80 3f 76 6d 71 3f b7 18 89 3f 17 96 84 3f
       1.0019048 0.9430765 1.0710667 1.0358304

normalizations.1.bias f4 [32]
000000 11 6d 91 bc 25 9a 65 bc 0b fb 71 bb 84 d1 89 bd
       -0.017752202 -0.014013802 -0.0036923315 -0.06729415
000010 34 74 a8 bd 85 fd de bc e3 ab 23 bd 7b 05 9d 3d
       -0.08225289 -0.027220497 -0.039958846 0.07667061
000020 2d e3 db bc 22 e4 e0 3c ae 3e 52 3c 26 b0 21 ba
       -0.026841724 0.027452532 0.012832327 -0.0006167911
000030 0b 87 56 3d 2b dc 28 bd 4a 36 82 bc 01 77 81 bc
       0.05237488 -0.041225594 -0.015895028 -0.015803816
000040 57 a3 ef bb 80 46 e5 3c 68 c7 93 3c a1 00 e9 3c
       -0.007313173 0.027987719 0.01803942 0.028442683
000050 a8 06 0e bd 0e ad f4 3c a4 89 a6 bc 7e 55 c3 3c
       -0.034674317 0.029867675 -0.020329304 0.023844477
000060 0d 26 18 bd e6 9a 94 3c 34 c5 4d bc 7d ec 29 bc
       -0.037145663 0.018140268 -0.012559224 -0.010371325
000070 24 6b 9f 3c 90 fd 83 bd 39 d4 34 3c d5 1b 99 bc
       0.019460268 -0.064448476 0.011036926 -0.01869003

normalizations.1.running_mean f4 [32]
000000 72 e1 11 3f 02 33 8b 3f 4b 62 0d bf 5d 83 2b 3f
       0.5698463 1.0874941 -0.5522811 0.6699732
000010 8f 55 aa 3f 5c 4b 8b be 4d 41 b1 3e 26 23 35 3c
       1.330736 -0.27205932 0.34620133 0.011055743
000020 fb 2c 34 3f 75 bf 84 bf 20 b7 34 3f 82 ba 6a 3d
       0.70381135 -1.0370928 0.70591927 0.057306774
000030 28 d8 81 3f c7 80 93 be 6f 6d 72 bf f1 23 55 3f
       1.0144091 -0.28809187 -0.9469823 0.8325797
000040 e6 7c 8f 3f cb e8 f3 be 82 33 6f bf 9c 9e 8b bf
       1.1209991 -0.47638544 -0.9343797 -1.0907779
000050 c1 89 4b be 52 2f ea 3e 98 e9 34 bf 62 4a d9 bf
       -0.19876768 0.45739228 -0.70668936 -1.6975825
000060 d0 6a 6b 3f 80 0f 7d be b4 c5 17 3f dc bc 1f 3f
       0.9195986 -0.24712944 0.59286046 0.6239755
000070 43 5e 3f bf d0 e9 92 3f 1b d6 4b 3f 4e 99 0d 3f
       -0.74753207 1.1477604 0.79623574 0.5531205

normalizations.1.running_var f4 [32]
000000 1a 10 09 3f db 15 23 3f 5f 34 84 3e cf 65 05 3f
       0.53540194 0.63705224 0.25821206 0.5210847
000010 45 4e 2e 3f a7 07 b9 3f ee 25 e0 3e 29 c0 0f 3f
       0.6808818 1.445546 0.43778938 0.5615259
000020 96 79 c7 3e 69 c3 3b 3f 04 f8 55 3f 4c 1b 48 3f
       0.3895995 0.7334505 0.83581567 0.7816665
000030 d3 67 71 3f ba d0 3d 3f 26 3d 4b 3f f2 85 0e 3f
       0.9429905 0.74146616 0.7939018 0.55673134
000040 be 01 00 3f f8 44 16 3f 28 88 a7 3e 56 c6 17 3f
       0.5000266 0.5869899 0.32721066 0.5928701
000050 9b 87 5b 3f 55 1f 9b 3f 57 1b 2e 3f 86 ea 93 3f
       0.8575379 1.2118937 0.6801047 1.1555946
000060 d5 c9 ef 3e e9 4a 0f 3f d3 85 8e 3f 67 84 2c 3f
       0.46833673 0.5597368 1.113459 0.6738953
000070 57 b6 9a 3f 1a 5b 2d 3f 1b 67 df 3e a0 e6 77 3f
       1.2086896 0.67717135 0.4363335 0.9683628

normalizations.2.weight f4 [16]
000000 c4 64 7f 3f fd 94 76 3f dd f3 7c 3f cf 79 61 3f
       0.9976313 0.9632109 0.98809606 0.8807649
000010 31 85 7b 3f dc d2 7f 3f 91 56 80 3f 97 9b 83 3f
       0.9825011 0.9993112 1.0026418 1.0281857
000020 0d 99 66 3f 40 81 6d 3f 4a dd 77 3f 3e 4f 6f 3f
       0.90077287 0.92775345 0.96822035 0.9348029
000030 0a 7b 7b 3f e3 6d 62 3f 87 49 6a 3f 59 f8 6e 3f
       0.9823462 0.88448924 0.91518444 0.933477

normalizations.2.bias f4 [16]
000000 ee 78 b8 3d 37 cd 66 3d 3e bd 51 bd b9 53 dd bd
       0.090074405 0.056348052 -0.051205866 -0.108069845
000010 e1 81 94 3d a2 41 c5 3d 57 a3 4f bd 6b a6 a9 3d
       0.07251335 0.09631659 -0.050692882 0.08283695
000020 86 a8 de bd e0 77 aa bd 4f 7a 10 3b db f5 aa 3c
       -0.10871987 -0.083236456 0.0022045558 0.020869186
000030 bf f8 52 bd 9d fb f1 bd d7 6b bb bd a6 94 8d bd
       -0.051506754 -0.118155695 -0.09151428 -0.06913118

normalizations.2.running_mean f4 [16]
000000 f7 55 c6 3e a6 cc 2c 3c 5c 90 8c 3e 78 40 6a 3f
       0.3873746 0.010546839 0.27453887 0.9150462
000010 0d fd 0f be 8a 37 31 bd 40 9e 14 3f 09 9c 78 bf
       -0.14061375 -0.043265857 0.5805397 -0.9711309
000020 98 cc 6c 3e 81 38 4e 3f 6a 99 3a bf 83 ce 02 be
       0.23124921 0.8055497 -0.7289034 -0.1277409
000030 c0 d9 39 3f f0 81 09 bf 92 61 b2 3e 89 08 ab 3e
       0.72597885 -0.53713894 0.34840065 0.3340495

normalizations.2.running_var f4 [16]
000000 f4 69 a8 3f 1b 29 7f 3f df 3d c4 3e 3c d6 08 3f
       1.3157334 0.99672097 0.38328454 0.53451896
000010 7f 72 f2 3f ca 9a bd 3f 7d 01 2a 3f 98 12 f8 3f
       1.8941191 1.4812863 0.6640852 1.9380674
000020 83 76 5c 3f 33 c6 af 3f 38 e7 2b 3f 36 87 43 40
       0.86118335 1.3732361 0.67149687 3.0551276
000030 25 b5 c9 3e ea de 10 40 0c 02 38 3f 82 1c 85 3f
       0.39396015 2.2636056 0.71878123 1.0399325

exp_avg f4 [64, 2]
000000 87 c9 10 bb 42 7e 4d 3b c8 a9 34 3b bc 6e ae bb
       -0.0022092776 0.0031355773 0.0027567018 -0.005323259
000010 e8 e3 8f bc 35 58 d0 bc 2a fc 49 3c 89 60 cd 3b
       -0.017564729 -0.025432685 0.012328187 0.0062676114
000020 b4 ea 27 3d 46 72 af bc 7b 23 e6 bc 1c 3f 7c bb
       0.040995315 -0.021416795 -0.02809309 -0.0038489765
000030 13 81 19 bd e7 cc 32 bd 2c 7e 43 ba 38 2c 34 3a
       -0.03747661 -0.04365244 -0.0007457461 0.0006873044
000040 ce 25 30 3c c8 50 43 3c ff b6 e8 bc e0 00 59 ba
       0.010751201 0.011921115 -0.028407572 -0.00082780235
000050 fe 13 fd 3a fe 20 d2 ba 1b 9b 85 3a 45 76 f7 b9
       0.0019308326 -0.0016031561 0.001019332 -0.0004719963
000060 f5 88 84 bc dd cf 33 39 9a 1f 21 3d ae 00 37 bd
       -0.016178587 0.00017148205 0.03933678 -0.044678383
000070 30 20 27 bc c8 e0 d6 bb 90 4f ea 3c e1 40 8b bd
       -0.010200545 -0.0065575577 0.028602391 -0.06799484
000080 ba de 44 bb 12 fe 0c bb e0 47 79 3a e0 d9 0d 3a
       -0.0030039982 -0.0021513742 0.00095093064 0.0005411189
000090 3c 59 19 bd e1 df 80 bc c9 66 23 bb 32 63 9d 3c
       -0.037438616 -0.015731754 -0.002493309 0.01921234
0000a0 2c a6 82 3b 93 2b a4 bb 2a f5 83 3d b4 25 3e 3c
       0.0039870944 -0.0050100773 0.06443246 0.011605669
0000b0 30 ae 66 b8 66 b6 9c b8 9e f7 ed 3b 00 e2 65 39
       -5.4998498e-05 -7.472634e-05 0.0072621843 0.00021923333
0000c0 0e 37 93 bb cb 65 be 3b 62 e5 83 3c 42 e6 dd 3c
       -0.004492647 0.0058104745 0.01610059 0.027087335
0000d0 b4 41 03 3b 86 bd 09 3b 45 0d 97 3a 60 f9 b3 ba
       0.0020028176 0.0021017506 0.001152434 -0.0013730936
0000e0 0e aa d2 ba b6 46 c6 bb e4 c3 04 3d b7 cb b0 bc
       -0.0016072409 -0.00605091 0.03241338 -0.021581514
0000f0 6d f8 48 3b 43 72 b8 3b 46 87 a8 bc 60 87 22 b8
       0.0030665651 0.0056288554 -0.020572316 -3.8749888e-05
000100 ae 91 28 bc 76 e2 e0 3b 73 71 90 3b d0 9e c3 bb
       -0.010288639 0.0068629337 0.0044080555 -0.0059698597
000110 b3 d9 0f 3b 08 a6 2a bc 1a cd 08 ba 82 1d 77 3a
       0.0021949827 -0.0104155615 -0.0005218551 0.0009426699
000120 a6 05 a5 3c f6 93 54 3c 58 1b 12 bb b0 fb a8 3b
       0.020144295 0.01297473 -0.002229413 0.0051569566
000130 17 b0 8a 3b 43 33 2f 3d b0 75 b7 3b 9b cc 87 ba
       0.0042324173 0.042773496 0.0055987462 -0.001036066
000140 9b 82 3a ba 9b 38 1d 3a 42 c8 82 3b 78 fa 33 b8
       -0.00071147986 0.00059975096 0.0039911577 -4.2910193e-05
000150 b8 e3 1c 3b f2 53 04 39 3c c6 e4 bb 74 f3 99 bb
       0.0023939442 0.00012619773 -0.006981639 -0.0046982113
000160 66 ca 3f bb 1e 48 30 3a 04 f4 13 bb 85 9a 10 3b
       -0.0029264926 0.00067246135 -0.0022575865 0.0022064757
000170 ae 16 e7 b9 b2 44 bc ba f4 7b 6b bb 88 64 da 3c
       -0.0004407665 -0.0014363735 -0.0035932036 0.026659265
000180 c4 56 77 3a 0e 49 86 ba 20 3d 52 ba 00 b5 94 b9
       0.00094352313 -0.0010245161 -0.00080199726 -0.00028363615
000190 fe 26 e6 3b 6e 7d 5a bc 23 38 94 3c e2 89 70 bc
       0.007023691 -0.013335569 0.018093174 -0.014681311
0001a0 27 9c 91 3c b2 99 c6 bc 06 e2 39 bb 01 6b 8d bb
       0.017774655 -0.02424321 -0.002836348 -0.0043157344
0001b0 6a c6 54 3c f6 2e 80 bd e4 9a 7c 3b f0 29 63 bb
       0.012986759 -0.06258957 0.003854447 -0.0034662448
0001c0 14 9c 2e 3c 90 1a a3 3c 3e 45 05 bc 64 2d 14 3b
       0.010657329 0.019910127 -0.008134184 0.0022610063
0001d0 ca 9a c1 3b d3 83 d7 3b bf e9 33 bb ec e5 04 bb
       0.005908345 0.006576994 -0.0027452556 -0.0020278646
0001e0 5e cc 11 3d f2 47 cc 3b c2 ff 8b bb 3c e9 9e 3b
       0.03559529 0.0062341625 -0.004272432 0.004849581
0001f0 c4 cd 82 3a 34 3a 59 3a e0 b1 67 3b cd 2c 74 bb
       0.0009979536 0.0008286566 0.0035353824 -0.0037258149

exp_avg_sq f4 [64, 2]
000000 01 99 26 3b 7d 5c 6f 3b b2 bf 40 3b 5a 1d 06 3c
       0.0025420787 0.0036523633 0.0029411134 0.008185709
000010 71 71 f2 3b 3f 7e 92 3c 0b 02 50 3b 95 0c 52 3a
       0.007398777 0.017882464 0.00317395 0.0008012739
000020 e9 86 38 3d 86 5f 99 3c 98 7f b2 3b aa 49 19 38
       0.045050535 0.018722307 0.0054473393 3.6546648e-05
000030 bc 6d de 3b bd 54 21 3c 88 d7 9c 3b 91 2d 40 3b
       0.0067879837 0.009846863 0.0047864355 0.0029324035
000040 63 22 ed 3a 91 4c 57 3b 2e 94 a6 3c fc 3b a5 38
       0.0018091913 0.0032852034 0.02033433 7.878986e-05
000050 3a 6f 02 3b 23 c9 d3 3a 30 fc 02 3b 46 38 aa 39
       0.0019902722 0.0016157966 0.0019986741 0.00032466854
000060 25 a5 f4 3b 17 02 38 38 64 fb 8e 3c 1e c1 a7 3c
       0.007465976 4.3870965e-05 0.017453857 0.020477828
000070 18 bb dd 3a 0f f3 4f 3a 58 0f 26 3b 37 fe a2 3c
       0.001691672 0.0007932642 0.0025338735 0.01989661
000080 fe d7 3b 3b 17 e6 d2 3a c1 d5 05 3c 20 d4 ce 3a
       0.0028662677 0.0016090301 0.008168639 0.0015779771
000090 af c1 03 3d 31 3e 45 3b 8e 74 a5 3a 0a 08 56 3c
       0.032167133 0.0030096883 0.0012623237 0.01306344
0000a0 6b a0 bb 3a 5d ff d2 3a d3 e3 37 3e 1d 21 01 3b
       0.0014314776 0.0016097833 0.17958002 0.0019703575
0000b0 9b a6 7a 3a 2a 3d 3b 3a 4f eb 6f 3c 5c 4b 09 39
       0.00095615693 0.0007142598 0.014643504 0.00013093412
0000c0 bb 5f 15 3b 82 40 5f 3b 4e 30 89 3b ce 19 b9 3b
       0.0022792656 0.003406555 0.0041866666 0.005648828
0000d0 bf de ca 3b e8 21 58 3c 54 f9 cc 39 9f e6 21 3a
       0.006191104 0.013191678 0.00039095676 0.0006176028
0000e0 57 fb a3 3a 6c 57 21 3c fd 8b 8b 3c d1 55 d4 3b
       0.0012510818 0.009847503 0.017034525 0.0064799567
0000f0 0e 43 90 3c 78 c1 c7 3c 63 94 0b 3d 31 5e b9 3a
       0.0176101 0.024384245 0.03407706 0.0014142451
000100 d0 96 3c 3b dc e5 84 3a c2 91 0c 3b ad 52 6e 3b
       0.0028776415 0.0010139304 0.0021449183 0.0036365197
000110 1d 9f ab 39 8f b0 11 3c d5 05 99 3a 77 d2 3c 3b
       0.0003273421 0.0088921925 0.0011674712 0.002881197
000120 5a 76 af 3c 3b 9f 60 3c 6d 73 49 3c 9e 67 cc 3c
       0.02141874 0.0137098385 0.012295586 0.024951752
000130 b2 a6 98 3b c9 73 5c 3d 32 fb 22 3c 55 19 be 39
       0.0046585435 0.05382136 0.009947585 0.00036258498
000140 26 09 30 3b f2 74 cf 3a 20 58 3c 3c 81 02 46 38
       0.0026860922 0.0015827699 0.01149562 4.720921e-05
000150 36 b1 2d 3c 97 4d 88 37 0d a4 3b 3c e7 30 62 3c
       0.010601332 1.6248594e-05 0.011452687 0.013805605
000160 6a 38 8a 3b d2 48 da 39 5b cb 82 3b db c8 5c 3b
       0.004218151 0.00041634456 0.003991527 0.0033689055
000170 f8 ce b3 39 a4 4f 3e 3b bd e7 66 39 6e b0 5d 3d
       0.00034295744 0.0029039169 0.00022020839 0.054123335
000180 c3 9a eb 3a 2c b0 07 3b 30 1b a0 3b 25 57 a6 3b
       0.00179752 0.0020704372 0.0048860535 0.0050763064
000190 0a 75 9b 3a 5e d6 7a 3b 2c df ad 3b 0b 9c fa 3a
       0.0011860442 0.0038274745 0.005306145 0.0019119991
0001a0 fb fc 20 3c 67 14 61 3c 36 e1 56 3b ba 34 94 3b
       0.00982594 0.013737774 0.0032788045 0.004522887
0001b0 2e d1 d7 3a 87 4b 7f 3c da 9a 25 3b de fc d5 3a
       0.0016465539 0.015581972 0.00252693 0.0016325971
0001c0 93 2c 84 3a c1 b1 82 3b 8a 13 9f 3b 8f e2 79 39
       0.0010084085 0.003988475 0.004854624 0.0002383089
0001d0 56 2a 2f 3b eb 70 26 3b 9f cd 64 3b ef 94 a9 3a
       0.0026728115 0.0025396894 0.0034912599 0.0012938062
0001e0 33 3d 12 3c 8e 44 e6 3a 18 9b 02 3b 98 d7 06 3b
       0.008925724 0.0017568038 0.001992887 0.0020575281
0001f0 a3 86 8b 3a d6 43 46 3a 41 e1 fb 3a 78 8a 03 3b
       0.0010644983 0.0007563209 0.0019216911 0.0020071547

exp_avg f4 [64]
000000 0e 5a b7 af 26 cf fd 30 d8 52 58 2f 6b 61 f3 af
       -3.3351494e-10 1.8467048e-09 1.9674518e-10 -4.4270662e-10
000010 64 3f 02 30 a4 65 21 b1 d1 d4 31 31 56 4d 0c 31
       4.738381e-10 -2.348636e-09 2.5877862e-09 2.0416642e-09
000020 99 87 c3 30 7f c2 41 b1 c5 fc a6 2f 48 0d b9 2e
       1.4226657e-09 -2.8195755e-09 3.0374828e-10 8.415185e-11
000030 de 1f fe 30 72 a1 47 31 b2 5e 3e b0 1a e6 e2 b0
       1.848999e-09 2.9050082e-09 -6.925617e-10 -1.6509063e-09
000040 0d 56 ef 2f f8 43 1e b1 8c 3d 3d b1 3e f9 95 af
       4.353499e-10 -2.3030662e-09 -2.7538105e-09 -2.728004e-10
000050 92 e4 0a 30 7e e4 38 b1 73 2a 01 30 d0 e9 d5 30
       5.0528925e-10 -2.6905407e-09 4.699025e-10 1.5564243e-09
000060 e4 3f 19 30 a8 2c 2d 30 d2 4a 14 b1 26 2b 1b 2f
       5.575187e-10 6.3000494e-10 -2.1579365e-09 1.4112497e-10
000070 4d b5 85 30 94 09 1c b1 fc 99 07 b1 70 4f 52 b0
       9.728552e-10 -2.2706432e-09 -1.9732616e-09 -7.651044e-10
000080 f4 c1 81 30 64 c5 09 af 96 fe 3f b0 23 65 d5 b0
       9.44111e-10 -1.2530205e-10 -6.9847184e-10 -1.5526535e-09
000090 50 15 71 30 5a e7 0a b1 a8 43 81 31 9e b3 80 b0
       8.7705576e-10 -2.0213151e-09 3.7620858e-09 -9.364276e-10
0000a0 42 a8 4c b0 37 16 2b 31 9c 06 b8 30 77 38 19 31
       -7.4453876e-10 2.4896403e-09 1.338964e-09 2.2296527e-09
0000b0 9a 79 a3 2e d4 bc 9b 30 e7 d0 92 2f ef 55 26 30
       7.4339826e-11 1.1331402e-09 2.670568e-10 6.0512567e-10
0000c0 3c 2f a8 af 00 58 41 ad 1a 32 35 af 5a a9 aa 2f
       -3.0592584e-10 -1.099032e-11 -1.6479654e-10 3.104315e-10
0000d0 46 73 fb 30 80 e9 6b b0 30 75 34 31 7e ad 44 30
       1.8295416e-09 -8.5824325e-10 2.626006e-09 7.155093e-10
0000e0 32 95 82 b0 88 13 76 af bc e6 44 b1 82 e2 2b 31
       -9.501149e-10 -2.2380509e-10 -2.8652911e-09 2.501253e-09
0000f0 0f dc a8 b0 26 5f 96 b0 59 25 38 30 42 de 9a 30
       -1.2286153e-09 -1.0940979e-09 6.6991884e-10 1.1268144e-09

exp_avg_sq f4 [64]
000000 7f 20 35 24 53 bc 1d 24 cb 8b 95 24 48 e4 d5 23
       3.9275644e-17 3.4203465e-17 6.485527e-17 2.3190187e-17
000010 8f cd b4 25 5c 60 1e 24 4d bf 79 24 68 4e 15 24
       3.1364314e-16 3.4342408e-17 5.4155306e-17 3.2375637e-17
000020 1c f7 f3 23 57 32 a4 24 83 c0 c7 23 04 b0 4b 23
       2.6450768e-17 7.120894e-17 2.1657155e-17 1.1041925e-17
000030 78 cb 30 24 be 32 2f 25 89 cf 99 23 05 fb 9a 24
       3.833626e-17 1.5196023e-16 1.6676188e-17 6.72121e-17
000040 05 62 bc 23 9a 60 93 24 d2 aa bf 24 6e b0 b6 24
       2.0424514e-17 6.391474e-17 8.312243e-17 7.92288e-17
000050 63 e0 8a 23 e6 fc 48 26 45 3d 3c 23 c6 fd 92 24
       1.5057021e-17 6.973168e-16 1.0204475e-17 6.3747316e-17
000060 8d 5d f3 23 77 d0 1c 24 e5 2a 44 24 fc 4a c0 22
       2.6385733e-17 3.4003684e-17 4.2537058e-17 5.2121097e-18
000070 61 57 9b 24 4b 1d 0c 25 f7 be 66 25 01 43 17 25
       6.736856e-17 1.2152989e-16 2.0014021e-16 1.3119864e-16
000080 7e d0 d2 23 74 cc 08 24 ae 3c dd 23 64 67 b2 23
       2.2856545e-17 2.9663478e-17 2.3986567e-17 1.9342586e-17
000090 d4 7c 2b 25 26 60 20 25 e4 cd 7c 25 6e c2 60 24
       1.4874179e-16 1.3910364e-16 2.1927274e-16 4.8736946e-17
0000a0 07 ca ae 23 47 ee d9 24 26 c3 44 24 12 99 f7 24
       1.895068e-17 9.4512406e-17 4.2666022e-17 1.07378486e-16
0000b0 66 8e 8e 23 5a 9a 43 24 08 e8 bb 23 34 83 33 25
       1.5455979e-17 4.2414626e-17 2.037285e-17 1.5570228e-16
0000c0 bb 1b c4 23 fd 3d 17 24 8c e3 ca 23 71 c6 5c 24
       2.1262107e-17 3.2795412e-17 2.1997254e-17 4.7872982e-17
0000d0 72 24 b4 24 9e 20 07 24 b5 87 00 25 15 cb a3 23
       7.81243e-17 2.9301086e-17 1.114821e-16 1.7758504e-17
0000e0 ea 51 11 24 14 cc db 23 ef 2d 16 24 64 51 bb 23
       3.1511247e-17 2.3830458e-17 3.2564972e-17 2.0309051e-17
0000f0 7d ba 89 24 d3 68 bc 23 e6 c1 47 23 e8 20 aa 23
       5.97302e-17 2.0427396e-17 1.0828871e-17 1.8445373e-17
