models/house_price/final_model.pth (torch, 180751 bytes, 59 tensors)

layers.0.weight f4 [128, 8]
0	0xbe7c39f3	-0.24631481
1	0xbdc6955e	-0.09696458
2	0x3e973bc3	0.29537782
3	0x3d264fa2	0.040603288
4	0x3d2c47ea	0.04206077
5	0x3b8ed5fd	0.0043590055
6	0x3e3c2a75	0.18375571
7	0xbe83d10a	-0.25745422
8	0xbf0845c7	-0.5323147
9	0x3d14d31a	0.036334135
10	0xbd63fa0c	-0.055658385
11	0xbd913988	-0.07091051
12	0x3dfa0ec7	0.1220985
13	0xbc028452	-0.007966118
14	0x3dee07f4	0.11622611
15	0x3cfb49fb	0.030674925
16	0x3d24d766	0.040244482
17	0xbc80864f	-0.015689043
18	0xbe03e37b	-0.12879746
19	0x3d6b8248	0.057497293
20	0x3d2d4209	0.042299304
21	0x3e912824	0.28350937
22	0xbe8f4d55	-0.27988687
23	0xbe984cbb	-0.2974604
24	0xbec0bd8b	-0.3764461
25	0x3dbb4681	0.09144307
26	0x3ea3c9d9	0.31989935
27	0xbd756677	-0.05991217
28	0x3d8bfb23	0.0683501
29	0xbc13cfe7	-0.009021736
30	0x3d8572fb	0.065160714
31	0x3e51fd29	0.20506729
32	0xbe2ba752	-0.16763046
33	0xbb0fdc11	-0.0021951238
34	0x3e08799a	0.13327637
35	0xbe30acce	-0.1725342
36	0x3c8e54e0	0.017374456
37	0xbcfa5929	-0.030560093
38	0x3e974bc3	0.2954999
39	0x3e6ef205	0.2333451
40	0x3d2bdc27	0.041958
41	0x3b97182d	0.0046110363
42	0xbdbf92e9	-0.09354193
43	0x3dd886ea	0.10572608
44	0xbc5bd6f3	-0.013417947
45	0x3ee4a683	0.44658288
46	0x3e9ffee2	0.31249148
47	0x3e834cbd	0.25644484
48	0xbdc6ad81	-0.09701062
49	0x3d4a5c24	0.04940428
50	0xbebb8df8	-0.3663175
51	0x3e45dcda	0.1932253
52	0x3d15edb6	0.036603652
53	0xbe090bce	-0.1338341
54	0x3e6b25ef	0.2296369
55	0x3d4948c1	0.04914165
56	0xbf12d19a	-0.57351077
57	0xbd42439c	-0.04742776
58	0x3cd1f95b	0.025631597
59	0xbe6bfc71	-0.23045518
60	0x3d5a08ba	0.05323098
61	0x3c14b51e	0.009076385
62	0x3b936c72	0.0044990117
63	0xbcab5ce1	-0.020918312
64	0xbec56e1f	-0.38560578
65	0xbd35f9d3	-0.044427704
66	0x3e17bdcc	0.14818496
67	0x3e0a517f	0.13507651
68	0xbc84bc8a	-0.016203184
69	0xbaa9679d	-0.0012924556
70	0x3e24944f	0.160722
71	0x3e122830	0.14273143
72	0x3dc88a48	0.09792
73	0x3e7a7276	0.24457726
74	0xbda24700	-0.079236984
75	0x3e280d65	0.1641136
76	0x3dcd6ac6	0.10030131
77	0xbf272caa	-0.65302527
78	0xbe692119	-0.22766532
79	0x3b5d6e1c	0.0033787554
80	0xbe9c1e40	-0.3049183
81	0xbc71fb30	-0.01476936
82	0x3ce7b149	0.028282778
83	0xba68d607	-0.000888199
84	0xbd00c364	-0.03143634
85	0x3f030653	0.51181525
86	0x3e421fdd	0.18957467
87	0x3e1decb3	0.15422325
88	0x3d0a67e5	0.033790488
89	0xbdc23fa5	-0.094847955
90	0x3d1bc44e	0.038029008
91	0x3c9eac12	0.019369159
92	0xbd562e5a	-0.052290298
93	0x3d39f603	0.04540063
94	0x3edd3f59	0.43212393
95	0xbf017558	-0.5056968
96	0xbd01364e	-0.03154593
97	0xbe90c506	-0.28275317
98	0x3e985996	0.2975585
99	0xbd844a4d	-0.06459484
100	0xbcbc5bdb	-0.022993019
101	0x3d9e7a7c	0.07738206
102	0x3dfd33d0	0.12363398
103	0x3dc3b46c	0.09555897
104	0xbd5780fd	-0.052613247
105	0x3ac1e47d	0.0014792826
106	0x3ea11874	0.3146397
107	0xbe9805e7	-0.29692003
108	0xbe02a008	-0.1275636
109	0xbf101bb3	-0.56292266
110	0xbdabdb2b	-0.08391412
111	0xbd3c9b31	-0.04604644
112	0x3d455274	0.048174337
113	0x3cc9be24	0.024626799
114	0x3da9a382	0.0828314
115	0xbd686702	-0.05673886
116	0x3c2fb1ac	0.010723513
117	0xbfce60f2	-1.6123335
118	0xbce7cd07	-0.028296007
119	0xbae1570e	-0.0017192082
120	0xbe4620ae	-0.19348404
121	0xbe793429	-0.24336304
122	0xbe589a35	-0.21152575
123	0xbd6d51bd	-0.05793928
124	0x3e16620a	0.14685836
125	0x3cce41dc	0.025177889
126	0x3da4a64d	0.08039532
127	0x3d6e3dbd	0.058164347
128	0x3d845fc2	0.06463577
129	0xbd84b734	-0.06480256
130	0xbd1e7f35	-0.038695533
131	0x3d95f855	0.07322756
132	0x3c13fc7c	0.009032365
133	0xbfd6ffe3	-1.679684
134	0xbdb0bdcb	-0.0862995
135	0xbdd50880	-0.10402012
136	0xbe6a54b3	-0.22883873
137	0xbb92d365	-0.0044807666
138	0xbbaf544a	-0.005350624
139	0xbd648142	-0.055787332
140	0x3d4c9db7	0.049955096
141	0x3f17c08c	0.5927818
142	0x3e2a9742	0.16659263
143	0x3e0fd715	0.14046891
144	0x3f20579e	0.62633693
145	0x3c26b930	0.010175988
146	0x3e29387f	0.16525458
147	0xbdb0d314	-0.0863401
148	0x3cdb4482	0.026766066
149	0xbccefb9f	-0.025266467
150	0xbdfca231	-0.12335623
151	0xbd0f4cee	-0.034985475
152	0xbec6f494	-0.38858473
153	0x3ca341b2	0.019928787
154	0x3d2350f4	0.039872125
155	0xbd7ca782	-0.061683185
156	0x3d57de1e	0.05270206
157	0x3f229337	0.6350588
158	0x3df12488	0.11774546
159	0x3d2839f0	0.04107088
160	0xbe528a22	-0.20560506
161	0xbd72ab98	-0.059245676
162	0x3e484931	0.1955917
163	0x3d1326aa	0.035925545
164	0x3e70c4d8	0.2351259
165	0x3e693d23	0.22777228
166	0x3e79c466	0.24391326
167	0x3ca0ebdb	0.019643715
168	0xbde03f12	-0.1094953
169	0xbc0e9aa4	-0.008703861
170	0x3dd65a0e	0.10466395
171	0xbdf47003	-0.11935427
172	0x3d0168c7	0.031594064
173	0x3f37a5e1	0.71737486
174	0xbe85b6ca	-0.2611602
175	0x3ddc0c76	0.10744564
176	0xbdb1cac7	-0.08681255
177	0xbd153e50	-0.03643638
178	0x3e6da732	0.23208311
179	0xbe3df158	-0.18549097
180	0xbcb0a8d6	-0.021564882
181	0x3e8ab698	0.27092433
182	0x3dfac2d5	0.122441925
183	0xbec47603	-0.38371286
184	0x3d927dec	0.07152924
185	0xbd2efbde	-0.042720668
186	0x3b96bd00	0.0046001673
187	0xbd0aaad4	-0.03385432
188	0xbcb93528	-0.022608355
189	0xbfcf5381	-1.6197358
190	0xbd9c3f78	-0.07629293
191	0xbdaed93d	-0.08537529
192	0x3b1ebd71	0.0024221803
193	0xbd580d25	-0.05274691
194	0xbdd5b3a2	-0.10434653
195	0xbe787169	-0.24262013
196	0xbd96b9a8	-0.0735963
197	0x3eda4178	0.42628074
198	0x3d880f35	0.066435255
199	0x3ec7c30f	0.39016005
200	0xbea4d672	-0.3219486
201	0xbe305693	-0.17220525
202	0xbd3968ba	-0.04526589
203	0x3e2fd2b9	0.17170228
204	0xbc4bd573	-0.012441027
205	0xbe686aad	-0.22696944
206	0xbe02b983	-0.1276608
207	0xbe238671	-0.15969254
208	0x3dd77095	0.1051952
209	0xbe390943	-0.1806994
210	0x3ddb8b53	0.10719933
211	0xbdf9fb07	-0.12206083
212	0xbee11cf4	-0.43967402
213	0xbd26c40d	-0.040714312
214	0xbd7e56e6	-0.06209459
215	0xbde92160	-0.11383319
216	0x3cd40fef	0.025886504
217	0x3b720134	0.0036926987
218	0xbdd587b6	-0.104262754
219	0xbd7a8e56	-0.0611709
220	0xbc8e2dae	-0.017355766
221	0x3eca9222	0.39564615
222	0x3e4bd164	0.19904095
223	0x3e908ed5	0.28233972
224	0x3c87a4c5	0.01655806
225	0xbd2965b8	-0.041356772
226	0xbcf0da73	-0.02940104
227	0xbe9209f1	-0.2852321
228	0xbd8481aa	-0.06470044
229	0x3d11c129	0.035584603
230	0xbe8b61ce	-0.27223057
231	0xbe55607d	-0.20837589
232	0x3c1720b0	0.009224102
233	0x3d37e8c4	0.044899717
234	0xbe088001	-0.1333008
235	0x3da2a4ab	0.07941564
236	0x3d64fecd	0.05590706
237	0xbfc1e627	-1.5148362
238	0xbe3f7cab	-0.18699901
239	0xbdf31a72	-0.118702784
240	0xbe4cb664	-0.19991452
241	0x3e2bcea8	0.16778052
242	0x3e600f9c	0.21880955
243	0xbe854c9e	-0.26035017
244	0x3d6b931c	0.05751334
245	0x3d996d8a	0.07491596
246	0x3dddf339	0.10837407
247	0x3e16c65f	0.1472411
248	0x3db8b3aa	0.09018643
249	0x3da0d9eb	0.078540646
250	0x3d13a090	0.036041796
251	0xbbfb4ff9	-0.0076694456
252	0x3cae17d4	0.021251597
253	0xbfa8b400	-1.3179932
254	0xbdf783d4	-0.12085691
255	0xbdbd3d96	-0.09240262

layers.0.bias f4 [128]
0	0xb8ecf39e	-0.00011298734
1	0x37c8fd23	2.3959734e-05
2	0x38f87762	0.00011847798
3	0x38cbde27	9.7211734e-05
4	0xb9a6b6c9	-0.00031798173
5	0x3a32994b	0.00068130036
6	0xb9142bfa	-0.00014130762
7	0xb80c3fa5	-3.3437875e-05
8	0x398cea59	0.00026877483
9	0xb96cb798	-0.00022575108
10	0x382085b4	3.8271493e-05
11	0x37b1c606	2.1192256e-05
12	0x38a35449	7.788145e-05
13	0xb93abcce	-0.00017808678
14	0x3986cecb	0.00025712544
15	0xb883e996	-6.2900755e-05
16	0x38c6684a	9.460801e-05
17	0xb898d4b4	-7.287544e-05
18	0x3863a77c	5.4277e-05
19	0x3816b441	3.593066e-05
20	0x377304ff	1.4485092e-05
21	0x38ba1e01	8.87476e-05
22	0xb9329846	-0.00017032129
23	0xb6bf7a28	-5.7064644e-06
24	0x38c663ed	9.459988e-05
25	0x368e6df8	4.244732e-06
26	0x372b3a60	1.0205986e-05
27	0x39c987b2	0.00038438808
28	0x392b4298	0.00016332639
29	0xba0fa8ec	-0.00054801884
30	0x38f044ca	0.00011456905
31	0x393760bc	0.00017488276
32	0xb7d16097	-2.495972e-05
33	0xb8c63ed1	-9.453076e-05
34	0xb664daa0	-3.4101904e-06
35	0x390958d4	0.00013098429
36	0xb69eddb8	-4.7345784e-06
37	0x37fe988e	3.0350198e-05
38	0x38e60b5b	0.0001096937
39	0xb807c714	-3.2371914e-05
40	0x37726531	1.44478845e-05
41	0xb6b0c30f	-5.2679165e-06
42	0x37bdb1b4	2.2613305e-05
43	0x37faa43a	2.9878796e-05
44	0xb8c7f5ca	-9.534841e-05
45	0xb82ea10c	-4.163482e-05
46	0xb820cb64	-3.8336395e-05
47	0x39212711	0.0001536871
48	0xb7c033b7	-2.2912265e-05
49	0xb8c42e84	-9.3546725e-05
50	0xb79fdabb	-1.9056131e-05
51	0xb9028c3d	-0.00012450009
52	0x38b36edb	8.5560336e-05
53	0x3820d58c	3.8345854e-05
54	0x39650862	0.00021842265
55	0x38410ee6	4.602866e-05
56	0x3762888c	1.3502442e-05
57	0xb901fb7a	-0.00012396081
58	0x385ba70c	5.2369243e-05
59	0x38ea8136	0.00011182057
60	0x3972d3c5	0.00023157809
61	0x36ce5976	6.149693e-06
62	0xb84455e7	-4.6810044e-05
63	0xb8a51a58	-7.87272e-05
64	0xb9566648	-0.00020446733
65	0x3822b23b	3.87898e-05
66	0xb7a161e9	-1.9238289e-05
67	0x3943f5c7	0.00018688208
68	0x39667241	0.00021977072
69	0x3786d43a	1.607287e-05
70	0x3825dcae	3.954459e-05
71	0x39d2e9c0	0.0004022848
72	0xba93d3c2	-0.0011278319
73	0x37b2597c	2.1260923e-05
74	0x3813f667	3.527701e-05
75	0xb9079ca9	-0.00012932964
76	0xb8aee929	-8.340396e-05
77	0xb81b174e	-3.6976584e-05
78	0x385cd2cf	5.264842e-05
79	0x39d2c5e7	0.0004020177
80	0xb8e3be60	-0.000108596636
81	0xb9051abd	-0.00012693829
82	0xb822d08f	-3.8818045e-05
83	0xb7da125c	-2.5996174e-05
84	0xb894a7dc	-7.088456e-05
85	0x3980b691	0.00024550085
86	0xb85e0a26	-5.2938376e-05
87	0xb6535ab0	-3.1494237e-06
88	0xb725f3b0	-9.891504e-06
89	0x3a25a85c	0.0006319338
90	0x3911943f	0.00013883504
91	0x3910d7cc	0.00013813301
92	0x38917604	6.936121e-05
93	0x39121bb1	0.00013933961
94	0x38db2d68	0.00010451191
95	0xb608f180	-2.040615e-06
96	0x39607182	0.0002140459
97	0x369d15e9	4.6815153e-06
98	0x3a295f54	0.00064610434
99	0x3786692f	1.6023025e-05
100	0x38ebb5cd	0.00011239536
101	0x38c3f26e	9.3434806e-05
102	0xb8ef101f	-0.00011399411
103	0x380e19a6	3.3879325e-05
104	0xb94418b2	-0.00018701216
105	0xb7a1993f	-1.9264056e-05
106	0xb7942763	-1.7661316e-05
107	0xb8bf3dbe	-9.11909e-05
108	0x3952cd46	0.00020103631
109	0x36b90f20	5.5151904e-06
110	0x38618d41	5.3775733e-05
111	0xb8cfca2a	-9.908185e-05
112	0x38f6da4c	0.00011770855
113	0x397e082e	0.00024226375
114	0xb68967dd	-4.0950094e-06
115	0xb8c069c3	-9.174973e-05
116	0x38b036f0	8.402567e-05
117	0x3986ae3f	0.00025688295
118	0x36d87aec	6.4516116e-06
119	0x3a5b1bbd	0.00083583203
120	0xb847ec20	-4.7665206e-05
121	0x35d0caa0	1.5556179e-06
122	0xb964a460	-0.00021805009
123	0xb7d13103	-2.4937564e-05
124	0xb784abce	-1.5815629e-05
125	0x39a7fa21	0.00032039083
126	0xb7aebdbc	-2.0830768e-05
127	0xb806f80f	-3.2179112e-05

layers.1.weight f4 [64, 128]
0	0xbe928ebb	-0.2862452
1	0x3d3ef517	0.046620455
2	0x3d88572c	0.06657252
3	0x3e84793b	0.25873742
4	0x3d246ad9	0.04014096
5	0x3d264b2d	0.040599037
6	0xbdbb3003	-0.09140017
7	0x3b9d0efd	0.0047930465
8	0xbdb01e1e	-0.085994944
9	0x3d37d858	0.044884056
10	0xbc506a43	-0.012720647
11	0xbf0da617	-0.5533156
12	0xbbe889ff	-0.0070965285
13	0xbd77c39d	-0.060489286
14	0x3d97bbfe	0.074089035
15	0x3dd8fbb5	0.10594884
16	0xbd5d3631	-0.05400676
17	0x3cdd84d6	0.02704088
18	0x3de015c8	0.109416544
19	0x3dda061a	0.10645695
20	0xbb35f6e9	-0.0027765578
21	0xbe61bb2d	-0.22044058
22	0xbee3054b	-0.44339976
23	0xbd377873	-0.044792604
24	0xbe070c35	-0.1318825
25	0xbd1905ee	-0.03735917
26	0x3cf7fd54	0.030272163
27	0x3c38b9f7	0.011274806
28	0xbc2532bf	-0.0100829
29	0x3d11562a	0.035482563
30	0x3e25bd78	0.16185558
31	0x3d933a90	0.07188904
32	0x3c2a01e0	0.010376424
33	0xbf2935a1	-0.66097456
34	0x3c81f9ec	0.015866242
35	0xbc541282	-0.012943866
36	0xbdaa7511	-0.0832311
37	0xbd804fac	-0.06265196
38	0xbd802451	-0.06256927
39	0x3e1343bb	0.14381306
40	0xbdb2f117	-0.087373905
41	0x3c915371	0.017739983
42	0xbe2598df	-0.16171597
43	0x3d90342d	0.07041202
44	0x3c09571f	0.008382588
45	0x3dbdd772	0.092696086
46	0xbb67bbf3	-0.003535983
47	0x3e26118d	0.16217633
48	0x3d8def5f	0.06930422
49	0x3cbb9f47	0.022903098
50	0xbd9d1d36	-0.07671587
51	0x3b08ca4d	0.0020872534
52	0xbea3408a	-0.31885177
53	0xbdcd57cd	-0.10026512
54	0xbe2601d4	-0.16211635
55	0x3d9ed564	0.07755545
56	0xbef2d8be	-0.47430986
57	0xbcbb9b80	-0.022901297
58	0x3befb944	0.0073157866
59	0x3d0c96fd	0.03432368
60	0x3d14de38	0.036344737
61	0xbeb67425	-0.35635486
62	0x3e1b5e91	0.15172793
63	0xbe3f1fbc	-0.1866445
64	0x3d41d5cf	0.047323044
65	0x3dde44fc	0.108530015
66	0xbb5fb52c	-0.0034135086
67	0xbe9260f1	-0.28589585
68	0xbbf332cb	-0.0074218265
69	0x3d919f5f	0.07110476
70	0xbd5fc638	-0.054632396
71	0xbb941338	-0.0045188926
72	0xbd2fad2b	-0.042889755
73	0xbda2bf52	-0.07946648
74	0x3e07eb07	0.1327325
75	0x3dc8e542	0.098093525
76	0x3e45b68c	0.19307917
77	0x3d009506	0.03139212
78	0x3c291b0b	0.010321389
79	0xbcfe1534	-0.03101597
80	0xbdbf0585	-0.09327225
81	0xbe8ac749	-0.27105168
82	0x3da48db3	0.080348395
83	0x3c584c96	0.013201853
84	0xbd207bc2	-0.039180525
85	0x3c4298f5	0.011877288
86	0x3c0e6c04	0.008692745
87	0xbd569c86	-0.052395366
88	0x3d6fea7f	0.058573242
89	0xbd2cd6ef	-0.042197164
90	0xbf304589	-0.688561
91	0x3ddd1bcb	0.10796317
92	0xbf0fa125	-0.5610526
93	0xbaa93a46	-0.0012911044
94	0xbda9888d	-0.08277998
95	0xbf11d144	-0.5695994
96	0xbf0c5f2e	-0.5483273
97	0xbde857ef	-0.11344897
98	0x3c239454	0.009984095
99	0x3d286ac2	0.041117437
100	0xbf1ee928	-0.6207452
101	0x3d0b24ef	0.03397077
102	0xbd205218	-0.03914079
103	0x3d8dca85	0.06923393
104	0x3c1afebf	0.00946015
105	0xbf222a87	-0.6334614
106	0xbdfd4161	-0.12365986
107	0xbe2206dc	-0.15822929
108	0xbd9e76af	-0.07737481
109	0x3d0cc26a	0.034365095
110	0xbb9aec6c	-0.0047278907
111	0xbcf1a22d	-0.029496277
112	0xbf0eaf35	-0.55736095
113	0xbc9cf522	-0.019159857
114	0x3dd60aad	0.10451255
115	0xbe094a29	-0.13407196
116	0xbe456220	-0.19275713
117	0x3c0ba654	0.008523542
118	0xbde21d7f	-0.11040782
119	0x3e719554	0.2359212
120	0xbd2188cb	-0.039437097
121	0xbedcb7dc	-0.43109024
122	0xbe5472b7	-0.20746885
123	0x3d72d9ae	0.059289627
124	0xbd84a944	-0.06477597
125	0x3d828485	0.06372932
126	0x3e3573f1	0.1772001
127	0xbc9727ad	-0.018451536
128	0xbb641532	-0.0034802672
129	0xbe730b9f	-0.23734902
130	0x3d07fee9	0.033202086
131	0xbd375835	-0.044761855
132	0x3ea2bb13	0.3178335
133	0xbcba9ae9	-0.022778945
134	0x3e3700f0	0.17871451
135	0xbef7d28e	-0.48402828
136	0xbc93c34f	-0.018037466
137	0xbc90fd59	-0.01769893
138	0x3e6d9802	0.23202518
139	0xbcd4299a	-0.025898743
140	0x3d05f57d	0.03270482
141	0xbcb07aae	-0.021542873
142	0x3dc82fba	0.09774728
143	0xbe6e1fb8	-0.23254287
144	0x3e4bd7e3	0.19906573
145	0x3ec9180e	0.39276165
146	0x3c69bdd1	0.014266447
147	0x3df05f43	0.1173692
148	0xbda09f39	-0.07842869
149	0xbda311d2	-0.07962383
150	0xbdd579fc	-0.10423657
151	0x3e7437f1	0.23849465
152	0x3d106eaa	0.035261787
153	0xbdb08f1d	-0.08621047
154	0xbec07d9c	-0.37595832
155	0xbd8427eb	-0.06452926
156	0xbe097ecd	-0.13427277
157	0x3dff8598	0.12476653
158	0xbe7035c7	-0.23458014
159	0x3e35ce65	0.17754515
160	0xbede4463	-0.4341155
161	0x3da3956b	0.079874836
162	0xbedbf2ed	-0.42958775
163	0x3d6fb56b	0.058522623
164	0xbedb49da	-0.42829782
165	0xbe9049dd	-0.28181353
166	0x3d24fee6	0.040282153
167	0xbe9fec00	-0.3123474
168	0x3d83610b	0.06414994
169	0xbb34575d	-0.0027517893
170	0xbe176b0d	-0.1478693
171	0xbebbb482	-0.36661154
172	0x3d0a1ac8	0.033716947
173	0xbd89fe5b	-0.067379676
174	0xbdc995e8	-0.098430455
175	0xbe99e6e1	-0.3005896
176	0xbe72ab0d	-0.23698063
177	0xbe388228	-0.180184
178	0xbdea97ca	-0.11454733
179	0xbe28d1ec	-0.16486329
180	0xbde7c406	-0.113166854
181	0x3dd29dac	0.1028398
182	0xbcf50749	-0.0299107
183	0x3cf225a8	0.029558972
184	0xbdf6ec81	-0.12056828
185	0xbeb98126	-0.36231345
186	0xbe8b4415	-0.2720038
187	0xbd45733c	-0.0482056
188	0x3d998c9c	0.07497522
189	0xbe148d3e	-0.14507005
190	0x3df31df3	0.11870947
191	0xbe2a930f	-0.16657661
192	0xbd8b1277	-0.06790631
193	0xbd1981e2	-0.03747738
194	0xbdd205a5	-0.10254983
195	0x3aaa4c09	0.0012992631
196	0x3c59bc1e	0.01328948
197	0xbd375d1a	-0.044766523
198	0x3d511367	0.051043894
199	0x3c22bbbb	0.009932454
200	0xbdf86479	-0.12128539
201	0xbcd6de5b	-0.026229074
202	0xbed0d325	-0.4078609
203	0xbca0e4c6	-0.019640338
204	0xbd93f574	-0.07224551
205	0xbe780fa4	-0.24224716
206	0x3d139a27	0.036035683
207	0xbe307492	-0.17231968
208	0x3d496ea9	0.0491778
209	0x3c2de00c	0.010612499
210	0xbe40f195	-0.18842156
211	0x3e16604c	0.14685172
212	0x3ebe925f	0.37221047
213	0xbe14c7c0	-0.14529324
214	0x3c41b359	0.011822545
215	0xbe95dea6	-0.2927143
216	0xbe4fef44	-0.20306116
217	0x3d8436ea	0.064557865
218	0x3d081aee	0.033228807
219	0x3da53f41	0.08068705
220	0x3b925b69	0.0044664633
221	0xbe5db921	-0.21652652
222	0x3e30cec3	0.17266373
223	0xbcc233a6	-0.023706269
224	0xbe80454d	-0.25052872
225	0xbdf1873d	-0.11793373
226	0x3df6247d	0.12018678
227	0x3d6f8660	0.05847776
228	0xbdbbab92	-0.09163584
229	0x3db09189	0.08621509
230	0xbec264de	-0.3796758
231	0x3c3ae4a0	0.0114070475
232	0x3e33dd34	0.17564851
233	0xbd18fce4	-0.03735055
234	0xbe0bddfc	-0.13658899
235	0xbdfdd6d8	-0.12394494
236	0x3e0c4a1d	0.13700147
237	0x3d337c8a	0.04381994
238	0x394dc088	0.00019622047
239	0x3ca9df08	0.020736232
240	0xbdf945c9	-0.121715136
241	0xbbd24ccd	-0.006417847
242	0xbe793531	-0.24336697
243	0xbdc45c5e	-0.0958793
244	0xbe495fa5	-0.19665392
245	0x3e0ff278	0.14057338
246	0xbceeed6e	-0.02916595
247	0x3d863ee1	0.06554962
248	0xbe405c3c	-0.18785185
249	0x3de12821	0.10993982
250	0x3db6dcb0	0.089288116
251	0xbe4f3377	-0.20234476
252	0xbcb780de	-0.022400316
253	0xbe0580f2	-0.1303747
254	0x3d385c84	0.045010105
255	0xbe7665e1	-0.24062301

layers.1.bias f4 [64]
0	0xb8278a91	-3.9944953e-05
1	0x36b39efd	5.3531244e-06
2	0xb7ca8635	-2.4142772e-05
3	0xb853c450	-5.048915e-05
4	0xb7bdd494	-2.2629545e-05
5	0x355ed516	8.3011525e-07
6	0xb75a9451	-1.3028345e-05
7	0xb76e3ecc	-1.42005265e-05
8	0xb85cd53e	-5.2650685e-05
9	0x36fca18c	7.528992e-06
10	0xb68d7fa8	-4.2169886e-06
11	0x383ac8d2	4.4532884e-05
12	0xb806fc1a	-3.2182877e-05
13	0xb8041061	-3.1486506e-05
14	0xb7d86e6d	-2.5800628e-05
15	0xb8873d10	-6.4486754e-05
16	0x37be1b7a	2.266256e-05
17	0xb75ea992	-1.3271712e-05
18	0xb83f827e	-4.565948e-05
19	0xb7c81324	-2.3850771e-05
20	0x36dc34a4	6.562639e-06
21	0x36dc58c5	6.566845e-06
22	0xb6e14a31	-6.7141596e-06
23	0xb7de8071	-2.6524272e-05
24	0x37bf459c	2.2801389e-05
25	0x37e99f1a	2.7849852e-05
26	0x37ab6d99	2.0435824e-05
27	0xb6c57a23	-5.885276e-06
28	0x372f99d0	1.0466625e-05
29	0xb7d15382	-2.4953628e-05
30	0xb8667598	-5.494579e-05
31	0x3752bfd0	1.2561635e-05
32	0x37a19a98	1.9264684e-05
33	0x377e19e1	1.5145605e-05
34	0xb56196db	-8.4038555e-07
35	0xb7aa76dc	-2.0320927e-05
36	0xb76f4871	-1.4262377e-05
37	0x36c0cba3	5.7457523e-06
38	0xb76ba6e2	-1.4045947e-05
39	0xb763e973	-1.35846085e-05
40	0xb67f0d0e	-3.800556e-06
41	0x38206976	3.824519e-05
42	0x3823d458	3.905999e-05
43	0x37c67d1d	2.36617e-05
44	0x3751308e	1.2468676e-05
45	0xb5bbc5d8	-1.3990166e-06
46	0xb796a2be	-1.7957176e-05
47	0x388f252d	6.825696e-05
48	0xb8122787	-3.4845925e-05
49	0xb7e5a552	-2.737591e-05
50	0xb7a32850	-1.9449886e-05
51	0xb83f6883	-4.5635283e-05
52	0xb87473d6	-5.8282014e-05
53	0xb4cb7dc0	-3.7903192e-07
54	0x3821144b	3.840429e-05
55	0x3805cd9f	3.190117e-05
56	0x38111606	3.4591205e-05
57	0xb5536b70	-7.875997e-07
58	0x36909316	4.3086575e-06
59	0x38859c25	6.3710184e-05
60	0xb676ff7a	-3.6805563e-06
61	0xb81fa560	-3.806257e-05
62	0x376772b8	1.3795383e-05
63	0x38a074bf	7.65114e-05

layers.2.weight f4 [32, 64]
0	0x3ea3300e	0.318726
1	0xbcde37f2	-0.027126286
2	0x3cf121d2	0.029435072
3	0x3deb80e5	0.11499194
4	0x3df9fa3c	0.122059315
5	0x3d51733b	0.051135283
6	0xbdb37313	-0.08762183
7	0xbca63f37	-0.020293815
8	0xbe910199	-0.2832153
9	0xbdb52d3b	-0.08846518
10	0xbddbabc2	-0.107261196
11	0x3d3826a2	0.044958718
12	0xbdd6a7fc	-0.10481259
13	0xbc763d4d	-0.015029264
14	0x3df5cace	0.120015725
15	0x3d518bc2	0.051158674
16	0x3d87f0f4	0.06637755
17	0xbd5b005a	-0.053467132
18	0x3e97c47e	0.296421
19	0xbb92a9e6	-0.00447582
20	0x3dc729f6	0.097248
21	0xbcb02d7a	-0.02150606
22	0x3e2630c7	0.16229545
23	0x3cd8f89d	0.026485736
24	0x3e1643a6	0.14674243
25	0xbdd569ec	-0.104205936
26	0xbe99e4ef	-0.30057475
27	0x3dd73506	0.1050816
28	0x3e42b271	0.19013382
29	0x3e04660d	0.12929554
30	0x3e46a432	0.19398573
31	0x3e68d9dd	0.22739358
32	0x3c909625	0.01764972
33	0x3e9258cd	0.28583375
34	0xbe9e7e20	-0.309556
35	0x3de494c1	0.11161185
36	0xbc10ccd6	-0.008837899
37	0x3ea452ae	0.3209433
38	0xbef366cf	-0.47539374
39	0x3e43d95a	0.19125882
40	0x3c785406	0.0151567515
41	0x3f455020	0.77075386
42	0xbe71d154	-0.23615009
43	0x3c78335c	0.015148964
44	0xbe056976	-0.13028511
45	0xbe566c63	-0.20939784
46	0xbe3135d1	-0.17305686
47	0xbd9212a4	-0.07132462
48	0x3e54b019	0.20770301
49	0x3e44db28	0.19224226
50	0x3da8498d	0.08217154
51	0x3e14bf89	0.1452619
52	0x3d049291	0.03236634
53	0x3da63f7f	0.0811758
54	0xbd9ebc7d	-0.07750795
55	0xbe077da0	-0.13231516
56	0xbd709150	-0.05873233
57	0x3e558c29	0.20854248
58	0xbcc253f9	-0.023721682
59	0x3e34d2f6	0.176586
60	0xbdfa4d86	-0.12221818
61	0x3d892e50	0.066982865
62	0xbc12a12b	-0.008949558
63	0xbeb19c3a	-0.34689504
64	0xbe41e3c5	-0.18934543
65	0x3e81cfe2	0.25353914
66	0xbd51aec8	-0.051192075
67	0x3d96e7f4	0.0736846
68	0x3ce75f5e	0.028243717
69	0xbe44f68a	-0.19234672
70	0xbc7ff4ed	-0.01562236
71	0xbe481669	-0.19539799
72	0x3e1fc0f5	0.15600951
73	0xbf1cdc36	-0.61273515
74	0x3d9a4261	0.07532192
75	0x3e60621b	0.21912424
76	0xbcb9b67c	-0.022670023
77	0x3eecbc99	0.4623764
78	0xbd849c71	-0.06475151
79	0x3e0e0e63	0.13872676
80	0xbe144736	-0.1448029
81	0xba876113	-0.0010328613
82	0xbe867bdb	-0.2626637
83	0x3db44b85	0.08803467
84	0xbd886800	-0.066604614
85	0x3d33af4b	0.043868344
86	0x3e5629df	0.2091441
87	0xbeb8dac1	-0.36104396
88	0x3da33313	0.07968726
89	0xbe08a8ef	-0.13345693
90	0xbcb3d25b	-0.021950891
91	0x3df6660c	0.12031183
92	0x3edab55a	0.42716485
93	0xbeca2bf6	-0.39486665
94	0xbd954c95	-0.072899975
95	0xbdf72cc6	-0.12069087
96	0x3d7e0e44	0.062025324
97	0xbe8e621c	-0.27809227
98	0x3ae2ad8a	0.001729415
99	0xbe9463f9	-0.28982523
100	0x3da4f2d8	0.08054131
101	0xbde87cd5	-0.11351935
102	0x3d88f7ef	0.066879146
103	0xbe254b3f	-0.16141985
104	0x3d53752d	0.05162542
105	0xbebca66f	-0.3684573
106	0x3d6317b5	0.05544253
107	0xbd13898f	-0.036019858
108	0x3c16d01d	0.0092048915
109	0x3c4a153c	0.012334164
110	0x3ca13978	0.019680724
111	0xbebd188e	-0.36932796
112	0xbc7f5e6c	-0.015586477
113	0xbea0ec83	-0.31430444
114	0x3d899bee	0.06719194
115	0xbd416e57	-0.04722437
116	0xbf067cdd	-0.52534276
117	0xbea87633	-0.3290268
118	0x3d6fc8a6	0.058540963
119	0xbf0d5635	-0.55209666
120	0xbe94d371	-0.29067567
121	0xbf083dfb	-0.53219575
122	0xbd56dbc2	-0.05245567
123	0x3d00833b	0.03137515
124	0xbed34a4e	-0.41267627
125	0xbec07745	-0.37590995
126	0x3dfe2888	0.124100745
127	0x3db3d5a3	0.08780982
128	0xbe95d6bf	-0.292654
129	0x3c9e9ceb	0.019361934
130	0x3d84da98	0.06487006
131	0x3e07b421	0.13252307
132	0x3e7ea0e0	0.24866056
133	0xbd234e40	-0.039869547
134	0x3e04c5d7	0.12966095
135	0xbeb579ba	-0.35444432
136	0x3bb99c4a	0.005664383
137	0xbd161740	-0.036643267
138	0x3eb8b785	0.36077514
139	0x3ec991f8	0.39369178
140	0x3e0f703f	0.14007662
141	0xbe529ef0	-0.20568442
142	0xbe4c6470	-0.19960189
143	0x3e051f18	0.13000143
144	0xbeb292cf	-0.3487763
145	0x3d6c168a	0.057638682
146	0xbd741776	-0.059592687
147	0xbe18b83d	-0.14914031
148	0x3d83aaba	0.06429048
149	0x3e54beb1	0.20775868
150	0xbeac0e93	-0.3360487
151	0xbe6cf240	-0.23139286
152	0xbd5de1f9	-0.054170582
153	0x3e20be23	0.15697531
154	0x3e830de5	0.25596538
155	0x3e33d883	0.17563061
156	0xbe3d092e	-0.18460533
157	0xbd586a61	-0.052835826
158	0x3d915074	0.07095423
159	0xbe030118	-0.12793386
160	0x3cc1e949	0.02367081
161	0xbd971c20	-0.07378411
162	0xbd1b672a	-0.03794018
163	0x3d945016	0.07241838
164	0xbda854f4	-0.082193285
165	0xbe4829ff	-0.1954727
166	0xbdb3c7bf	-0.08778333
167	0xbbe15a77	-0.0068772393
168	0xbe9d3304	-0.30702984
169	0xbe20d6c6	-0.1570693
170	0x3d050543	0.03247572
171	0xbdbe31cc	-0.09286842
172	0xbd30df41	-0.04318166
173	0xbe0436d9	-0.12911548
174	0x3e72b379	0.23701276
175	0xbdc28773	-0.09498491
176	0x3e3fc5a4	0.18727738
177	0xbe15f5ac	-0.14644498
178	0xbdcc5de8	-0.09978849
179	0xbe8e0b23	-0.27742872
180	0xbdb2d66e	-0.087323055
181	0xbea00b27	-0.3125851
182	0x3e8793b6	0.26479882
183	0x3e4a3e01	0.19750215
184	0xbe49bdc2	-0.19701293
185	0xbdd21f08	-0.10259825
186	0xbdb9cba7	-0.09072047
187	0x3ea58bed	0.32333317
188	0x3d8dd4f5	0.06925384
189	0xbe84b6a1	-0.25920585
190	0xbe8f8648	-0.28032136
191	0x3e7af736	0.24508366
192	0x3e34724e	0.17621729
193	0xbe84fa40	-0.25972176
194	0x3cdae151	0.026718767
195	0xbd22dc5a	-0.039760925
196	0xbe9b4b00	-0.30330658
197	0x3d96ea5a	0.07368918
198	0xbe83633a	-0.2566164
199	0xbb24f144	-0.002516822
200	0x3d7c7f54	0.061644867
201	0xbe68a482	-0.22719005
202	0xbea815d4	-0.32829154
203	0xbe02f559	-0.12788905
204	0xbeba7097	-0.36414024
205	0x3e50119f	0.20319222
206	0xbd175e8b	-0.036955398
207	0xbcda0f77	-0.026618702
208	0x3d4a88b9	0.049446795
209	0xbeaa66c7	-0.33281538
210	0xbd17a998	-0.03702697
211	0x3bd03b53	0.0063547282
212	0xbe272eca	-0.16326442
213	0xbe6016b8	-0.21883667
214	0x3c9efe81	0.019408466
215	0xbcbfbc5c	-0.023405246
216	0xbd685fa3	-0.05673183
217	0xbed175a0	-0.40910053
218	0xbe3b782a	-0.18307558
219	0xbe77e92e	-0.24210045
220	0x3e0169b7	0.12637983
221	0x3da50d9a	0.08059235
222	0xbc5c3a58	-0.013441645
223	0x3e3ee1e1	0.18640853
224	0xbe6b9342	-0.23005393
225	0x3d1c6693	0.03818376
226	0xbeddfec4	-0.43358433
227	0xbe8b4967	-0.2720444
228	0x3e4f55b7	0.20247541
229	0x3e865a00	0.2624054
230	0x3db9e844	0.09077504
231	0xbdab3c5b	-0.08361121
232	0x3dc7d0c4	0.09756616
233	0x3eacd770	0.33758116
234	0xbe79006a	-0.24316564
235	0x3e04603f	0.1292734
236	0xbd9878da	-0.074449256
237	0xbdbdaea9	-0.092618294
238	0xbe8a7e0f	-0.270493
239	0xbdb2c5cc	-0.08729133
240	0xbea6271c	-0.32451713
241	0xbb8f85a6	-0.004379946
242	0x3df75796	0.120772526
243	0x3de009d4	0.109393746
244	0x3dbcbf16	0.09216134
245	0xbd911f40	-0.070860386
246	0xbe4ca49a	-0.19984666
247	0xbe573b48	-0.21018708
248	0x3e0c88d3	0.1372407
249	0x3c5454ea	0.012959698
250	0x3eb40e3a	0.35167104
251	0xbed299f5	-0.41133085
252	0xbce0affa	-0.027427662
253	0xbccb708c	-0.02483394
254	0xbc7c0ee5	-0.0153844105
255	0xbe1c98ad	-0.15292616

layers.2.bias f4 [32]
0	0x37b940f8	2.2083972e-05
1	0xb7d9a002	-2.5942925e-05
2	0xb6ccac1b	-6.0997095e-06
3	0x3815c05c	3.5703517e-05
4	0x381ed71b	3.7870468e-05
5	0x374e7e3e	1.230795e-05
6	0xb71beb21	-9.293465e-06
7	0xb6980e59	-4.5316233e-06
8	0x377c2f31	1.5031358e-05
9	0xb8bb0c6e	-8.91917e-05
10	0xb87c5eb8	-6.0169696e-05
11	0x35d55a74	1.5896062e-06
12	0xb71c62a2	-9.321289e-06
13	0xb70f96ae	-8.558547e-06
14	0xb7da5e5f	-2.603157e-05
15	0xb7144d64	-8.839506e-06
16	0x374e5d11	1.23002255e-05
17	0x381c39f0	3.7247257e-05
18	0xb7ae380c	-2.0768515e-05
19	0x356201e0	8.419429e-07
20	0x373c5244	1.1224827e-05
21	0x37e02cc2	2.6723723e-05
22	0x381aa4a4	3.6869795e-05
23	0x3804be23	3.164833e-05
24	0x37a36943	1.948013e-05
25	0x37faf62f	2.991696e-05
26	0xb8ab64e8	-8.172711e-05
27	0xb7904c17	-1.720157e-05
28	0xb709bfc4	-8.210485e-06
29	0xb8e61db8	-0.0001097279
30	0x37e38311	2.7121541e-05
31	0x38cc518f	9.7426695e-05

layers.3.weight f4 [16, 32]
0	0xbc39a716	-0.01133134
1	0x3dbf763a	0.09348722
2	0xbe9a9b03	-0.3019639
3	0x3e81f8df	0.25385186
4	0xbe5fef42	-0.21868613
5	0x3d415266	0.047197722
6	0xbddf678c	-0.10908422
7	0x3e8f1d8b	0.27952227
8	0xbe881e4a	-0.2658561
9	0xbe85878b	-0.26079974
10	0xbe5acd20	-0.21367311
11	0xbe013335	-0.1261719
12	0x3e3c1d1f	0.18370484
13	0x3d787e08	0.060667068
14	0x3e58ea79	0.21183194
15	0xbe2b9928	-0.16757643
16	0xbebfa36f	-0.37429377
17	0xbdea77be	-0.1144862
18	0x3e43ea8c	0.19132441
19	0xbedadb7a	-0.42745572
20	0xbebf274b	-0.37334666
21	0xbd585b8e	-0.05282169
22	0xbde490e3	-0.111604474
23	0x3d543893	0.051811766
24	0xbe19b1d4	-0.15009242
25	0xbd68e8a4	-0.05686249
26	0xbd555842	-0.052086122
27	0xbf0b83de	-0.5449809
28	0x3da28a5d	0.07936547
29	0xbe5ec22f	-0.21753763
30	0xbe91b3cb	-0.28457484
31	0xbf099aca	-0.53751814
32	0xbe8f9708	-0.28044915
33	0x3edd7f71	0.43261293
34	0xbd0d3827	-0.03447738
35	0xbf48a092	-0.7837001
36	0xbd498c71	-0.0492062
37	0xbec9f4ed	-0.39444676
38	0xbe882845	-0.26593223
39	0xbf01c8cf	-0.50697035
40	0x3db968bd	0.0905318
41	0x3db482ca	0.088140085
42	0xbeb97c11	-0.36227468
43	0x3db4331c	0.08798811
44	0xbe906158	-0.28199267
45	0xbdbf7921	-0.093492754
46	0xbeca86d7	-0.39556
47	0xbdf6d302	-0.12051965
48	0xbeb4fbe8	-0.3534844
49	0x3e87668f	0.26445433
50	0x3b321365	0.0027172205
51	0x3e016e5a	0.12639752
52	0x3e5bcdc9	0.2146522
53	0xbddacabb	-0.10683199
54	0xbebc0690	-0.36723757
55	0xbb9f16eb	-0.004855027
56	0x3d844b7e	0.064597115
57	0x3e66c39b	0.22535555
58	0xbe377677	-0.17916285
59	0x3e20b744	0.1569491
60	0xbeb7d69a	-0.35905915
61	0x3da3bfc1	0.079955585
62	0xbe614745	-0.21999843
63	0xbdfd6e55	-0.1237456
64	0xbeab9f51	-0.33519986
65	0x3df89b91	0.12139047
66	0x3dd9d974	0.10637179
67	0xbea39b13	-0.3195425
68	0x3dac1253	0.084019326
69	0xbec7e49d	-0.39041606
70	0xbed0ac71	-0.40756562
71	0xbe0b922a	-0.13629976
72	0xbe664be7	-0.22489892
73	0x3e04980d	0.12948628
74	0xbf022c73	-0.50849074
75	0xbd574b12	-0.052561827
76	0xbeb70460	-0.35745525
77	0xbd400f0d	-0.046889354
78	0xbf178b3e	-0.5919684
79	0xbf057c07	-0.52142376
80	0xbd4fe721	-0.05075753
81	0xbd524773	-0.05133767
82	0x3ea6741b	0.32510456
83	0x3d806b28	0.062704384
84	0xbca2bc3a	-0.019865144
85	0xbe479622	-0.19490865
86	0xbeaf4023	-0.3422862
87	0x3e07125d	0.13190599
88	0xbdcb15da	-0.09916277
89	0x3d327150	0.043565094
90	0xbc3b8193	-0.011444467
91	0x3e07164b	0.13192098
92	0xbea52137	-0.32251903
93	0xbcc01f91	-0.023452552
94	0xbeeedf40	-0.466547
95	0x3e865df6	0.26243562
96	0xbed7c076	-0.42139024
97	0x3e30778e	0.17233106
98	0xbdcd982b	-0.10038789
99	0xbe36bd2e	-0.17845604
100	0x3e054f63	0.13018565
101	0xbed3af47	-0.41344664
102	0xbee07f3a	-0.43847066
103	0xbe7d6b0b	-0.24747865
104	0x3e7581bf	0.23975275
105	0x3eb7d2ef	0.35903117
106	0xbef174ff	-0.47159573
107	0x3dd98d2e	0.10622631
108	0xbe03d036	-0.12872395
109	0xbe93d872	-0.28876072
110	0xbf00a31b	-0.5024888
111	0x3e2749cb	0.16336744
112	0xbe00ed9d	-0.12590642
113	0x3e9db634	0.30803072
114	0xbcd5bad6	-0.026090067
115	0xbd62d73c	-0.055381045
116	0xbd649fae	-0.055816345
117	0xbe8134ac	-0.25235498
118	0xbe0fee5a	-0.14055768
119	0xbc71e3d5	-0.014763792
120	0x3d860b49	0.06545121
121	0x3cf02aa3	0.029317206
122	0xbd94dbb0	-0.072684646
123	0xbbfae4c9	-0.007656668
124	0xbede991d	-0.4347619
125	0xbf13924a	-0.57645094
126	0xbedb4467	-0.42825624
127	0x3e700ad4	0.2344163
128	0x3de2fac6	0.110829875
129	0x3edaba55	0.42720285
130	0xbebdc248	-0.37062287
131	0x3d2d2b0c	0.04227738
132	0xbd32cf8b	-0.04365496
133	0xbe13517d	-0.14386554
134	0x3dac55e4	0.0841482
135	0x3d8e6002	0.06951906
136	0xbf1bdefe	-0.60887134
137	0xbf3c1c61	-0.734808
138	0x3d9207ef	0.071304195
139	0xbc84f7be	-0.016231414
140	0xbd19ddf4	-0.037565187
141	0x3d091cf0	0.033474863
142	0xbe2329ce	-0.15933916
143	0x3d2bc8cc	0.04193954
144	0x3da47c62	0.08031537
145	0x3d0ce208	0.034395248
146	0x3e1074eb	0.141071
147	0xbe811e9e	-0.25218672
148	0xbec45cab	-0.3835195
149	0x3d0c1332	0.034197994
150	0x3d9e63b7	0.07733863
151	0x3e88d215	0.2672278
152	0xbef38fee	-0.47570747
153	0xbf17780c	-0.5916755
154	0xbdc4ff0e	-0.0961896
155	0xbebc9347	-0.36831114
156	0xbca54b12	-0.020177398
157	0x3dd0983c	0.101852864
158	0x3e3590fa	0.17731085
159	0x3df5f739	0.120100446
160	0xbd195eda	-0.037443973
161	0x3ea2a7e1	0.31768706
162	0xbc60e2c6	-0.013725942
163	0xbe634f54	-0.2219823
164	0x3cee5582	0.029093508
165	0xbe53a1a7	-0.20667134
166	0xbed549ee	-0.41657966
167	0xbdb889c7	-0.09010654
168	0x3db08e52	0.086208954
169	0x3d83deae	0.06438957
170	0xbe82a672	-0.25517613
171	0xbd28254d	-0.041051198
172	0xbec23b6c	-0.3793596
173	0xbf0e04ee	-0.5547627
174	0xbe81721e	-0.25282377
175	0xbcad5ee3	-0.02116341
176	0xbec72d67	-0.38901827
177	0x3ec39af3	0.38204154
178	0xbd33a6ee	-0.04386037
179	0x3e305842	0.17221168
180	0x3e945bfd	0.2897643
181	0x3dfafa7a	0.12254806
182	0xbec9d662	-0.39421374
183	0x3e9597f8	0.29217505
184	0x3e811a0b	0.25215182
185	0xbdcf24c0	-0.101144314
186	0xbe68e521	-0.22743656
187	0x3e212b43	0.1573916
188	0xbeb0f9f2	-0.34565693
189	0xbedc3a55	-0.43013254
190	0xbeae0c81	-0.33993915
191	0x3e17415a	0.14771023
192	0x3e9be5b6	0.30448693
193	0xbdcb61d0	-0.09930766
194	0xbe601d2f	-0.21886133
195	0x3d5c6e03	0.053815853
196	0xbae70523	-0.0017625432
197	0x3eb3af2f	0.35094592
198	0x3de0a3c0	0.10968733
199	0x3dc0241a	0.09381886
200	0xbee49c22	-0.4465037
201	0xbef58d70	-0.4795947
202	0xbd9b1332	-0.075720206
203	0x3cab96aa	0.020945866
204	0xbd8e5aa6	-0.069508836
205	0x3d91e96f	0.07124602
206	0x3e7fedb3	0.24993019
207	0x3dff46f8	0.12464708
208	0xbeb1228d	-0.34596673
209	0xbe002d46	-0.1251727
210	0x3e0e7e89	0.13915457
211	0xbe0c47c9	-0.13699259
212	0xbc691e0a	-0.014228353
213	0xbe91977c	-0.28435886
214	0xbe8ef9ce	-0.2792496
215	0xbddd2845	-0.107986964
216	0xbeed066d	-0.46293965
217	0xbe2a4931	-0.16629483
218	0x3e800537	0.2500398
219	0xbc9ab753	-0.018886244
220	0x3d31b066	0.043381117
221	0xbec83636	-0.3910386
222	0x3d60e053	0.054901432
223	0x3ccdc386	0.025117647
224	0xbe0e9f2a	-0.13927904
225	0x3e8ecb4b	0.27889475
226	0xbf06f987	-0.527245
227	0x3d4bf69c	0.049795732
228	0xbe198bfd	-0.14994808
229	0x3c2e361a	0.010633016
230	0x3d26d6c9	0.04073218
231	0x3d805e8f	0.062680356
232	0xbf12841e	-0.57232845
233	0xbf0b72ec	-0.5447223
234	0xbdb5b857	-0.08873051
235	0x3deadd75	0.11468021
236	0x3d328ae4	0.043589488
237	0xbe126177	-0.14294992
238	0x3dafd39c	0.08585283
239	0x3d0a78a8	0.033806473
240	0x3d860e05	0.06545643
241	0x3dc4d163	0.0961025
242	0x3e27a74e	0.16372415
243	0xbed026d1	-0.40654615
244	0xbe9d7caf	-0.3075919
245	0xbe3ea9d2	-0.18619469
246	0x3d780172	0.060548253
247	0x3c816ba3	0.015798395
248	0xbea23c60	-0.31686687
249	0xbea5b7b1	-0.32366708
250	0xbca49a3e	-0.02009308
251	0xbe2d3f59	-0.16918696
252	0xbe0bd24d	-0.13654442
253	0xbe1517a6	-0.14559802
254	0x3e806020	0.25073338
255	0x3e1868d1	0.14883734

layers.3.bias f4 [16]
0	0xb816d76e	-3.596342e-05
1	0x3851ec52	5.0049573e-05
2	0x3817488e	3.6068777e-05
3	0x38db83f0	0.00010467309
4	0x380dc1a5	3.3797365e-05
5	0x3785becb	1.594368e-05
6	0xb68bd398	-4.1671556e-06
7	0x37a5367d	1.9694906e-05
8	0x382287d6	3.8750317e-05
9	0x36f7bbd8	7.3830415e-06
10	0x38896b6a	6.5526765e-05
11	0xb8a2ab4e	-7.75667e-05
12	0xb80ce648	-3.3593067e-05
13	0xb75d82e0	-1.3203098e-05
14	0x38d1f603	0.0001001172
15	0xb69728c8	-4.5048982e-06

layers.4.weight f4 [1, 16]
0	0xbe115db5	-0.14195903
1	0x3e1cd347	0.15314971
2	0x3e6e8f7b	0.23296921
3	0x3e232cfd	0.1593513
4	0xbe450739	-0.19241036
5	0x3e1935b6	0.14961895
6	0xbdd50825	-0.10401944
7	0xbe1b467c	-0.15163606
8	0xbe03f33c	-0.12885755
9	0x3e833d85	0.25632873
10	0xbdf2ff75	-0.11865131
11	0xbdf15dd5	-0.11785475
12	0xbe047029	-0.1293341
13	0x3e12175a	0.1426672
14	0x3e37ede7	0.17961846
15	0xbe3f957c	-0.18709368

normalizations.0.weight f4 [128]
0	0x3f54015d	0.8281458
1	0x3f50ee32	0.8161346
2	0x3f720772	0.9454261
3	0x3f526fce	0.8220185
4	0x3f74a776	0.95568025
5	0x3f704363	0.93852824
6	0x3f587745	0.8455699
7	0x3f6b65e8	0.9195237
8	0x3f684f90	0.907464
9	0x3f1ee439	0.6206699
10	0x3f390f1d	0.72288686
11	0x3f64932c	0.89287066
12	0x3f584272	0.8447639
13	0x3f6322d4	0.8872502
14	0x3f8323dc	1.0245318
15	0x3f58eea0	0.8473911
16	0x3f70b138	0.94020414
17	0x3f723839	0.9461704
18	0x3f3c8be3	0.7365095
19	0x3f65ff93	0.898431
20	0x3f333702	0.7000581
21	0x3f4e9b36	0.80705583
22	0x3f6760df	0.9038219
23	0x3f83f81b	1.0310091
24	0x3f4aa392	0.7915584
25	0x3f6427ce	0.8912324
26	0x3f4e7886	0.80652654
27	0x3f84254a	1.032388
28	0x3f3b87b3	0.73253936
29	0x3f77ce12	0.96798813
30	0x3f58b92f	0.8465757
31	0x3f604f20	0.87620735
32	0x3f5239f4	0.8211968
33	0x3f7e9d3d	0.99458677
34	0x3f5c2b42	0.86003506
35	0x3f413ddf	0.7548503
36	0x3f49681f	0.786745
37	0x3f43b1f1	0.7644339
38	0x3f7616da	0.9612862
39	0x3f73baca	0.9520689
40	0x3f38e571	0.722251
41	0x3f212b88	0.6295705
42	0x3f7ef414	0.99591184
43	0x3f446b48	0.767262
44	0x3f626260	0.8843136
45	0x3f52b9d3	0.82314795
46	0x3f83839e	1.0274541
47	0x3f8d72a8	1.1050615
48	0x3f535a05	0.82559234
49	0x3f411f45	0.7543834
50	0x3f4ca9fa	0.79946864
51	0x3f5931cf	0.84841627
52	0x3f711ce0	0.94184685
53	0x3f4fb31e	0.81132686
54	0x3f711ccb	0.9418456
55	0x3f46f165	0.7771209
56	0x3f76495d	0.96205693
57	0x3f723bd1	0.9462252
58	0x3f684198	0.9072509
59	0x3f5609d8	0.8360877
60	0x3f48907e	0.7834548
61	0x3f5bf01f	0.8591327
62	0x3f492411	0.7857066
63	0x3f5ce4f9	0.86286885
64	0x3f8c39d1	1.0955144
65	0x3f3f5fdb	0.7475564
66	0x3f107e64	0.56442857
67	0x3f5f62f4	0.87260365
68	0x3f47ee14	0.78097653
69	0x3f4aca73	0.79215163
70	0x3f5d32ff	0.8640594
71	0x3fadafac	1.3569236
72	0x3f8d3bd1	1.103388
73	0x3f4328a6	0.762339
74	0x3f34d69a	0.70639956
75	0x3f525c33	0.82171935
76	0x3f683b5a	0.90715563
77	0x3f58e8ce	0.8473023
78	0x3f8bf091	1.093279
79	0x3f6f9a1e	0.9359454
80	0x3f75869f	0.9590854
81	0x3f64c9a8	0.89370203
82	0x3f67bf4b	0.90526265
83	0x3f3be29f	0.7339267
84	0x3f90cc71	1.131239
85	0x3f796c17	0.97430557
86	0x3f55d920	0.8353443
87	0x3f57ebe2	0.84344304
88	0x3f447dea	0.7675463
89	0x3f9bd47a	1.2174218
90	0x3f75fdc4	0.9609034
91	0x3f52416b	0.8213107
92	0x3f74820b	0.9551093
93	0x3f9821c5	1.1885306
94	0x3f74ef6e	0.9567784
95	0x3f71a724	0.9439566
96	0x3f671444	0.902653
97	0x3f4ddfb2	0.80419457
98	0x3f9919a0	1.1960945
99	0x3f445672	0.76694405
100	0x3f66ef75	0.9020913
101	0x3f5ab7fd	0.85436994
102	0x3f4d1a3b	0.8011815
103	0x3f6ebdbd	0.9325827
104	0x3f555936	0.8333925
105	0x3f6ac652	0.9170886
106	0x3f4e07fd	0.8048094
107	0x3f65f085	0.8982013
108	0x3f763bd1	0.9618502
109	0x3f68933b	0.90849656
110	0x3f1f7fa9	0.6230417
111	0x3f454dcd	0.7707184
112	0x3f6561d1	0.8960238
113	0x3f9ea207	1.2393197
114	0x3f33ea04	0.70278955
115	0x3f47ed19	0.7809616
116	0x3f6f2729	0.9341913
117	0x3f9177ca	1.1364682
118	0x3f4a39a0	0.7899418
119	0x3f8132bf	1.0093611
120	0x3f6f3157	0.9343466
121	0x3f68f2b8	0.9099536
122	0x3f6691a7	0.90066
123	0x3f472216	0.77786386
124	0x3f09cee8	0.5383134
125	0x3f6e7ed8	0.931623
126	0x3f8dace0	1.1068382
127	0x3f62d4a4	0.88605714

normalizations.0.bias f4 [128]
0	0xbe664313	-0.22486524
1	0xbd7b81e5	-0.061403174
2	0xbee0ea8e	-0.4392895
3	0xbea9fb29	-0.33199432
4	0xbb5ec409	-0.0033991358
5	0x3f121215	0.5705884
6	0xbeee0919	-0.46491316
7	0xbe078777	-0.1323527
8	0xbded7b81	-0.11595822
9	0xbe2d9b3a	-0.16953745
10	0xbe9e2e38	-0.30894637
11	0xbf0f4c94	-0.55976224
12	0xbf0de012	-0.5542003
13	0xbed94a2b	-0.42439398
14	0xbed02fec	-0.4066156
15	0xbea7d6a2	-0.3278094
16	0xbdb8d73e	-0.09025429
17	0xbe899a4a	-0.26875526
18	0xbf01aae7	-0.506514
19	0xbec767e5	-0.38946453
20	0xbb16eeda	-0.002303055
21	0xbeac5c47	-0.33664152
22	0xbeee2697	-0.46513817
23	0xbed496a7	-0.4152119
24	0xbee1bbcf	-0.440886
25	0xbea5bdbf	-0.32371327
26	0xbe9a3d1f	-0.30124757
27	0xbe2b2c24	-0.16716057
28	0xbe1c40de	-0.1525912
29	0xbece0f82	-0.40246207
30	0xbe073b56	-0.13206229
31	0xbf2d3ed7	-0.6767401
32	0xbee87259	-0.4539974
33	0xbe8b8f49	-0.27257755
34	0xbed2a7c1	-0.4114361
35	0xbdc97c37	-0.09838145
36	0xbe66d97c	-0.22543901
37	0xbeeb1a53	-0.4591852
38	0xbef84db1	-0.48496774
39	0xbdbefc82	-0.09325506
40	0xbdf81884	-0.12114051
41	0xbdde6c33	-0.10860481
42	0xbe9330d1	-0.2874818
43	0xbecc96c3	-0.39958772
44	0xbebafede	-0.36522573
45	0xbe19dc7a	-0.15025511
46	0x3a0ddb87	0.0005411435
47	0xbe08b838	-0.13351524
48	0xbefbcb9b	-0.49178776
49	0xbd831309	-0.06400115
50	0x3e29a01e	0.16564986
51	0xbe911a7b	-0.28340515
52	0xbea5e221	-0.32399085
53	0xbe4817a1	-0.19540264
54	0xbeef560f	-0.46745345
55	0xbe1bf5b6	-0.1523045
56	0xbec5beb3	-0.38622054
57	0xbeacaab8	-0.33723998
58	0xbf06e0ff	-0.52687067
59	0xbd747c67	-0.05968895
60	0xbd956a75	-0.07295696
61	0xbed5e235	-0.41774145
62	0xbe660b90	-0.22465348
63	0xbee9f490	-0.456944
64	0xbdf07e44	-0.11742833
65	0x3e0813d6	0.13288817
66	0xbd056bd9	-0.032573555
67	0xbed69251	-0.41908506
68	0xbf00c91b	-0.5030686
69	0xbe15587f	-0.1458454
70	0x3dcaa810	0.09895337
71	0x3edf23ea	0.43582088
72	0x3deca4f1	0.115548976
73	0xbec38506	-0.38187426
74	0x3df98145	0.12182859
75	0xbee86b11	-0.45394185
76	0xbf1820b2	-0.5942489
77	0xbd64423d	-0.055727232
78	0x3ea54738	0.32280898
79	0xbf16862c	-0.5879848
80	0xbe58cf13	-0.21172743
81	0xbe5589ca	-0.20853344
82	0x3e3604f6	0.1777533
83	0xbe2a40b8	-0.1662625
84	0xbe8da87d	-0.2766761
85	0xbe1fce79	-0.15606107
86	0xbe8546ec	-0.26030672
87	0xbec0323f	-0.37538335
88	0xbd6182c4	-0.05505635
89	0x3ed4146c	0.4142183
90	0xbe444d78	-0.19170177
91	0xbbe97bdd	-0.0071253614
92	0xbe51f45d	-0.20503373
93	0xbe8782b4	-0.26466906
94	0xbcb170ac	-0.021660171
95	0xbf1cd504	-0.61262536
96	0xbf083f5a	-0.53221667
97	0xbdd31f4c	-0.10308704
98	0xbea34237	-0.31886455
99	0xbf0dc3d1	-0.5537692
100	0xbf178d03	-0.5919954
101	0xbe4eb9fb	-0.20188133
102	0xbeaf564c	-0.34245527
103	0xbe6a4fef	-0.22882055
104	0xbf041514	-0.5159466
105	0xbdeec3a4	-0.11658409
106	0xbe1d9db1	-0.15392186
107	0xbe8fcd74	-0.28086436
108	0xbddd4acd	-0.10805283
109	0xbf17758e	-0.5916375
110	0xbdb74d5f	-0.08950304
111	0xbf1257bf	-0.5716514
112	0xbf14c7c5	-0.58117324
113	0x3ec6f0ab	0.3885549
114	0xbebb7fac	-0.36620843
115	0xbf000cad	-0.5001934
116	0xbebf283c	-0.37335384
117	0xbdcd165c	-0.1001403
118	0xbf2391f6	-0.63894594
119	0xbf119aba	-0.5687672
120	0xbdbe7e79	-0.093014665
121	0xbe8b760d	-0.27238503
122	0xbe915fe7	-0.2839348
123	0xbe257cfc	-0.16160959
124	0xbcd30038	-0.02575694
125	0x3d51259a	0.05106125
126	0xbed40a6a	-0.41414195
127	0xbf1dc58c	-0.6162956

normalizations.0.running_mean f4 [128]
0	0xbbbfc12a	-0.0058518844
1	0xbc571f62	-0.013130041
2	0x3b2d7021	0.002646454
3	0xbb968fd9	-0.0045947847
4	0xbbaf2536	-0.005345012
5	0x3ad1dea0	0.0016011782
6	0xbbe55eb4	-0.006999815
7	0xbc5986c4	-0.01327676
8	0xbbeae9d3	-0.0071689873
9	0x3ac4f1e6	0.0015025705
10	0xbb6fb9c8	-0.003657924
11	0xbb86c17e	-0.0041124215
12	0xbac25392	-0.0014825931
13	0xbaa1a74a	-0.0012333181
14	0xbc07c582	-0.008286836
15	0xbc2bd11b	-0.010486866
16	0xbc227c16	-0.00991728
17	0xbb2c3e11	-0.0026282112
18	0x3c6bf2bc	0.014401134
19	0xbb9b91be	-0.0047475984
20	0xbbb6fad7	-0.0055841017
21	0x3ba44028	0.005012531
22	0xba5b31c8	-0.0008361605
23	0xbc10ef6e	-0.008846147
24	0x3ab208a0	0.0013582893
25	0xbc0f05ce	-0.008729411
26	0x3b92993a	0.0044738324
27	0x3aafaebd	0.0013403516
28	0x3a90a2f6	0.0011034894
29	0xbc159e77	-0.009132019
30	0xbae2ef38	-0.0017313724
31	0xbb9d4439	-0.0047993925
32	0xba62742c	-0.0008638527
33	0x3bd82ccc	0.006597137
34	0x3b260592	0.002533291
35	0xbb4e3334	-0.0031463625
36	0xbbdfce79	-0.0068300334
37	0xbb70d6ba	-0.003674908
38	0xbb0406a9	-0.0020145571
39	0xbb85fc30	-0.004088901
40	0x3c218668	0.009858705
41	0x3bd6bb4e	0.00655309
42	0xbbbcaa05	-0.0057575726
43	0x3a8e698d	0.0010865197
44	0x3c22bf47	0.009933299
45	0x3bb45c5c	0.005504174
46	0xbb4da4b5	-0.003137869
47	0xbb6ab72c	-0.0035814745
48	0x3bfe834d	0.007767117
49	0xbc2afe23	-0.0104365675
50	0x3932fa80	0.00017068721
51	0xbbdcfe50	-0.0067441836
52	0xbb2a6d12	-0.0026004952
53	0x3c3319f4	0.010931481
54	0x3b84938c	0.0040459093
55	0x3c0d0e3e	0.008609353
56	0x3ace880c	0.0015757098
57	0xbbcd0ade	-0.006257399
58	0xbb8d19a3	-0.0043060347
59	0x3c106e2f	0.008815332
60	0xbb3052ee	-0.0026904899
61	0x39ba8710	0.00035577314
62	0xbbbece3e	-0.005822926
63	0x3b8426c8	0.0040329434
64	0xbc1a7d00	-0.009429216
65	0xbb8e2b9a	-0.004338694
66	0x3ab103ec	0.0013505197
67	0x3bdf8dae	0.0068223095
68	0x3be38f71	0.00694459
69	0xbaa6b434	-0.00127185
70	0xbbacf0d8	-0.0052777342
71	0xbaf1cef1	-0.0018448514
72	0xbb6ec8ac	-0.0036435528
73	0xbc17fc38	-0.009276442
74	0x3aa066da	0.0012237683
75	0x3bdbac14	0.006703863
76	0x3af6f0ac	0.0018840036
77	0xbbdd0821	-0.006745354
78	0xbb3b3605	-0.0028566134
79	0x3b7f8c31	0.0038993473
80	0xbc11862a	-0.008882085
81	0xbbb7e570	-0.005612068
82	0x3b745b3b	0.0037285823
83	0x3c09b79e	0.008405594
84	0x3b6ff3ed	0.0036613897
85	0xbbe50edc	-0.0069902968
86	0xbb8f8848	-0.0043802597
87	0xbb49fa42	-0.0030819331
88	0xbb9cfbbf	-0.0047907527
89	0xbb0b79c3	-0.0021282292
90	0x3bf928de	0.0076037487
91	0xbb6e17f6	-0.00363302
92	0x3bd6fd92	0.0065609897
93	0x3b95802a	0.0045623975
94	0xbb82d5a1	-0.0039927517
95	0xbbcb4b2b	-0.006204029
96	0xbb4892a1	-0.0030604976
97	0xbb96022b	-0.004577895
98	0xbc1e4984	-0.009661082
99	0xbaeba802	-0.0017979147
100	0xbb8eb2c2	-0.0043548057
101	0xbc072bc4	-0.008250181
102	0xbaaa6a05	-0.0013001567
103	0xbbc961d5	-0.0061456957
104	0x3bcb8dfe	0.006211995
105	0x3be571b3	0.0070020794
106	0x3b01c4f2	0.0019801226
107	0x3ac797d7	0.0015227747
108	0xbbbb5456	-0.0057168407
109	0x3b8ec194	0.0043565724
110	0x3c127be8	0.008940674
111	0xba491864	-0.0007671176
112	0xbbf7070c	-0.007538682
113	0xbb13b8c3	-0.0022540546
114	0x3b339e56	0.0027407608
115	0xb9ba0d60	-0.0003548665
116	0xbac27bf4	-0.0014837966
117	0xbc16414d	-0.009170842
118	0x3c2db419	0.010602021
119	0xbadd9f58	-0.001690845
120	0x3b8aafa4	0.004232364
121	0x3c028fcc	0.007968854
122	0xbbcc3292	-0.0062316144
123	0xbc16e250	-0.009209231
124	0x3b68f339	0.0035545363
125	0xbbc33892	-0.0059576714
126	0x3b24554f	0.0025075262
127	0x3a03eabe	0.0005032233

normalizations.0.running_var f4 [128]
0	0x3e9e767f	0.3094978
1	0x3ebcf182	0.36903006
2	0x3d7a7e75	0.061155755
3	0x3e204eaf	0.15655015
4	0x3d2a00ab	0.041504543
5	0x3dda5edd	0.10662625
6	0x3e0adfcf	0.13561939
7	0x3eb763ad	0.35818234
8	0x3e4e4ce4	0.20146519
9	0x3e92b5c7	0.2865431
10	0x3e637bc1	0.22215177
11	0x3f5907b2	0.8477737
12	0x3e29b52b	0.16573016
13	0x3e44b94b	0.19211309
14	0x3f9480f5	1.1601855
15	0x3e50f357	0.20405327
16	0x3fa37747	1.2770776
17	0x3e6c3698	0.23067701
18	0x3f094399	0.5361877
19	0x3eb1c74c	0.34722364
20	0x3e58c788	0.21169865
21	0x3eb74262	0.35792834
22	0x3e96f8e4	0.29486763
23	0x3f9940e5	1.1972929
24	0x3e7458c7	0.23861991
25	0x3e360cd1	0.17778327
26	0x3e5d8b7c	0.2163524
27	0x3dc08a7d	0.094014145
28	0x3db496d8	0.08817834
29	0x3f852bfb	1.0404047
30	0x3d6c8b3a	0.057749964
31	0x3f47dcd3	0.78071326
32	0x3e5367f4	0.20645124
33	0x3f238f2a	0.63890326
34	0x3ec07b89	0.3759425
35	0x3f2309a5	0.6368659
36	0x3e08e258	0.13367593
37	0x3e6b53f9	0.22981252
38	0x3d54e189	0.0519729
39	0x3e533918	0.20627248
40	0x3ea553b7	0.32290432
41	0x3e7d3cf6	0.24730286
42	0x3e46b5fa	0.19405356
43	0x3e6ba99b	0.23013918
44	0x3e2f8a3f	0.1714258
45	0x3d70e339	0.058810446
46	0x3d0160ea	0.031586565
47	0x3d9a18ac	0.07524237
48	0x3e93fe65	0.28905025
49	0x3e9836c0	0.2972927
50	0x3e748926	0.23880443
51	0x3e25e7c3	0.16201691
52	0x3ee39dab	0.4445623
53	0x3e83aff5	0.25720182
54	0x3e65f30d	0.22455998
55	0x3e9e15da	0.30876046
56	0x3ec52b95	0.38509813
57	0x3e5efaac	0.21775311
58	0x3e1d71b6	0.15375409
59	0x3e4ab392	0.19795063
60	0x3f1f270c	0.62168956
61	0x3f1a6a61	0.6031857
62	0x3e6eef99	0.23333587
63	0x3e60f76f	0.21969388
64	0x3f937a1c	1.152164
65	0x3df4078e	0.119155034
66	0x3df8f927	0.12156897
67	0x3e795602	0.24349216
68	0x3e0a77a9	0.13522209
69	0x3e874461	0.26419356
70	0x3dcd1df2	0.10015477
71	0x3cc73235	0.024315933
72	0x3d4a46db	0.04938398
73	0x3f219d8e	0.63131034
74	0x3ed835b1	0.42228463
75	0x3da7cc5f	0.081932776
76	0x3f51f283	0.8201067
77	0x3df2985e	0.11845468
78	0x3cc37fc0	0.023864627
79	0x3dd44f51	0.10366691
80	0x3f5868da	0.8453499
81	0x3f4a04d2	0.78913605
82	0x3eb97c8f	0.36227843
83	0x3eaa0b89	0.33211926
84	0x3ec26267	0.379657
85	0x3dfc4a0b	0.1231881
86	0x3da7152a	0.081583336
87	0x3dc6466b	0.096814
88	0x3e26e99b	0.16300051
89	0x3ca62caa	0.02028497
90	0x3f07a6b1	0.52988726
91	0x3eed1b2e	0.463098
92	0x3f0c9ad5	0.54923755
93	0x3e720b94	0.23637229
94	0x3d12042d	0.035648514
95	0x3f2f1b1d	0.68400747
96	0x3ec9166e	0.39274925
97	0x3e290cb9	0.1650876
98	0x3f8dab72	1.1067946
99	0x3d2b0862	0.04175604
100	0x3f20c47e	0.62799823
101	0x3f092e56	0.5358633
102	0x3e168ff6	0.14703354
103	0x3e05d114	0.13068038
104	0x3e7b90c6	0.24566945
105	0x3efe03d1	0.49612287
106	0x3df7dd0d	0.12102709
107	0x3d080f52	0.033217736
108	0x3f205f6f	0.6264562
109	0x3e2b295b	0.16714995
110	0x3e68c87c	0.22732729
111	0x3d9e41d0	0.077273965
112	0x3f81ac9c	1.0130801
113	0x3cebcede	0.028785165
114	0x3e444415	0.19166596
115	0x3f06308b	0.5241782
116	0x3edc6bb6	0.43050927
117	0x3f974630	1.1818295
118	0x3e6a73e2	0.22895768
119	0x3e759ba1	0.23985149
120	0x3e9f30d1	0.3109193
121	0x3ee41e0d	0.44554177
122	0x3f0adce0	0.5424328
123	0x3e86b5c0	0.2631054
124	0x3d54e0c2	0.05197216
125	0x3e303583	0.17207913
126	0x3c934714	0.017978229
127	0x3e97ee84	0.2967416

normalizations.1.weight f4 [64]
0	0x3f66c779	0.9014812
1	0x3f3e43b0	0.7432203
2	0x3f6db418	0.92852926
3	0x3f683d8d	0.9071892
4	0x3f5589be	0.834133
5	0x3f6c56d0	0.92319965
6	0x3f40efcb	0.75365895
7	0x3f65ec15	0.8981336
8	0x3f5f81e6	0.87307584
9	0x3f866904	1.0500798
10	0x3f669f77	0.90087074
11	0x3f633d8e	0.887658
12	0x3f556ea6	0.8337196
13	0x3f7532ad	0.9578045
14	0x3f66a9bf	0.9010276
15	0x3f60bb87	0.87786144
16	0x3f6f12fc	0.9338834
17	0x3f5c1149	0.85963875
18	0x3f84cfc1	1.0375901
19	0x3f74ecd7	0.9567389
20	0x3f7696bb	0.96323746
21	0x3f70a7f0	0.9400625
22	0x3f3b5b35	0.73186046
23	0x3f49d8bd	0.7884634
24	0x3f5a041e	0.8516253
25	0x3f72680f	0.9469003
26	0x3f676be2	0.9039899
27	0x3f5048bb	0.8136098
28	0x3f66d535	0.9016908
29	0x3f5609c1	0.83608633
30	0x3f6010bf	0.8752555
31	0x3f527500	0.8220978
32	0x3f6250e5	0.88404685
33	0x3f60344b	0.8757979
34	0x3f50bbee	0.8153676
35	0x3f61aa39	0.88150364
36	0x3f4ebe2a	0.8075892
37	0x3f52b647	0.82309383
38	0x3f79ffcc	0.9765594
39	0x3f5f5fa5	0.87255317
40	0x3f7b73f7	0.98223823
41	0x3f6c6989	0.92348534
42	0x3f4b21ef	0.79348654
43	0x3f7c6ee1	0.9860669
44	0x3f8131ee	1.0093362
45	0x3f45104b	0.76977986
46	0x3f5d8712	0.86534226
47	0x3f84e8f8	1.0383596
48	0x3f661174	0.8987038
49	0x3f68ca9d	0.90934163
50	0x3f53db22	0.82756245
51	0x3f4ad1e9	0.7922655
52	0x3f6c64df	0.9234142
53	0x3f4622f6	0.77397096
54	0x3f69748d	0.9119347
55	0x3f858e36	1.0434024
56	0x3f740085	0.9531329
57	0x3f6a9162	0.91628087
58	0x3f67864f	0.90439314
59	0x3f640b9d	0.8908022
60	0x3f622efd	0.8835295
61	0x3f60c5a2	0.87801564
62	0x3f65daba	0.89786875
63	0x3f588585	0.84578735
