models/time_series/final_model.pth (torch, 52777 bytes, 31 tensors)

layers.0.weight f4 [64, 10]
00000000: 9477 0bbe a5e5 ecbd aeb1 6b3e 5451 f93d
00000010: 56f8 1bbe 2715 ca3d 06d3 1d3e f552 78be
00000020: 0307 7f3d 46be 973d 56ed 41bc 5b34 8b3e
00000030: 3f20 41be c238 1d3e 876d 1cbe 5311 7dbe
00000040: 9885 463e bb49 0bbe 0d81 ea3b 2639 1b3e
00000050: f1e1 6bbe 6487 81be 8eca af3d 41d1 743e
00000060: ad32 03bd d3cf 693e a4e5 ac3d 1997 c43d
00000070: 1241 37be 232d 8a3e 04b2 133e b57f 2d3d
00000080: c864 3e3e ef62 6abe 556c 803d 79f0 aabd
00000090: 0063 f7bc 2378 1f3e 4b17 2b3e 1101 803d
000000a0: 0c7b 78be 2a50 46be 2382 94bc c5f4 a8bd
000000b0: 3b6a 86be cb13 7b3e 6a53 173c b8d8 70be
000000c0: 1ce7 ae3d c53f c13d ee08 06be 2928 293e
000000d0: 0cba 30be 0adc c93d 84ee 8c3e 6ae3 313e
000000e0: c583 0f3e f7fe 98bd 07b1 be3c a87c d13d
000000f0: 18bc ae3d 472e 88bd c53d 953c fa92 b6bd
00000100: 6216 3abe f3bd 88be aeb0 7cbe f71d 3fbe
00000110: 56c1 843e 9a10 4d3d 4177 7dbe 1403 0abe
00000120: 8db7 a03d eb7e a7bd 96b9 adbd 4f37 f5bd
00000130: ca6b a1bd 73f5 a63c f5d3 953a 438e 403e
00000140: 8f05 413e c648 743e 74e0 03bc 189a f7bd
00000150: 203c 6f3c cd52 42be eaf9 f03d 3e39 18bd
00000160: 0679 d3bd d5e1 69be 0c9f 183e 1ea3 293e
00000170: 0a8c 8d3e d72b aabd c591 bd3d 674c ae3c
00000180: 67ae 29be b769 28be d785 273e 3d34 1ebe
00000190: 8394 673e 6155 b53d 2338 b23d 72fb 2f3e
000001a0: e051 023e 9b5f 273e 1b18 ed3d 33af d8bd
000001b0: a040 22be 07e6 80bd 73b3 4d3e f0bc 623e
000001c0: f7c5 673e 12e0 8ebd 9257 8bbb ac9d 0fbe
000001d0: a1f8 593e 9a4c 0fbe 8b3c a1bd 14b1 8b3e
000001e0: 37b3 a83d c94f dbbd 611e 3abe b6ba 3dbe
000001f0: ecdc 783e abbb 7bbe 0bbd 833e dcc5 743e
00000200: d53a e93c 102c 33bc 1191 653e db6d f53d
00000210: bed2 883e 1914 7a3e 2ced 2cbe b050 473e
00000220: 8763 1b3e d0f5 42be 7dde 393e 62e2 e9bd
00000230: 5c4c 1dbe 62cf e63c 9d2f 86bc 87fe a4bd
00000240: 0ef6 38be d85b 133e ca0d 8a3e 73f3 aebd
00000250: cbd8 74be 15d0 4fbd 4d44 67be bd51 72be
00000260: 8ed3 babd 1223 183e 1843 64be 2612 51bd
00000270: cc19 31be 9082 91be 0c9e 75bd 5777 47bd
00000280: 666f 37bd b96d 323e 3ca9 f13d 41a6 433e
00000290: b326 cc3d 4fb1 ff3c e699 363e ea13 36be
000002a0: 6979 163e cfed 0d3e 312f abbd e0a4 003d
000002b0: 7130 22be beef 45be 909e 2a3d d530 6a3d
000002c0: 0d93 5cbd 4d16 d53d 2b74 9dbe fa53 32be
000002d0: 5514 563e 0c11 89be ca08 7e3d 71b3 6a3e
000002e0: e9ad 683e 1078 dc3d ff4a 7fbe 452c 343d
000002f0: 58ae 9ebd ddcd 7abd 4cca 5b3e efe1 c6bd
00000300: aefa 4fbe c37d 68be 046a 353e cb52 543c
00000310: d602 933e 6a20 723d 297c 88be 0369 943d
00000320: 2419 8d3e 8138 443e a7c4 d23d 92d2 56be
00000330: c870 29be 4a9e 3d3e ac60 37be 5262 823d
00000340: d97b e8bc fd6f ba3d 3f08 2f39 5c18 70be
00000350: 09b2 07be 906c 6c3e 6e49 8f3c c782 003e
00000360: a1f8 20be 5730 543e 5eed a1bd 1105 e8bd
00000370: 3f44 323d 3361 ecbd 11a6 06be 6570 6ebd
00000380: de1d f6bc 7467 3bbe 206c 9b3d af28 98be
00000390: 90d9 173e 788d 7c3e 2050 753d 4600 a7bd
000003a0: 9a16 84be f57c fd3d 6fab 693e 6f81 833e
000003b0: ddf0 e1ba 04d7 d03d a7f0 863e 8604 443d
000003c0: a0e9 f2bd 042a 82be 41eb 103e 6e0a 053e
000003d0: c9be 8a3e 07fe f0bd aef5 113e ba99 93bd
000003e0: c9d1 41bd bede 3f3e 9fd6 79be 0f7f 5c3e
000003f0: ee38 173e c37d f9bd 5e82 263e 198d 8ebd
-0.13619834 -0.11567239 0.23016998 0.12173715 -0.15231451 0.09867316 0.1541253 -0.24250396
0.062262546 0.07409339 -0.01183637 0.27188382 -0.18859957 0.15353683 -0.15276156 -0.2471364
0.193869 -0.13602345 0.0071564973 0.15158519 -0.23035409 -0.25298607 0.08583556 0.23907949
-0.03203075 0.22833185 0.08442238 0.09599132 -0.17895916 0.26987562 0.14423376 0.04235812
0.18593132 -0.22889303 0.06270663 -0.08346648 -0.030198574 0.15573172 0.16708104 0.062502034
-0.24265689 -0.19366518 -0.01812846 -0.08249811 -0.26252922 0.24519269 0.009236196 -0.23520172
0.08540174 0.09435991 -0.13089344 0.16519226 -0.17258471 0.09856422 0.27525723 0.17371908
0.1401511 -0.07470506 0.023277773 0.102288544 0.0853197 -0.06649452 0.01821793 -0.08914752
-0.18172601 -0.2670742 -0.24676773 -0.18663774 0.25928754 0.05006466 -0.24752523 -0.13477737
0.078475095 -0.081785046 -0.08482663 -0.1197344 -0.07881887 0.020380711 0.0011430966 0.18804269
0.18849777 0.23855886 -0.008049119 -0.12089938 0.014601737 -0.18976898 0.11766417 -0.037163965
-0.10325818 -0.22840054 0.14904422 0.1656613 0.27645904 -0.08309143 0.09256319 0.021276666
-0.16570435 -0.16446577 0.1635965 -0.15449615 0.22615246 0.08854175 0.087021135 0.17185763
0.12726545 0.16345064 0.115768634 -0.105802916 -0.15844965 -0.06293874 0.20087986 0.22142386
0.22634111 -0.06976332 -0.0042523826 -0.14024991 0.2128625 -0.13994065 -0.07872876 0.27283537
0.082373075 -0.10708577 -0.18175651 -0.18528256 0.24303025 -0.24583308 0.25730166 0.23903602
0.028470436 -0.010935798 0.2241862 0.11983844 0.26723284 0.24421729 -0.16887349 0.19464374
0.15174685 -0.19039083 0.18151279 -0.11420132 -0.1536116 0.02817506 -0.016380126 -0.0805636
-0.18062612 0.14390504 0.26963645 -0.08542528 -0.23910825 -0.050735552 -0.22584648 -0.23663993
-0.09122382 0.14857128 -0.22291219 -0.0510427 -0.17294997 -0.28419924 -0.05996518 -0.048697796
-0.044783972 0.17424668 0.11799857 0.1910639 0.09968319 0.031212477 0.17832145 -0.17781034
0.14694752 0.13860248 -0.083586104 0.031407237 -0.15838791 -0.19329736 0.041655123 0.057175476
-0.053851176 0.10404644 -0.30752692 -0.17414847 0.20906194 -0.26770818 0.0620201 0.22920014
0.22722591 0.107650876 -0.24930952 0.04398753 -0.07748097 -0.061231483 0.21463889 -0.09711062
-0.2031047 -0.22704224 0.17716223 0.0129591925 0.287131 0.059112944 -0.26657227 0.07246592
0.27558243 0.1916218 0.10291415 -0.20978764 -0.16546929 0.18517414 -0.17907971 0.06366409
-0.028379368 0.09103391 0.00016692372 -0.23446792 -0.13251509 0.23088288 0.017491069 0.12549888
-0.15719844 0.20721565 -0.07906602 -0.11329091 0.043522116 -0.11541977 -0.13149287 -0.058212657
-0.030043539 -0.18301183 0.075889826 -0.2971854 0.14829087 0.24663341 0.059890866 -0.08154349
-0.25798494 0.12377349 0.22819303 0.25684687 -0.001723792 0.10197261 0.26355478 0.047855876
-0.11860967 -0.2542268 0.14152242 0.1299226 0.27098683 -0.11767202 0.14253876 -0.072070554
-0.047319207 0.18737313 -0.24398278 0.21532844 0.1476781 -0.1218219 0.16260669 -0.06960506

layers.0.bias f4 [64]
00000000: 0511 c2b8 a0af 42b9 49cf 0d39 4406 7a38
00000010: 0076 d6b7 255b 0db8 2da0 c337 7942 adb7
00000020: acba 68b9 e0db 6436 5060 39b8 e8ff ebb7
00000030: fa35 2737 dc87 6537 decb 9537 184d eb35
00000040: 2c98 aeb7 3244 dfb7 cf74 87b9 a8d3 2c38
00000050: 68c7 0cb6 12e5 4db8 869d a1b8 c0c7 0f37
00000060: 14b2 5739 2c50 55b9 cee0 ad36 70b7 d736
00000070: 8763 d2b8 f843 fab6 4a40 18b8 5220 5738
00000080: 9b6e 7638 d915 83b7 d5c2 4138 339c 90b8
00000090: 4568 abb8 e402 8038 c6db 20b8 c208 a437
000000a0: a293 c6b7 6a31 ebb6 926a a2b8 ebd8 f137
000000b0: c258 2cb7 76d9 0e37 3629 00b8 b0c6 ac34
000000c0: eb57 bcb7 1d9d ddb8 f0f4 4237 ce5c a7b8
000000d0: 824e 3c38 8d78 b1b8 3544 b2b7 988b 82b8
000000e0: bcfd f436 d205 5a38 31a3 8a38 608b c5b5
000000f0: 4873 74b7 8062 ff38 d7b3 5437 4c5a 5fb7
-9.253811e-05 -0.00018566707 0.00013524028 5.961048e-05 -2.5565736e-05 -3.3701905e-05 2.33204e-05 -2.065416e-05
-0.00022194785 3.4102632e-06 -4.4197135e-05 -2.8133349e-05 9.966543e-06 1.3681096e-05 1.7857117e-05 1.7531302e-06
-2.0813277e-05 -2.6615427e-05 -0.00025836236 4.1205116e-05 -2.0977695e-06 -4.9089147e-05 -7.706419e-05 8.569972e-06
0.00020570337 -0.0002034313 5.1819725e-06 6.4288542e-06 -0.00010032119 -7.458493e-06 -3.6299498e-05 5.1290095e-05
5.875398e-05 -1.562659e-05 4.6196237e-05 -6.8955494e-05 -8.173337e-05 6.104054e-05 -3.8351653e-05 1.9554402e-05
-2.3672186e-05 -7.0092983e-06 -7.744612e-05 2.8830449e-05 -1.0272664e-05 8.514491e-06 -3.055596e-05 3.218206e-07
-2.2452286e-05 -0.00010567366 1.162033e-05 -7.980467e-05 4.489581e-05 -8.462472e-05 -2.1251015e-05 -6.2248844e-05
7.3013052e-06 5.198067e-05 6.6107496e-05 -1.4718207e-06 -1.4570374e-05 0.000121776946 1.2678057e-05 -1.331286e-05

layers.1.weight f4 [32, 64]
00000000: 1dd5 b43b dbb9 bbbc 8914 00bd ada5 b1bd
00000010: 1f04 47bd f27f 743d 18ec 493e 327e 563e
00000020: d9c7 55be c4f2 7ebe 6098 a0bd 80d0 74bd
00000030: 0ac5 003e 0066 463e 2328 493d 027f 20be
00000040: f561 96bd 1bfa 1f3e 4a6d 643d ed8b 42be
00000050: d257 e1bc a21e 6cbe 5dfc d3bd f8b3 e63d
00000060: 8e98 0abe c98c 333e b91f 51be 7a36 2c3e
00000070: e8ac b73d 09ba 293e 057a b43d b19c c0bc
00000080: 7183 cfbd d193 e9bd 5a7e 51be 490b 233e
00000090: 96ff a0bd a8b3 c1bc 8d11 94be 11f4 8b3c
000000a0: 91a7 39bd e6da 75be b0e6 173d baf9 8dbe
000000b0: 2280 32bc 46f7 37be 2f64 ce3d ec33 83be
000000c0: 4838 103d 6e8e b73d 1724 53be bcaf 1d3e
000000d0: 82e0 463e 664b 47be 800e 23bd 24fa 9a3d
000000e0: d435 283e 954e 433e 1974 84be a306 2abe
000000f0: a4b4 89be b082 27be a99f 91bd 5e23 babd
00000100: e1f7 243e 2305 24be 42ef 68be ef66 54be
00000110: 4cf8 3ebe bd4e 463e 24ab aa3d 69b1 e9bc
00000120: 983a 33bd d628 5ebe e44a e9bd c319 d93d
00000130: 5821 2d3e bde5 173e 2ef4 90bb 7db0 d4bd
00000140: d453 3bbe 2be1 823e 6567 8bbe 9271 9f3d
00000150: d21d 57bd 3456 703e 007a 183e d50d e3bd
00000160: 0bb5 5cbe d175 9e3d 4cfc 24be b0f4 82bd
00000170: 2146 c03c 8174 053e 40ff 62bd a4e1 48be
00000180: 6d86 2fbe 2da3 3ebe e419 bc3b 4cba 46be
00000190: 4ffc 923c 10c3 ebbd f4e8 54be 8e0a f63d
000001a0: 6473 4b3e 49b2 053e 254b 843e d325 3fbe
000001b0: 775e c9bd ca8c 0fbe 5bbd f43d b50d da3d
000001c0: 6a7c 543e c1a9 35be dbb5 05be 188c 863e
000001d0: 5b6d 55be e845 5abe e625 583d d435 63be
000001e0: a769 b6bd 5264 d73d f509 2f3e 9e57 e73c
000001f0: 7c8a 86be 61cb f13d d8e1 713e 07de 32be
00000200: 7d71 7bbb e7bd 25be 942f f0bd db18 b73d
00000210: 4a34 1a3e 533f fa3d c393 80be 407c 5cbd
00000220: f04c 883d 1bc7 013a 291a a0bd 7b19 18be
00000230: fea5 6e3e ca98 3bbe 9839 2ebe 211a 1f3e
00000240: 4e8c 09be c571 153e de16 e4bd 4d46 99bd
00000250: 22b2 babd 0782 493e 5662 2d3e 4056 e63c
00000260: b4ae 653c 8c0e fabd c39a f5bd c631 82bd
00000270: 56e9 d53d d363 3dbd 6ec5 143e e1b7 283d
00000280: 624a d4bc c3bd 34be c0af dd3d 3ca5 58be
00000290: f4d3 713d 1603 b53d 48b4 9f3d d7e7 513e
000002a0: a38a 853c f7bd 4abd a791 3fbe d599 6fbe
000002b0: 833f df3d 31e4 c83d 9930 2cbe 00ce c13d
000002c0: 38db 9dbd 2bf0 683e 255d 86bd 5f38 6b3e
000002d0: af64 393e c34c 4d3e 4e44 513e 4b5e b83d
000002e0: a529 bc3d cb91 42be 8fc7 ddbc 3e44 96bd
000002f0: 8ee6 133e 2cc7 b3bd 0697 063e f5bb 283e
00000300: 2a05 903d b1ca 083e c2d5 a7bd 2a42 ae3d
00000310: fa2f e1bd a670 5d3e 1a8e f0bc 5631 3dbd
00000320: 1947 43be dbee 833e e280 3dbd 341b 023e
00000330: 7008 3cbe 258d 4fbe ecf8 82bd d226 73be
00000340: 881a 8b3d bd06 5bbc ba87 a8bd 5022 4a3e
00000350: 4427 543e ff01 4ebe fbdf 70be 9788 113e
00000360: 7960 36be 8b5a f93c 2232 dbbd 1e08 8f3d
00000370: 2614 26be 6207 31bc 091a bebd 41b5 06be
00000380: 7a1a 22be 82d0 933c cbed dc3d 1ff1 e13c
00000390: 99d4 7fbc 5737 353e f703 5c3e d72f d7bc
000003a0: 3e9b 72be 984a 833d ad5a 573d 0cf1 58be
000003b0: a709 83be 725a 593c d08a 723e 7557 2dbe
000003c0: f23c 19be 2676 61bd 96c0 7bbe a62f 23be
000003d0: 4610 373e e0bf 483e 3d1f 30be 2b5f b23c
000003e0: 0521 64be 8e4a 8f3d 642c 08be 8fb1 28be
000003f0: 1b0f d5bd 0a95 7c3d 05ea 0e3e 4a0a 01be
0.005518569 -0.022915771 -0.031269584 -0.08674178 -0.048587915 0.05969233 0.19718969 0.20946577
-0.20877017 -0.24897295 -0.07841563 -0.059769154 0.12575164 0.19374847 0.049110543 -0.1567345
-0.073429026 0.15622751 0.05576829 -0.1899869 -0.027507696 -0.2305856 -0.10350869 0.11264795
-0.13534757 0.17534174 -0.20422257 0.16817656 0.08968526 0.16574873 0.08812336 -0.023512216
-0.10132492 -0.11405147 -0.20458356 0.15922274 -0.07861249 -0.023645237 -0.2891964 0.017084153
-0.04532582 -0.24009284 0.037085235 -0.2772959 -0.010894807 -0.17965421 0.10077702 -0.2562555
0.035209924 0.08962713 -0.20619236 0.15399069 0.1942158 -0.19462356 -0.03980875 0.07567242
0.16426784 0.19072945 -0.25869825 -0.16604094 -0.2689563 -0.16358447 -0.07110531 -0.09088777
0.16110183 -0.16017585 -0.2274752 -0.20742391 -0.18649405 0.19365974 0.08333424 -0.028526979
-0.04375705 -0.21695265 -0.113912374 0.10600617 0.16907251 0.14833732 -0.0044236397 -0.10385225
-0.18293697 0.25562415 -0.2722732 0.07785334 -0.052518673 0.23470384 0.1489029 -0.110866226
-0.21553437 0.077373154 -0.16111869 -0.06394327 0.02347094 0.13032724 -0.055419207 -0.19617325
-0.17141123 -0.18616934 0.005740391 -0.19407004 0.017942576 -0.115118146 -0.2079199 0.12013732
0.19868237 0.13056292 0.2583858 -0.18666773 -0.09832471 -0.1401855 0.11950179 0.10647146
0.20750585 -0.17740537 -0.13057654 0.26278758 -0.20842497 -0.2131573 0.052770518 -0.22188503
-0.0890687 0.105171815 0.17093642 0.028240021 -0.2627753 0.118063696 0.23621309 -0.17467509
-0.0038367205 -0.16185723 -0.11727825 0.08940288 0.15059009 0.122191094 -0.25112733 -0.05382943
0.066553 0.00049506285 -0.0781749 -0.1485347 0.23305508 -0.18320003 -0.17014158 0.15537311
-0.13432428 0.14594181 -0.11137174 -0.07484112 -0.091160074 0.19678508 0.16932043 0.0281173
0.014018703 -0.12209806 -0.11992409 -0.0635715 0.10444896 -0.046237778 0.14528438 0.041190986
-0.025914375 -0.17650513 0.10824537 -0.21156782 0.059040025 0.08838479 0.07798058 0.20498596
0.016301459 -0.04949757 -0.18707906 -0.23398526 0.10900786 0.09809149 -0.16815414 0.094631195
-0.07707828 0.22747867 -0.06560735 0.22970723 0.18104814 0.20048814 0.20436212 0.0900236
0.091876306 -0.19000928 -0.027072696 -0.07337235 0.14443418 -0.087782234 0.13143548 0.1647795
0.07032235 0.1335857 -0.08195068 0.085087135 -0.10995479 0.21625003 -0.029364634 -0.04618963
-0.1907009 0.2576817 -0.04626549 0.1270569 -0.18362594 -0.20268686 -0.06395134 -0.23745278
0.0679217 -0.013368306 -0.08229013 0.19739652 0.20718104 -0.20117949 -0.23522942 0.14212261
-0.17810239 0.030438682 -0.107029215 0.0698397 -0.16218624 -0.010804983 -0.092823096 -0.1315508
-0.15830413 0.01804376 0.10787543 0.027580796 -0.015614652 0.17696892 0.21485887 -0.026267929
-0.23692033 0.06410712 0.05257671 -0.21185702 -0.25593302 0.013266193 0.23685765 -0.16927893
-0.14964655 -0.055044316 -0.24585184 -0.15936145 0.17877302 0.19604445 -0.17199416 0.021773895
-0.22278221 0.06996642 -0.13298184 -0.16473983 -0.10403272 0.061665572 0.13956459 -0.12601581

layers.1.bias f4 [32]
00000000: 4b01 92b8 065f 0db9 6ccd 7d36 a06d bf35
00000010: 22ba 6b38 8272 6438 6aa6 5ab7 9acb 0ab9
00000020: 2047 0538 e099 19b9 fbd8 7f36 cc82 13b7
00000030: d446 b737 ae5f 8a38 ca3d 5138 7c95 2a39
00000040: 46ff b8b7 5ede 9438 25ab ffb7 06c5 3138
00000050: 1cf2 3fb8 3bdc 52b8 7b62 efb7 c39d a0b7
00000060: e4e5 6738 43dc af38 465a 46b9 599d 01b9
00000070: 15d1 ef38 ab47 7438 a4f8 6439 0ba6 29b8
-6.962063e-05 -0.00013482207 3.781951e-06 1.4262514e-06 5.6201716e-05 5.446608e-05 -1.3032559e-05 -0.00013236553
3.177591e-05 -0.0001464854 3.812426e-06 -8.792336e-06 2.1848282e-05 6.5981745e-05 4.988703e-05 0.0001626815
-2.205338e-05 7.098609e-05 -3.0478064e-05 4.238358e-05 -4.576343e-05 -5.0273007e-05 -2.8536879e-05 -1.914695e-05
5.5288794e-05 8.385677e-05 -0.00018916381 -0.00012361015 0.00011435353 5.824088e-05 0.000218364 -4.044738e-05

layers.2.weight f4 [1, 32]
00000000: 01f5 f4bd ba49 03be 396f 203a ce1a 803e
00000010: b33e 8cbd 50d8 ddbd ec55 8b3d 527a 18be
00000020: 25d3 8b3e 182a 833e a0a2 b03c 7bbe 5fbe
00000030: c17c a73d cdd8 893e f402 d73d 7da2 f13d
00000040: 4750 2cbe bd2e 94be 1e1d 09be cc79 bd3c
00000050: 0f70 893e 356c 8a3d a394 b4bd fe26 d5bd
00000060: 93fd abbd 9467 ecbd 119e ecbd cbb7 353d
00000070: 20d0 383e e10a 773e 0d88 b83d 51c9 7cbe
-0.11960793 -0.12821093 0.0006120089 0.2502045 -0.068478964 -0.10832274 0.06803498 -0.14890411
0.27309528 0.25618052 0.02156192 -0.21850006 0.08178092 0.26923218 0.1049861 0.1179857
-0.16827498 -0.28941908 -0.13390014 0.023129366 0.26843306 0.0675892 -0.08817413 -0.10407828
-0.08397975 -0.115431935 -0.11553586 0.04436473 0.18048143 0.24125244 0.090103246 -0.24686171

normalizations.0.weight f4 [64]
00000000: 87de 823f b4f4 793f cd35 813f 531f 7d3f
00000010: 3cf6 773f db8e 753f ace0 843f 4360 7a3f
00000020: 6ca9 713f 08b4 843f f4f9 823f 127c 803f
00000030: 297c 7b3f 27ac 813f bca7 7d3f b532 863f
00000040: 5114 833f eb41 813f 9a1a 7e3f 3fb1 793f
00000050: f2f2 7a3f 54f6 7b3f d57e 813f 8d6f 853f
00000060: 94c8 803f 74ce 793f 799f 833f 30c1 7e3f
00000070: 90b1 803f 914d 7c3f 3d6d 873f 0f04 803f
00000080: 157d 813f e005 7e3f 30d5 803f 5b51 823f
00000090: 5237 773f 930a 763f af05 873f 03d3 803f
000000a0: e25c 7e3f 82e6 843f 65e8 823f 3282 803f
000000b0: 0794 813f c8e1 6c3f 68ec 7a3f 6658 823f
000000c0: bee1 863f 3e5c 7d3f 5ff0 833f 0799 793f
000000d0: 09a3 723f 3af8 7e3f 9b15 833f f6b7 803f
000000e0: ef53 7d3f 22fb 833f 5701 7d3f 5f55 813f
000000f0: 5467 853f 0b86 7f3f 16e3 763f d14d 743f
1.022416 0.9763901 1.0094544 0.9887592 0.968601 0.95921105 1.0381064 0.97803134
0.9439914 1.0367441 1.023253 1.0037863 0.9823633 1.0130662 0.9908407 1.0484225
1.0240575 1.0098242 0.9925934 0.9753608 0.98026955 0.9842274 1.0116831 1.0424668
1.0061212 0.9758065 1.0283042 0.9951353 1.0054188 0.98555857 1.0580212 1.0001239
1.0116297 0.99227715 1.006506 1.0181078 0.9656879 0.96109885 1.054861 1.0064396
0.9936048 1.0382845 1.0227171 1.0039732 1.0123299 0.92532015 0.9801698 1.0183227
1.0537641 0.98968875 1.030773 0.97499126 0.9478002 0.99597514 1.0240968 1.005614
0.989562 1.0311015 0.9883017 1.0104178 1.0422158 0.9981391 0.96440256 0.9543124

normalizations.0.bias f4 [64]
00000000: 95b0 173d dd06 c63a 55dc a5bb e7b4 b5bc
00000010: f540 98bc 7230 55bd 9590 1c3c 7392 b6bc
00000020: cca1 1bbd c967 183c 8254 813d f391 d2bc
00000030: 9ee0 2a3c 50ef 8abc 960c 0cbd b8fd d23b
00000040: 1fa3 8f3c 5a79 853c daaa 23bd 4c00 34bc
00000050: 199f a8bc e35f 4ebc 53a7 2cbc 86ce 683c
00000060: 369a afbc 70ae ad3c 0bf3 24bc 6bd9 cdbc
00000070: 38cc e3bc 12c4 fcbb 4549 0e3d 75db 80bc
00000080: e34e 5f3c dac1 83bc be8d e83a ae95 c33b
00000090: 1cc4 ddbc d60b ef3c e0f5 173b 9dd9 30bc
000000a0: 51be 8ebc 912a 6e3c a512 e73b 1d89 c038
000000b0: 74eb c33c 0945 83bd e290 bbbc e509 4cbc
000000c0: e952 403d 9424 39bc 0a7f 08bc d88f 0ebc
000000d0: 4193 d1bc a091 4db9 7568 0abc 807b d03c
000000e0: f017 6a3b b44b 033d bb42 5b3c 8bd5 c7bb
000000f0: 5854 103d 269b ddbc 7ca7 75bd 2893 49bd
0.037033636 0.0015108247 -0.005061666 -0.022180988 -0.018585661 -0.052048154 0.009555955 -0.02228663
-0.0379961 0.009302088 0.06314947 -0.02570436 0.0104295295 -0.016959816 -0.03419169 0.006438937
0.017533837 0.016293216 -0.03995786 -0.010986399 -0.020583676 -0.012596103 -0.01053794 0.014209395
-0.021435838 0.021201342 -0.010067712 -0.025128087 -0.02780734 -0.007713803 0.034737844 -0.015729645
0.013629648 -0.016083647 0.0017742438 0.005968771 -0.027071051 0.029180449 0.0023187324 -0.010794071
-0.017424734 0.014536516 0.007051783 9.180813e-05 0.023915984 -0.06409652 -0.022896234 -0.012453531
0.04695407 -0.011300225 -0.00833107 -0.008701287 -0.025582911 -0.00019604573 -0.008447756 0.025449514
0.0035719834 0.032054618 0.013382609 -0.0060984544 0.035236686 -0.02705152 -0.05997418 -0.049212605

normalizations.0.running_mean f4 [64]
00000000: 00b9 9b37 3f82 203a d067 2b3a 0001 c137
00000010: d400 99ba faf5 2f3b 4884 72ba 9090 c8ba
00000020: 7fff b2ba dc4e 69ba e034 1b3a 3471 96ba
00000030: fb2b 473b c0c2 bf3a 49da 0fbb d027 cbba
00000040: 4c1a 153b a2b4 40bb 9c80 d03a 6e91 7a3a
00000050: 6e7d 48bb e005 d13a 1f94 b23a cb9d aa3b
00000060: d4b0 1a3b 30ab 5cbb f024 5dba 4874 e23a
00000070: ffb9 1a3b 50c5 d039 00a4 f139 48ec c3ba
00000080: 4af2 55bb 9e93 6d3b 5925 483b 503c 603a
00000090: 3714 d7ba 1537 0c3b b404 763a 0e47 9a3b
000000a0: 8424 efba 141f 473b c832 ac3a b8f2 3b3a
000000b0: 28eb 36bb ca0b 79bb 10d2 e239 a024 173a
000000c0: 8876 18bb 7435 2bba 200c d7b9 507d 163a
000000d0: 6ca4 17ba baa7 7c3b ec5f e939 d606 edba
000000e0: 90f4 4f3a b495 763a f071 1fbb 50f0 56ba
000000f0: d4ef 6c3a f499 a7ba 88d6 9cba 209b 1e3a
1.8563587e-05 0.0006122924 0.00065386016 2.3007859e-05 -0.001167322 0.0026849494 -0.0009251279 -0.0015301872
-0.0013656466 -0.00088999956 0.000592066 -0.0011477829 0.0030391205 0.0014630184 -0.0021950176 -0.0015499536
0.002275127 -0.002940454 0.0015907469 0.0009558414 -0.003059234 0.0015947185 0.0013624466 0.0052067987
0.0023603933 -0.0033671372 -0.0008435985 0.0017277086 0.0023609397 0.0003981986 0.00046089292 -0.0014947737
-0.0032645636 0.0036251317 0.003053984 0.0008553909 -0.0016409223 0.0021395136 0.0009384856 0.0047081774
-0.0018245135 0.0030383514 0.0013137693 0.0007169652 -0.002791116 -0.0038001412 0.00043262588 0.00057656504
-0.002326401 -0.00065310975 -0.0004101703 0.0005740719 -0.00057846936 0.0038552121 0.0004451269 -0.0018083702
0.0007932866 0.0009406463 -0.0024329387 -0.00081992615 0.0009038423 -0.001278697 -0.0011965791 0.0006050337

normalizations.0.running_var f4 [64]
00000000: f22d 423c 8c95 d13b 49f7 d83d d1ba 623e
00000010: 19bf b73e fcc5 af3e e927 c23e 54da 4d3e
00000020: 3b90 be3c 42e7 b53d 5840 d83e c869 f53e
00000030: 7629 a13c a4fd 4e3f 9dcd 073e a302 c13f
00000040: c79b 353f a20f 083f 3e22 5e3d c14f ba3b
00000050: c244 da3d 1519 a43c 2c63 bd3d 5697 0a3f
00000060: 9840 9a3d 87a5 813d e668 1f3e 5491 6c3e
00000070: 3398 f03c a89b 733e 0b3b 123d de31 253e
00000080: 6b13 d83e 131c bb3d 6e6e 3d3e 728d ad3e
00000090: 594c 3d3c 06f5 063d 9660 903e c459 ca3f
000000a0: 600f 343f d679 ca3e 6d88 0d3e ecb6 fb3d
000000b0: a393 053f 4cf6 333f 8ac3 033e be5c b03e
000000c0: 285b 373f 9cd8 633d 00fb 8f3e 8efb c53c
000000d0: b330 1b3d 2e76 6c3c 1524 353d 0f60 b43c
000000e0: 4a63 163e 689b 243e 69ec b83d 7b43 793f
000000f0: 6297 a83d 58aa 0a3d e180 da3e f4af 353f
0.0118517745 0.006396001 0.10594041 0.22141577 0.35887983 0.34330738 0.37921074 0.20102817
0.023262134 0.088819996 0.4223659 0.47932267 0.01967309 0.80855775 0.13262029 1.507893
0.7094082 0.53148854 0.054231875 0.005685777 0.10657646 0.020031491 0.09247431 0.5413717
0.075318515 0.063304 0.1556736 0.23102313 0.02936945 0.23789847 0.03570084 0.16132304
0.42202315 0.09136214 0.18499157 0.33896977 0.011553847 0.032948516 0.2819869 1.5808644
0.7033596 0.39546078 0.13821574 0.12290749 0.521784 0.70297694 0.12867561 0.34445757
0.7162347 0.055626497 0.28121185 0.024167802 0.03788824 0.014432473 0.044223864 0.02201846
0.14686313 0.16074908 0.09029467 0.9736859 0.08231999 0.03385386 0.42676452 0.7097161

normalizations.1.weight f4 [32]
00000000: 9a37 783f 10f2 813f 9826 773f 039e 6e3f
00000010: 1369 743f 4798 7e3f d313 7c3f 7d01 7e3f
00000020: 33aa 673f 1d08 703f 3503 7e3f bee0 713f
00000030: ea53 763f 8067 693f 90ff 763f f496 703f
00000040: 0e95 713f 970b 5f3f f155 793f 57f2 7e3f
00000050: 5df9 633f c943 7a3f 3af3 803f b1ce 7e3f
00000060: f7d6 7f3f d886 653f 2ccc 703f 822f 773f
00000070: cf18 653f f74a 623f 2dcf 6e3f 631e 743f
0.9695984 1.0151997 0.96543264 0.93209857 0.9547283 0.99451107 0.9846775 0.9922102
0.9049408 0.9376238 0.99223644 0.94483554 0.9622179 0.91173553 0.9648371 0.93980336
0.94368064 0.8712706 0.9739676 0.9958853 0.89052373 0.9775968 1.0074227 0.99534136
0.99937385 0.8965888 0.9406154 0.96556866 0.8949098 0.8839564 0.93284875 0.95358866

normalizations.1.bias f4 [32]
00000000: 76cd da3c af0c 053d ebb8 f7bc f99f 01bd
00000010: 9199 87bc e4aa ef3c cf2a c7bb 6012 bf3c
00000020: 8415 6bbd 0c78 14bd d4c3 81bb 7e37 93bb
00000030: 4eae f3ba 9552 5dbd ab5d c93a 06ee 9ebd
00000040: 9a2e 103c 939b d8bd 8e48 913c b84a 5b3d
00000050: 96bb d5bd 32d1 fe3b 2768 0e3d 34c3 db3c
00000060: d862 3e3d d3ed c0bd 5dad 153c 5605 4cbc
00000070: 0d27 f3bd 67b4 c8bd 580d 3ebd 9c43 82bb
0.0267093 0.0324828 -0.030239543 -0.031646702 -0.016552718 0.029256292 -0.006078101 0.023324192
-0.057393566 -0.036247298 -0.003960112 -0.004492699 -0.0018591376 -0.054033834 0.0015362998 -0.07760243
0.008800173 -0.105765484 0.017734792 0.053538054 -0.1043617 0.007776403 0.034767296 0.026826479
0.046480983 -0.09420361 0.009135571 -0.012452444 -0.11872683 -0.09800034 -0.046399444 -0.003975345

normalizations.1.running_mean f4 [32]
00000000: f5e0 6ebf bb51 1dbf 55bd 893e fdc5 4cbf
00000010: 3ae3 4e3e 37a6 5fbe 7474 cb3e f0c9 2f3e
00000020: 0127 943e 3af2 cf3d c870 1f3e a73a 97be
00000030: d7ac a13e 65eb 40bd d02a ddbe 9982 a5bf
00000040: 6b11 43bf aa90 54bf 7c45 923e 5ff5 8e3f
00000050: 7bb8 60bf 78a3 9f3f ddd0 e63d 8f2e c53b
00000060: b132 4b3f 3617 703f 1a14 5d3f 0178 11bd
00000070: 5061 e23e 177b 1cbf 6902 00bf 4cbf 1fbf
-0.9331201 -0.61452836 0.2690226 -0.79989606 0.20203868 -0.2184075 0.39737284 0.17166877
0.28936008 0.10153623 0.15570366 -0.29536936 0.3157718 -0.04709949 -0.43196726 -1.293048
-0.7619845 -0.8303324 0.28568637 1.1168631 -0.87781495 1.2471762 0.11270306 0.006017513
0.79374224 0.9378542 0.863588 -0.035514835 0.4421487 -0.6112532 -0.5000368 -0.6240127

normalizations.1.running_var f4 [32]
00000000: 98bc 4c3f 2865 663f 5683 003e 881c ce3f
00000010: 6bfe 1a3f 30d0 b83f d712 1f3f c784 d13f
00000020: 0470 cf3f 2f16 2d40 1ea3 af3e 13be bc3f
00000030: c965 713f fc64 af3f 27db f63f fb10 3440
00000040: 34f6 903f 06f4 8c3f 97cd ec3f e780 4e3f
00000050: bfa4 793f 2d1e 433f fa72 573f 59ad 3c40
00000060: 61e8 2040 2027 213f c3b4 383f 79ba 713e
00000070: 8c52 133f 636f a43f 1493 ad3e efd5 8240
0.7997527 0.899981 0.125501 1.6102457 0.6054446 1.4438534 0.6213812 1.6368645
1.620606 2.704479 0.34304136 1.4745506 0.94295937 1.3702693 1.928563 2.8135364
1.1325135 1.101197 1.8500241 0.8066544 0.9751701 0.7621792 0.84159815 2.9480803
2.5141833 0.62950325 0.7215082 0.2360629 0.5754783 1.2846493 0.33901274 4.088615

exp_avg f4 [64, 10]
00000000: 40f8 6838 78b4 e1b9 92bf 0eba 2c28 503a
00000010: 9c36 5d3a f469 7cba f3b4 f83a 24b8 193a
00000020: 30f6 c039 fc96 be39 f5f2 04bc f1e2 aebb
00000030: ba44 ccbb 258e e2bb 0880 96bb 2d5d debb
00000040: 293e debb 2653 efbb 26f9 dabb cc9a c2bb
00000050: 68a0 063a ae4f 643a 5c30 6d3a 6057 613a
00000060: 0c54 1639 2a12 a539 7a8f 3f3a 47e8 b339
00000070: 0584 2e3a 928e 5038 a384 89b9 44d7 4fb9
00000080: a645 da38 7fdc 6838 2e54 d0b9 00fc b4b8
00000090: 33ca 103a 9c7f 1039 182f 2e39 ae5f c339
000000a0: 7e47 aeb9 c01d 5f37 80df 2335 9142 9bb9
000000b0: d55f ae39 1041 6c37 7a10 44b9 5cb1 c439
000000c0: 5b11 1b3a a897 7b39 7e78 68ba 9bdb f2b9
000000d0: 3c46 3aba fb5e 02ba a0c4 5cb9 28e5 8ab9
000000e0: f11e 23b9 db1c 26ba 1ecf 9bb9 f612 9db9
000000f0: 68c8 6fb8 ace6 6e39 9ea4 cd38 a214 b139
00000100: d3da a439 0cb2 7b39 20d7 39b7 3fcc 98b7
00000110: eca1 123a 9e80 ce39 f18e 8a38 517a 3239
00000120: b93c f639 c4ae ee39 3e32 4e3a 8ed5 673a
00000130: 02c0 8339 0f4f 393a 9911 893a 8959 953a
00000140: a14f 8fbb 614f f4ba fcff 1abb a7a6 a4bb
00000150: dea0 54bb 6e03 30bb aeee 5ebb ac94 36ba
00000160: f255 7aba 7875 01bb 82b6 06ba 900c 0e38
00000170: f404 bfb9 1e38 27ba baa8 c7b9 dc40 50ba
00000180: a443 87b9 72b5 26ba 1c8e 93b9 62c4 deb9
00000190: f8d0 9bb8 f0d0 9e36 2ed4 0db9 9588 0e39
000001a0: 50a0 13b9 9c95 21b8 7432 4c38 28ac ff37
000001b0: c613 1cb9 8efb 50b8 293c 0fb9 726e e238
000001c0: 7015 2239 5e53 4239 c343 1ab9 7e2f 54b9
000001d0: 7211 1f38 da85 9db9 9303 90b8 b8b6 c2b9
000001e0: 09cc 233b 5097 c63a 0a20 253b 682c 1c3b
000001f0: a911 b73a eb48 453b e76b 0f3b e7e1 293b
00000200: 97d2 633b 5c4e 3e3b 72fd a7b8 f4d7 53b9
00000210: e0cc 2fb6 958d 4139 1772 0738 8cc0 93b6
00000220: 0cd6 9039 6483 6439 ba0b 4639 b666 8139
00000230: fa64 6db9 1700 00ba 6798 56b9 e8c5 f4b9
00000240: b1c8 e4b9 a008 5a39 4fa2 97b9 3d45 dd39
00000250: 16f0 cb39 990b 3aba 960b f9b8 80c1 7035
00000260: 6476 68b8 6ed0 b6b8 f663 69b8 ccd4 11b7
00000270: 202b c638 74a9 e636 ee66 0039 1330 9038
00000280: 363f 6638 7f5a 9b39 157c 0b39 88f8 5c38
00000290: d42d 80b8 34e3 7938 f28e 19b9 2075 79b8
000002a0: 5fa7 76b9 c37f 19b9 b0e9 85b7 fbac 4cb9
000002b0: 0571 a738 cacf 2db9 16c4 efb7 0338 1b39
000002c0: a01b 26b6 07f4 7f39 df47 be39 ffa4 c0b9
000002d0: 0078 34b4 c8b8 bb39 bca3 e8b9 5896 4a3a
000002e0: 7239 bfb8 cd09 463a be91 103a e2de 273a
000002f0: 3f17 7339 f8be 63b9 4221 49bc 2c27 36bc
00000300: a30b 26bc f590 35bc b629 22bc 5272 47bc
00000310: 00d1 3cbc 5e78 34bc 2b86 6abc 4666 63bc
00000320: bc7e 42b8 cd4d c439 00be 073a 2591 f139
00000330: 08d6 113a f6df 083a 1ced 143a 7acb 203a
00000340: c668 1a39 5e3b 083a f405 ec3a 2628 b53a
00000350: 7ae5 e93a 135b 393a 8479 103b 9326 bb3a
00000360: d811 823a 9542 333b c8b0 163b 15e4 ed39
00000370: 7038 deb9 fb45 88b9 ae05 13b9 1d8a 0139
00000380: 23a0 243a 1243 a238 a2fd 0cb9 d2ae 853a
00000390: b52a 7f3a 2c43 3e3a 42b4 87b9 e469 0239
000003a0: fee8 2539 a00c 3037 decc 9938 3aea 0338
000003b0: dcfc 5639 422e 8d39 1a9c 0a38 0a0f de38
000003c0: 033f 173b 2e76 ab3a 0766 803a 2f4a cc3a
000003d0: 468a 343a a8bd 193a a469 683a 2485 403a
000003e0: 5ab5 7939 f97d e839 56c3 e1b9 b43a f039
000003f0: 1aae f639 8de9 d6b9 64b9 b93a bc68 963a
5.554431e-05 -0.00043049804 -0.00054454163 0.00079405564 0.00084386184 -0.00096288254 0.0018974826 0.0005863926
0.00036804518 0.00036352116 -0.008114566 -0.005337112 -0.006233779 -0.0069139176 -0.0045928992 -0.0067860098
-0.0067823124 -0.0073036132 -0.006682533 -0.0059388634 0.0005135597 0.0008709383 0.00090480386 0.0008596089
0.00014336425 0.00031484786 0.00073074515 0.000343146 0.00066572457 4.9723843e-05 -0.00026229498 -0.00019821251
0.00010408023 5.5518463e-05 -0.0003973557 -8.6300075e-05 0.0005523294 0.00013780448 0.00016611477 0.00037264585
-0.00033241132 1.32987625e-05 6.104747e-07 -0.000296135 0.00033259267 1.4081845e-05 -0.00018698155 0.00037516176
0.0005915367 0.00023993722 -0.00088680524 -0.00046321456 -0.00071058027 -0.00049732596 -0.00021054083 -0.00026492146
-0.00015556418 -0.0006336697 -0.00029718218 -0.000299595 -5.7168683e-05 0.0002278338 9.805824e-05 0.00033775443
0.00031443554 0.00024003553 -1.1076947e-05 -1.8214922e-05 0.0005593586 0.0003938721 6.606978e-05 0.00017020969
0.00046966018 0.00045525108 0.0007865763 0.0008843773 0.00025129324 0.00070689706 0.0010457515 0.0011394481
-0.004373506 -0.0018639379 -0.0023651114 -0.0050247493 -0.0032444517 -0.0026857513 -0.0034016776 -0.0006964903
-0.000954955 -0.0019753855 -0.000513889 3.3867138e-05 -0.0003643405 -0.00063789065 -0.0003808195 -0.0007944235
-0.00025799603 -0.0006359435 -0.00028143905 -0.00042489456 -7.4298994e-05 4.7330905e-06 -0.00013525851 0.00013593056
-0.00014078734 -3.8524726e-05 4.868438e-05 3.0478535e-05 -0.00014884686 -4.9825343e-05 -0.00013659954 0.00010797092
0.0001545751 0.00018532338 -0.00014711828 -0.00020235588 3.79248e-05 -0.000300451 -6.867121e-05 -0.000371387
0.002499344 0.0015151296 0.0025196099 0.002383018 0.0013967055 0.0030103277 0.0021884383 0.0025922002
0.0034762973 0.0029038405 -8.0103884e-05 -0.00020202977 -2.6196285e-06 0.00018458658 3.2292763e-05 -4.403357e-06
0.00027625298 0.00021792721 0.0001888712 0.00024681323 -0.00022639698 -0.0004882826 -0.00020465405 -0.00046686758
-0.00043637076 0.00020793313 -0.00028921894 0.0004220399 0.00038898055 -0.0007097065 -0.00011875403 8.9688547e-07
-5.542337e-05 -8.717259e-05 -5.5644625e-05 -8.692219e-06 9.4494084e-05 6.874261e-06 0.00012245376 6.8754096e-05
5.4895143e-05 0.0002963133 0.00013302297 5.268355e-05 -6.112052e-05 5.9577826e-05 -0.00014644468 -5.9475307e-05
-0.00023522739 -0.00014638812 -1.5963655e-05 -0.00019519396 7.984232e-05 -0.00016575973 -2.858233e-05 0.00014802818
-2.4752007e-06 0.00024409602 0.00036293172 -0.00036744025 -1.6807462e-07 0.00035805092 -0.0004437248 0.00077280914
-9.11829e-05 0.0007554561 0.00055148813 0.00064037566 0.00023182946 -0.00021719548 -0.012275996 -0.011117738
-0.01013461 -0.011081924 -0.00989764 -0.012173252 -0.011524439 -0.011015026 -0.014314215 -0.013879364
-4.6371235e-05 0.00037442 0.00051781535 0.00046075243 0.0005563204 0.0005221361 0.0005681084 0.0006133836
0.00014725616 0.00051968347 0.0018007145 0.0013821169 0.0017844879 0.0007070761 0.0022045085 0.0014278464
0.0009923531 0.0027352918 0.0022993553 0.00045374097 -0.0004238519 -0.0002599208 -0.00014021128 0.0001235385
0.0006279966 7.737255e-05 -0.00013445926 0.0010199195 0.0009733842 0.0007257934 -0.0002588351 0.00012437213
0.00015822423 1.0493357e-05 7.333768e-05 3.1450974e-05 0.00020502828 0.0002692808 3.3047145e-05 0.00010588586
0.002307833 0.0013081485 0.0009796032 0.0015586073 0.00068870594 0.0005864748 0.00088658393 0.0007344058
0.00023814049 0.00044344345 -0.0004306088 0.00045820104 0.00047050492 -0.0004099127 0.0014169631 0.0011475305

exp_avg_sq f4 [64, 10]
00000000: 46fd 823b c32c 623b 99c2 853b aa04 853b
00000010: bd30 853b c2a4 843b 5ac8 6f3b 126e 8b3b
00000020: f60a 5e3b c0da 733b 294c d33b 5507 c53b
00000030: efae cc3b c104 d63b 6aee d13b 17d5 cc3b
00000040: 480f c73b bf01 ce3b 8888 d13b 8cd2 ce3b
00000050: 045d c138 15e5 9338 e5c3 7338 d1a7 1d38
00000060: f157 6f38 7f53 3b38 3f65 5438 a260 1d38
00000070: 8b91 7538 4555 2938 ed98 2538 e958 e037
00000080: 7911 2d37 bf48 1e38 d2fe c037 8b7f 1338
00000090: 68e3 9437 cd70 a737 8d0d 8537 193f ac37
000000a0: a4a7 7e37 9947 5937 bf20 9c37 725a 9e37
000000b0: 2ffd 8337 12f9 d637 a64e d737 bbea ba37
000000c0: 580f 5438 1590 2638 e5e4 0037 e4e0 5c36
000000d0: 6559 d536 7302 8636 2147 ec35 1962 6c36
000000e0: ae7e 0b36 562d bb36 dc72 5236 58a3 2236
000000f0: c9bb a536 eeac 6c36 96d6 7036 d8d4 2d36
00000100: 5a84 0f36 daea e535 4485 0a36 e724 3f36
00000110: 0cef a736 feef a036 58e7 5936 9d0d bd36
00000120: 7e92 1c37 98c2 f936 5bb5 3137 0e13 2c37
00000130: 68da 5d37 913d 9337 2c7a 8b37 3f72 df37
00000140: bb3a eb3a 275f df3a b7d2 aa3a 11d7 ae3a
00000150: 9f9a be3a 6f8b a83a 32a6 bc3a 8596 a03a
00000160: 0dd1 953a 85ba 963a 8445 8038 604f a438
00000170: 8e15 8c38 6b27 d738 d122 db38 0105 bb38
00000180: 93c1 f638 63ca 0739 a4e7 af38 ac4e 1a39
00000190: 3d9f a135 4429 ea35 370e f235 9dcf 9f35
000001a0: 7fb5 cb35 c36d 1436 c29a 2836 a67b 6c36
000001b0: d91a 8036 f4f4 7036 0c2e ce37 d871 d537
000001c0: 8c3b 8e37 e029 1838 1de2 9d37 c9d1 1438
000001d0: 1b85 3c37 d344 1c38 c228 f337 a414 8c37
000001e0: f86b 9a3b e846 753b 9936 863b 8053 8d3b
000001f0: bad6 6c3b 7e1c 8c3b 65ec 683b f374 893b
00000200: 2f08 753b 5240 7c3b cfaf 1635 5d56 6235
00000210: beab 4035 9ce2 2e35 d6e9 a735 1240 3835
00000220: 29e1 9f35 9249 fa35 7b82 8f35 f8b8 e535
00000230: 9062 ce37 6a5b 0838 3448 d037 1e59 b137
00000240: 71ec 8937 37d1 0f38 1124 3638 deee ac37
00000250: 6aca 9037 46ca 1238 37c9 d434 6441 a834
00000260: 6361 9934 7fb6 e334 19d6 9034 da28 8e34
00000270: a006 9f34 0193 8c34 2edd 0735 029d 0435
00000280: 4741 cd35 f959 2335 011a 9135 4e05 1835
00000290: 7078 3235 1f6e 6735 e360 3735 3b95 c235
000002a0: a52c 6935 f7f9 2535 fe52 0536 4bdd 1436
000002b0: 479a 8d35 134d 6335 e7b4 b635 11b4 af35
000002c0: 0ba1 a735 0a34 e635 4524 7135 80ce b435
000002d0: f421 c639 a014 e439 9f42 b539 5eff a839
000002e0: cb9e c039 0cdf a539 cdb2 0f3a 2e99 d339
000002f0: 3bed f639 c3be fa39 6df2 ce3b 8042 e53b
00000300: d546 ef3b 3e63 ea3b db66 ec3b 1b51 e73b
00000310: 3ee3 ea3b 0863 dd3b 9e9a f63b 78a9 ee3b
00000320: a8ba d937 d7b4 4e38 4d46 8d38 6867 b538
00000330: 68b3 b438 89ec 6838 bcf9 bc38 198b a538
00000340: b791 8838 ed3d a238 602a d33b ec0a de3b
00000350: 3eb5 cf3b 23c6 e13b 82a3 ed3b 6e76 fb3b
00000360: 3670 f43b aff2 d63b 5e89 e13b dd9f e53b
00000370: 57f4 2739 2155 2a39 ed49 0e39 e299 3139
00000380: af2e 3639 9ef5 5a39 53bc 5439 5790 2439
00000390: 8d13 8439 e723 9039 ab40 fc35 307c ce35
000003a0: 9fe5 0e36 acba 9635 2968 5c35 9c37 5435
000003b0: 0b7b 9635 90a6 a335 bd8a 5035 8fc4 8735
000003c0: d94e e339 777f b839 9130 d239 040a cc39
000003d0: 7ef5 9239 e0a8 c339 a1e3 6139 113e a139
000003e0: 89f9 8a39 7435 4e39 e51f 4e37 1800 c837
000003f0: 8004 9f37 c9b4 4337 cb15 a137 1876 3837
0.0039974777 0.0034511543 0.0040820357 0.004059394 0.004064648 0.004047961 0.0036587925 0.0042550648
0.0033881045 0.0037209243 0.006448288 0.006012837 0.0062464396 0.0065313284 0.006406595 0.006250988
0.0060748197 0.0062868292 0.0063944496 0.0063117202 9.220283e-05 7.052176e-05 5.8118156e-05 3.7588008e-05
5.7063942e-05 4.4662036e-05 5.063903e-05 3.7521713e-05 5.85481e-05 4.0372153e-05 3.948149e-05 2.6744283e-05
1.0315672e-05 3.7737886e-05 2.3006844e-05 3.5166315e-05 1.774887e-05 1.9960478e-05 1.5861146e-05 2.053338e-05
1.5178612e-05 1.2950878e-05 1.8611898e-05 1.8877185e-05 1.5734315e-05 2.562677e-05 2.566662e-05 2.2282233e-05
5.055903e-05 3.971167e-05 7.682688e-06 3.2913458e-06 6.3583016e-06 3.9937963e-06 1.7604071e-06 3.522384e-06
2.0786351e-06 5.578312e-06 3.1359295e-06 2.423496e-06 4.9392443e-06 3.5267399e-06 3.5887692e-06 2.59029e-06
2.13857e-06 1.713018e-06 2.0641173e-06 2.8482698e-06 5.0048166e-06 4.7963103e-06 3.247018e-06 5.6342237e-06
9.3324325e-06 7.443432e-06 1.0592247e-05 1.0256435e-05 1.3223478e-05 1.7552435e-05 1.6626982e-05 2.6636872e-05
0.001794658 0.0017041907 0.0013032769 0.0013339241 0.001454193 0.0012858937 0.0014392792 0.001225189
0.00114301 0.0011499679 6.116464e-05 7.834914e-05 6.679735e-05 0.00010259341 0.00010449219 8.917787e-05
0.0001176625 0.00012949998 8.387797e-05 0.00014715892 1.2041779e-06 1.7446368e-06 1.8034542e-06 1.1906847e-06
1.5177501e-06 2.2117608e-06 2.5124032e-06 3.5238713e-06 3.8178227e-06 3.5905368e-06 2.4578556e-05 2.5444591e-05
1.6955448e-05 3.6278623e-05 1.882115e-05 3.5481327e-05 1.1236664e-05 3.7257396e-05 2.8986837e-05 1.6698912e-05
0.004712578 0.0037426297 0.004095864 0.0043129325 0.003613873 0.0042758575 0.0035541293 0.0041948496
0.003738891 0.0038490486 5.613519e-07 8.4317236e-07 7.177549e-07 6.514981e-07 1.2510525e-06 6.8638576e-07
1.1911953e-06 1.8647863e-06 1.0692305e-06 1.7115663e-06 2.460301e-05 3.2510063e-05 2.4829154e-05 2.1141543e-05
1.6441774e-05 3.4288703e-05 4.342577e-05 2.0615229e-05 1.7260394e-05 3.4997494e-05 3.963448e-07 3.1340016e-07
2.856933e-07 4.2414828e-07 2.6977867e-07 2.6479285e-07 2.9620878e-07 2.6183992e-07 5.061328e-07 4.940231e-07
1.5292688e-06 6.085316e-07 1.081091e-06 5.663213e-07 6.6485427e-07 8.6214453e-07 6.83138e-07 1.4497558e-06
8.686423e-07 6.1831037e-07 1.9866852e-06 2.2182528e-06 1.0550219e-06 8.467625e-07 1.3612706e-06 1.3090922e-06
1.2489339e-06 1.7151481e-06 8.9832275e-07 1.3471144e-06 0.000377908 0.00043502916 0.00034572647 0.0003223372
0.00036739404 0.00031637435 0.00054816605 0.00040359184 0.00047097527 0.00047825844 0.0063155205 0.006996453
0.007302145 0.007152944 0.0072144098 0.007059229 0.0071682027 0.00675619 0.007525756 0.007283386
2.5955334e-05 4.9282648e-05 6.7364985e-05 8.6500135e-05 8.616486e-05 5.55334e-05 9.011055e-05 7.893722e-05
6.512127e-05 7.7362965e-05 0.0064442605 0.0067762043 0.0063387444 0.006890075 0.0072521577 0.00767403
0.0074596656 0.006559692 0.0068828305 0.0070075826 0.00016017385 0.00016244176 0.00013569715 0.00016937361
0.00017374264 0.000208816 0.00020288052 0.0001569403 0.00025191568 0.0002749257 1.8794284e-06 1.5384339e-06
2.1293306e-06 1.12302e-06 8.210796e-07 7.9057077e-07 1.1211681e-06 1.2192922e-06 7.768793e-07 1.011549e-06
0.0004335556 0.00035190184 0.00040090506 0.00038917374 0.00028030196 0.0003731912 0.0002154247 0.00030754556
0.0002650733 0.00019665604 1.2285983e-05 2.3841902e-05 1.8956373e-05 1.1664998e-05 1.9202844e-05 1.09947505e-05

exp_avg f4 [64]
00000000: ab7e 39b0 4457 88b0 3a8c 752f 8185 1f2e
00000010: 1262 87af ce4e 9f2e da4a 802d 828b 45af
00000020: 0c03 f72e 388f ea2f b074 bb2e 4d4a aaae
00000030: fe50 ba2f 116c 3f2e bd23 81af 33e6 ba2e
00000040: 0ebc 86ae 2b10 00ae b8cf 322f 7c25 c62f
00000050: e204 f2ae fd8e 8630 24a0 80af 54dd a5ae
00000060: fc85 f8ae 615d b72f 66af d02e 7bff da2f
00000070: 609e 9daf 9725 e42f ae6a 0b30 3470 4d2f
00000080: b057 9eac 88c7 2bae 17cc 0c2f 90e3 ba2c
00000090: 200f ab2e 8e9f e7b0 76b9 53af 6ff8 d4ae
000000a0: b042 ecae fcc3 caad 00fd 122f 162d 5b2f
000000b0: 8014 e72d 10e8 ef2e 0e55 9b2e ec66 612e
000000c0: f4e5 4fae 7069 baae a77a daae 94b6 1fb0
000000d0: 7bd7 04b0 78cf 73ae d0c5 eead d9af 2730
000000e0: 43a0 9a2f 3781 902e bfe2 22af 13f3 bdad
000000f0: dcb7 d0af 8beb 0e30 af40 dbae 1a50 6fae
-6.7482614e-10 -9.920105e-10 2.2332439e-10 3.627099e-11 -2.462604e-10 7.2444814e-11 1.4585156e-11 -1.7966609e-10
1.1232801e-10 4.2666115e-10 8.524503e-11 -7.7439034e-11 3.389075e-10 4.3524354e-11 -2.3490357e-10 8.499192e-11
-6.12702e-11 -2.911819e-11 1.6262802e-10 3.6042624e-10 -1.1005753e-10 9.790423e-10 -2.339685e-10 -7.542647e-11
-1.1301535e-10 3.3353856e-10 9.489902e-11 3.98355e-10 -2.8670666e-10 4.1499668e-10 5.0719506e-10 1.8684504e-10
-4.5003654e-12 -3.9058118e-11 1.2805433e-10 5.3117025e-12 7.7788664e-11 -1.685281e-09 -1.9256227e-10 -9.6847745e-11
-1.07438836e-10 -2.3051776e-11 1.3368506e-10 1.9933952e-10 2.6270763e-11 1.0909684e-10 7.063693e-11 5.125049e-11
-4.727059e-11 -8.47703e-11 -9.93528e-11 -5.810332e-10 -4.8327536e-10 -5.5436072e-11 -2.7145314e-11 6.100414e-10
2.812631e-10 6.571315e-11 -1.481437e-10 -2.1594759e-11 -3.796562e-10 5.1994026e-10 -9.970457e-11 -5.4413453e-11

exp_avg_sq f4 [64]
00000000: d8b6 f223 6850 8024 7868 4e23 66db e422
00000010: 159f 9022 96c5 b021 7094 f421 907a 3522
00000020: e1de 3024 f283 4f23 5673 8521 0cb9 3b22
00000030: a0e8 a923 fb5e fd20 7fd4 ef22 6260 8c20
00000040: ab28 0d21 3232 8e21 620f 1624 f18b a824
00000050: 1612 cb22 24e0 cd24 bb94 e322 aac9 5021
00000060: 077e 6823 bbe2 7622 90b9 3022 090c cd21
00000070: f6c2 3824 570c 2e22 a30e 0324 262f 4622
00000080: 39b1 da21 c99b 2d23 0deb 1e23 9119 1822
00000090: 89a4 1224 d295 ca23 cac8 1522 0b5a bd20
000000a0: 190d 1622 b639 8c21 4098 4b22 bac5 6323
000000b0: 84c6 7221 3fa5 5121 5275 4522 8655 5222
000000c0: e0a2 a421 85c4 de23 24ce e521 f3f4 7e23
000000d0: 5d0e 6323 78f3 6324 9d7a 5223 379b de23
000000e0: 6655 9423 64ec 2a23 c1ff 0623 2a3e 3b21
000000f0: ae56 7922 edfa ae23 5e3d 6122 9e25 2721
2.631513e-17 5.5647365e-17 1.11894045e-17 6.203182e-18 3.9199713e-18 1.1978524e-18 1.6573374e-18 2.4594958e-18
3.8352702e-17 1.1249433e-17 9.04296e-19 2.5441189e-18 1.8421537e-17 4.292272e-19 6.500607e-18 2.3780703e-19
4.782648e-19 9.635581e-19 3.2539095e-17 7.3095456e-17 5.504241e-18 8.928429e-17 6.1685948e-18 7.074004e-19
1.26034325e-17 3.3459247e-18 2.3950684e-18 1.3894526e-18 4.0063778e-17 2.358793e-18 2.8418495e-17 2.6858964e-18
1.4819165e-18 9.4113376e-18 8.614971e-18 2.0613376e-18 3.179807e-17 2.1964335e-17 2.0299562e-18 3.207743e-19
2.0335725e-18 9.502045e-19 2.759223e-18 1.2347565e-17 8.225552e-19 7.1030656e-19 2.6760587e-18 2.8505583e-18
1.1156185e-18 2.4152517e-17 1.5572209e-18 1.3821238e-17 1.2308736e-17 4.9429005e-17 1.1410087e-17 2.4135024e-17
1.608236e-17 9.265776e-18 7.3183126e-18 6.344034e-19 3.379168e-18 1.8971389e-17 3.0525674e-18 5.6631587e-19

exp_avg f4 [32, 64]
00000000: 9075 a138 861d 283a 5854 28b8 dc0f d3b9
00000010: 3c9e 843a 45b1 9a39 bb4e 2b3a e0dd 0d3a
00000020: b625 d8ba 404a 83ba 882d 9f39 1cae 43b9
00000030: 0dc0 4d3a c890 bcb8 462e 8eb9 ca20 683a
00000040: 0af2 e1b8 21b5 a539 b4d5 29ba c88b b2ba
00000050: 1d35 97b9 e135 b4b8 f5f1 8d3a 5c45 a239
00000060: 8cc5 9c39 a444 09ba fec3 273a d637 b0b8
00000070: 1095 b137 f0d2 cab9 5d4f 0fbb 5405 b7b9
00000080: 249e b0b9 82d5 703a de1b 0d3a 14c2 d0b9
00000090: d0b9 63b9 1b97 c339 561c a7b8 7ac5 2939
000000a0: 68f2 d9b9 0fa2 1f39 8882 1737 c1eb dcb9
000000b0: b22b 063a 540e 0d3a c22d ed38 c8d3 8c38
000000c0: 154f 85ba 04fe 0eba 4469 96ba 4204 f0b8
000000d0: 33c1 603a 8c86 793a cc5c 9339 fba0 7939
000000e0: d068 2338 8c66 c539 adcf 0039 92e7 cd3a
000000f0: 3161 bb39 bc51 c739 1c0c 92b9 0065 ec38
00000100: b7ef aa39 ad34 7439 d19d 4339 f0a8 11b9
00000110: 5e6f 123b ab82 133a 2751 0b3b ddc3 ff3a
00000120: 5f98 1f3a 8a3f a2b9 e071 2d39 9e7f 4f39
00000130: bbda c239 5a87 a138 7270 963a cfc6 e83a
00000140: 93e0 3a39 2096 f43a c9a8 24b9 84aa 48ba
00000150: 7d9f 34ba 2995 df3a f4d4 123b e7cc 2d39
00000160: 5b86 083a 06c7 933a eb41 083b 04e6 61b8
00000170: 0820 60b7 8257 fe3a 8aab 0f3a 26f5 c739
00000180: c4ff ca3a 101e 373b 37f4 163a b039 93b9
00000190: 8538 82ba c3f3 7239 08ab 7338 9988 0e39
000001a0: 289a 7d3a 5ebd 6439 8ec3 0d3b 078b 96b9
000001b0: 9ec7 aa3a 09a7 e03a 1c5f d739 d4b9 9e38
000001c0: 5152 8e3a 0cdf dbb9 cea1 bb39 da19 ae38
000001d0: 53ef e13a 54c5 af3a b691 103a 6bcb 043b
000001e0: a8e2 df38 c7dc 233b af0c afb9 06d3 403b
000001f0: 2ed5 be39 e96a e339 5e03 8b3a 2af9 b03a
00000200: 7850 c536 b801 a637 6cd3 5036 844e 9837
00000210: f7f2 1937 e21e 1a37 ba1e 02b7 48d9 5b37
00000220: e2db 3437 ceb5 58b7 bc5a 47b6 0ceb 2337
00000230: cc93 4136 0839 a2b7 36ed 9337 138c 5537
00000240: 329a 4437 9ae3 0637 b8f4 5c37 7483 8137
00000250: c08c 04b4 6677 1b38 4c9c fc37 6209 47b8
00000260: 71ec 1337 8a5e a837 c979 8337 7c63 55b6
00000270: 2177 25b7 3a48 6036 baf0 9637 985b 93b5
00000280: 356d 5737 540f 9637 f4e6 d4b6 7060 1ab5
00000290: 24fb 94b7 2064 40b5 1483 b136 36c6 5ab5
000002a0: 3220 7337 4a89 f2b6 0d2f f637 42a2 6fb7
000002b0: 14fd 6d37 a0e3 ea36 fce4 7b37 680a 7136
000002c0: ee16 9837 dfba 9e36 5a52 6fb6 4478 36b6
000002d0: 9453 4336 00a0 0bb5 01c0 dc36 30c0 5ab5
000002e0: 96ba b636 64b6 0b37 ed47 88b7 11ae 5c37
000002f0: c800 dab5 2cfb 99b6 a886 9f37 7668 4737
00000300: 65f0 0e3b e6cf c73a 2ca3 833b f0ac 463b
00000310: c39d 4f3a cd25 d13a ec1c a13a 4ff4 373a
00000320: 506e 933a 1afd ec3a 3afe a5b9 d10e 4b3b
00000330: e091 1638 6e3a e139 a78d 803a fdc7 423a
00000340: 2ca2 a43a 82b3 253a 4a05 ee3a 80fe c738
00000350: 6af0 a93a c21e 443a 70a2 5c3a a668 bb3a
00000360: 3c1b 103b fe9f ea39 d01c 6b3a 2341 643a
00000370: 0069 053b 1a7e 973a 50a9 403a 5363 543a
00000380: afca 763a b999 5d3a eedd e43a bff8 fd3a
00000390: 6eed c93a 5019 053b 8ea9 0c3b 3f36 a43a
000003a0: ff3c 7b3a 705e f2b8 5383 6c3a b5e3 0b3b
000003b0: de64 7d3a ada0 313a 58d0 fa3a 9a57 a73a
000003c0: a8d3 6c3a f049 6fb8 7bbb 153a 1771 aa3a
000003d0: 32dc 473a fa91 653b a042 e53a 92ee 153b
000003e0: b47e 5a3a 42f0 913a bc42 ee39 5ee7 663a
000003f0: 56a3 d23a 4b77 023b 5fee 383a d1a4 8c3a
7.698976e-05 0.0006413091 -4.0132873e-05 -0.00040256872 0.0010117958 0.00029505245 0.0006534864 0.0005411785
-0.0016490731 -0.0010016635 0.00030360767 -0.0001866151 0.0007848747 -8.991506e-05 -0.00027118827 0.00088549836
-0.00010773919 0.00031606204 -0.00064786826 -0.001362198 -0.00028840537 -8.5931046e-05 0.0010829555 0.00030950725
0.00029901823 -0.00052363635 0.00063997495 -8.402734e-05 2.1169457e-05 -0.00038685603 -0.0021867373 -0.0003490845
-0.0003368716 0.00091870886 0.00053828757 -0.0003981745 -0.00021717628 0.0003730588 -7.9684585e-05 0.00016190662
-0.00041570072 0.00015223793 9.030693e-06 -0.0004213732 0.00051182054 0.0005380858 0.00011309564 6.7151675e-05
-0.0010170663 -0.00054547214 -0.0011475463 -0.00011444885 0.0008573711 0.0009518645 0.00028107164 0.0002380646
3.8959843e-05 0.0003765117 0.00012284397 0.0015709272 0.00035739833 0.00038017135 -0.00027856312 0.0001127217
0.00032603528 0.00023289277 0.0001865544 -0.00013891212 0.0022344212 0.0005627076 0.0021258087 0.0019513328
0.0006088074 -0.00030946388 0.00016540987 0.000197886 0.0003716553 7.7022894e-05 0.0011477603 0.0017759445
0.00017822003 0.0018660463 -0.00015703136 -0.00076548033 -0.00068902207 0.0017058003 0.0022404762 0.00016574898
0.0005208009 0.0011274524 0.0020791243 -5.38584e-05 -1.3358898e-05 0.0019404741 0.00054805784 0.00038138888
0.0015487601 0.0027941503 0.0005758437 -0.00028081005 -0.0009935057 0.00023169727 5.8095e-05 0.00013593062
0.0009674155 0.00021814319 0.0021631452 -0.00028713813 0.0013029461 0.0017139624 0.00041078858 7.56864e-05
0.0010858272 -0.00041937118 0.00035787973 8.301782e-05 0.0017237462 0.0013410249 0.00055148767 0.0020262848
0.00010675687 0.002500342 -0.0003338805 0.0029422655 0.00036398455 0.00043376468 0.0010605862 0.0013501991
5.8804253e-06 1.9789542e-05 3.111748e-06 1.8156374e-05 9.17608e-06 9.186306e-06 -7.755758e-06 1.3104007e-05
1.07800315e-05 -1.2916933e-05 -2.9706125e-06 9.770283e-06 2.884527e-06 -1.9338462e-05 1.7634226e-05 1.2728403e-05
1.1718412e-05 8.040015e-06 1.317e-05 1.5439211e-05 -1.2344663e-07 3.706608e-05 3.0113522e-05 -4.7454036e-05
8.816934e-06 2.0071184e-05 1.5673128e-05 -3.179738e-06 -9.862503e-06 3.3420642e-06 1.799349e-05 -1.0979011e-06
1.2840425e-05 1.7888531e-05 -6.344979e-06 -5.7509806e-07 -1.7759921e-05 -7.1671275e-07 5.2902706e-06 -8.1499763e-07
1.4491425e-05 -7.2281446e-06 2.9347395e-05 -1.4283289e-05 1.4185225e-05 7.0002425e-06 1.501408e-05 3.5917856e-06
1.813049e-05 4.7305216e-06 -3.566171e-06 -2.7190117e-06 2.9105913e-06 -5.2014366e-07 6.578863e-06 -8.1491e-07
5.445744e-06 8.327512e-06 -1.6245956e-05 1.315355e-05 -1.6242493e-06 -4.5889956e-06 1.9016981e-05 1.1885646e-05
0.0021810767 0.0015244454 0.0040172543 0.003031548 0.00079199317 0.00159567 0.0012291945 0.0007017301
0.0011248086 0.0018080801 -0.00031660666 0.0030984173 3.5898644e-05 0.00042958878 0.0009807841 0.0007430313
0.0012560538 0.0006320999 0.0018159535 9.536464e-05 0.0012965326 0.000748139 0.0008416539 0.0014298155
0.002198889 0.00044751161 0.0008968832 0.0008707216 0.0020356774 0.0011557967 0.0007349448 0.00081019587
0.00094143575 0.00084533874 0.001746116 0.00193765 0.0015405843 0.0020309277 0.0021463367 0.0012528374
0.0009583979 -0.000115570496 0.00090222544 0.002134544 0.00096662145 0.0006775957 0.0019135578 0.0012767196
0.0009034225 -5.70509e-05 0.00057118357 0.0013003674 0.0007624059 0.0035029636 0.0017491169 0.0022877795
0.000833492 0.0011134224 0.00045444618 0.000880828 0.0016070406 0.001990753 0.0007054563 0.0010730271
