models/classification/final_model.pth (torch, 47657 bytes, 34 tensors)

layers.0.weight f4 [64, 2]
-0.024636822 -0.24038933 -0.040237393 -0.12798968 -0.048992053 -0.22797585 0.062068395 -0.12145737
-0.07281054 -0.16236575 -0.10457545 -0.23414163 -0.17757487 0.0062639895 0.27900675 0.16860612
-0.2604834 0.090353034 -0.11375432 -0.28335238 -0.052092258 -0.13169809 -0.2546781 -0.2885031
-0.14256544 0.30492726 0.1122663 -0.16412188 -0.16898847 -0.26208994 -0.13565889 -0.16289233
0.18259735 0.09966618 -0.1153543 0.21177296 -0.20084307 -0.23195833 -0.0070889136 -0.20571516
-0.03786643 0.2938395 -0.09779508 -0.25301805 0.1632143 -0.21281424 0.27307004 -0.13924417
0.25063014 -0.102305256 -0.11373873 0.09967758 0.09377476 0.24694014 0.2886943 0.012409801
-0.029102055 0.0679817 -0.031148845 0.055317335 -0.1883062 -0.32983786 0.29125965 -0.06472625
0.26665714 -0.013811853 0.028220473 0.31027526 -0.11344592 -0.09684572 0.1013576 -0.0023206577
-0.3332783 0.060635112 -0.20363645 0.0049325568 0.21736334 0.022372525 -0.032299593 -0.02481886
0.34214154 0.04791062 -0.00050591223 -0.2164556 -0.12626995 0.27584258 0.29832965 0.05889363
-0.2551047 0.21608397 0.050266042 0.19542748 0.263411 0.037426338 -0.099984325 0.30909634
-0.113349006 0.24093974 -0.2491766 -0.12584202 -0.20282368 -0.18955964 0.16105394 -0.18095249
-0.25701132 0.22036974 0.19586557 0.019360144 -0.10273771 -0.16454186 -0.1470904 0.13174948
-0.1378604 -0.031546947 -0.16309758 -0.18902007 0.1727438 0.18598107 0.11091932 -0.014315379
0.32728842 0.0050655543 -0.10149734 -0.11929842 -0.061088726 0.12757726 0.0074625295 0.28746057
00000000: 29d3 c9bc 9f28 76be f7cf 24bd ba0f 03be
00000010: e4ab 48bd 8072 69be 6e3b 7e3d a4be f8bd
00000020: b11d 95bd 3543 26be a72b d6bd d3c2 6fbe
00000030: 30d6 35be 2742 cd3b f9d9 8e3e 15a7 2c3e
00000040: 155e 85be 030b b93d 06f8 e8bd 9013 91be
00000050: b15e 55bd dddb 06be 2b65 82be aeb6 93be
00000060: adfc 11be 6d1f 9c3e e0eb e53d 910f 28be
00000070: 500b 2dbe a730 86be 2aea 0abe 3fcd 26be
00000080: cdfa 3a3e c81d cc3d e03e ecbd 03db 583e
00000090: cea9 4dbe 7c86 6dbe 1e4a e8bb ffa6 52be
000000a0: d419 1bbd 2272 963e c948 c8bd 958b 81be
000000b0: a621 273e faeb 59be d6cf 8b3e 0696 0ebe
000000c0: 9852 803e 6b85 d1bd daef e8bd c223 cc3d
000000d0: fb0c c03d e0dd 7c3e bdcf 933e 7a52 4b3c
000000e0: 6f67 eebc fd39 8b3d dd2b ffbc 6e94 623d
000000f0: 57d3 40be 82e0 a8be fc1f 953e 328f 84bd
00000100: 4987 883e 1c4b 62bc 9f2e e73c 66dc 9e3e
00000110: 5656 e8bd 0d57 c6bd 9394 cf3d 2d16 18bb
00000120: 74a3 aabe 865c 783d 1386 50be 49a1 a13b
00000130: 7f94 5e3e 9646 b73c 944c 04bd ec50 cbbc
00000140: 2d2d af3e ed3d 443d 329f 04ba 89a6 5dbe
00000150: e94c 01be 3d3b 8d3e aabe 983e 723a 713d
00000160: 159d 82be 1e45 5d3e c4e3 4d3d 241e 483e
00000170: cedd 863e 5c4c 193d 95c4 ccbd e041 9e3e
00000180: 8623 e8bd e8b8 763e 2728 7fbe bbdc 00be
00000190: 03b1 4fbe ec1b 42be 53eb 243e 9c4b 39be
000001a0: fd96 83be 9ba8 613e fc90 483e 2a99 9e3c
000001b0: 2668 d2bd a97d 28be de9e 16be 56e9 063e
000001c0: 472b 0dbe 5f37 01bd 0d03 27be 7a8e 41be
000001d0: c0e3 303e d271 3e3e ab29 e33d 0d8b 6abc
000001e0: 5992 a73e f3fc a53b d6dd cfbd bb52 f4bd
000001f0: 2c38 7abd 9da3 023e 3c88 f43b 082e 933e

layers.0.bias f4 [64]
0.00019726211 -4.9076196e-05 0.000118520155 2.605986e-06 0.00053574087 -0.00018066808 -0.00023071331 0.0003103679
0.00012750938 -0.00010650517 -0.00027857535 0.00012991711 0.00021528878 0.00029330168 9.467629e-05 -0.0009315269
-0.00022625 -0.00080479495 1.9098334e-05 -0.00038891553 2.5030056e-05 7.3209434e-05 -9.869411e-05 -2.417741e-05
0.0001838812 0.00026430687 -0.0001850562 0.0008741806 -0.0015314164 0.0011837209 0.00013243021 -0.00033993495
0.00016020084 7.6958444e-05 0.00054208585 0.00023592825 -6.8148554e-05 -0.00012661389 -8.967614e-06 0.0015376124
0.000641616 -0.00012472941 0.00030082103 0.000379021 -0.00046874373 -9.5725714e-05 0.00011240762 0.0001358694
-5.084574e-06 -0.00045166892 0.00020882738 -0.00011294227 -0.000119375894 -0.00017265546 0.0007016985 0.0003099545
3.2954427e-05 9.2730945e-05 2.922713e-05 -5.0461065e-05 4.4938955e-05 -0.0007720593 0.00013974795 0.00024573965
00000000: 25d8 4e39 2ad7 4db8 068e f838 80e2 2e36
00000010: f670 0c3a b871 3db9 a2eb 71b9 e0b8 a239
00000020: 0ab4 0539 875b dfb8 c00d 92b9 5c3a 0839
00000030: 24bf 6139 49c6 9939 f28c c638 b631 74ba
00000040: 863d 6db9 e0f8 52ba 5c35 a037 5ce7 cbb9
00000050: a3f7 d137 0488 9938 fff9 ceb8 98d0 cab7
00000060: 3cd0 4039 ab92 8a39 a50b 42b9 4429 653a
00000070: cfb9 c8ba 1527 9b3a f7dc 0a39 4c39 b2b9
00000080: 96fb 2739 c064 a138 c41a 0e3a 8263 7739
00000090: faea 8eb8 a8c3 04b9 9c73 16b7 b689 c93a
000000a0: 1f32 283a ccc9 02b9 84b7 9d39 56b7 c639
000000b0: b8c1 f5b9 5ac0 c8b8 62bc eb38 2a78 0e39
000000c0: 289c aab6 facd ecb9 acf8 5a39 6bdb ecb8
000000d0: 7259 fab8 d90a 35b9 30f2 373a 6481 a239
000000e0: 8c38 0a38 8c78 c238 c92c f537 28a6 53b8
000000f0: d67c 3c38 0664 4aba 4e89 1239 9ed6 8039

layers.1.weight f4 [32, 64]
0.013171008 0.19461185 -0.09085836 -0.077943996 -0.07103146 -0.20883971 -0.24420819 -0.28820688
-0.096590355 0.005424711 -0.045772236 -0.1653641 0.14026038 -0.034537148 0.11394764 0.12533216
-0.16673362 -0.10536475 0.13646345 0.27472767 -0.06133231 0.16487817 -0.15889694 -0.100517936
0.27051756 -0.12711084 0.18926844 0.05693851 -0.15900764 0.12386509 0.20075876 0.089812905
-0.12029256 -0.081196666 -0.19117719 0.13688947 -0.06802548 -0.031510428 0.19870509 0.057618693
-0.17185865 0.2391313 0.053449474 -0.17901585 0.08398834 0.001119558 -0.025491 -0.2291551
-0.10976353 -0.31549314 0.08157203 0.21751408 -0.1613088 0.2797125 -0.14092521 -0.030353095
-0.20334868 -0.045736864 0.059452713 0.16927423 0.021499965 -0.16383015 0.09057461 0.11579235
0.048099715 -0.15403977 0.061101943 -0.012553162 0.1641709 0.016283253 -0.019396706 -0.0219424
0.08443493 -0.05784197 0.22928484 0.018651541 -0.26111796 0.08953371 -0.28980932 -0.2255143
0.06875898 -0.032747913 -0.10789368 0.2508168 -0.17535546 -0.097437955 -0.026939131 0.10151663
0.03392164 0.13972706 -0.14858058 -0.06677327 -0.060514916 0.096291274 -0.01160993 0.20392972
0.13622324 0.1365531 0.0372719 0.18930121 -0.06908939 -0.24594194 0.020088969 0.040549316
0.265371 -0.08481251 0.12803462 0.08100685 -0.06979461 -0.06383393 0.035263654 0.13166673
-0.049541634 0.03821161 -0.27130455 -0.09784092 -0.05089948 0.24283653 0.035218477 -0.036570366
-0.3126097 -0.08537098 -0.1902534 -0.13218886 0.13963088 -0.19904678 0.1326546 -0.18775551
0.021684397 0.09485334 -0.24260993 0.079897985 -0.09371336 0.07443446 0.280675 -0.047532637
-0.032267507 0.14876352 -0.028494595 -0.052965667 0.2643784 -0.17607763 -0.04925573 0.15036424
0.10829893 -0.06462506 0.028157555 -0.24004382 -0.087334126 0.116886444 -0.11601015 -0.20874739
-0.057677705 0.11224243 -0.12569876 -0.21758462 -0.14372925 0.1461173 -0.1842302 -0.052101966
-0.10726693 -0.07494801 -0.07453684 -0.15420352 -0.08937726 0.026112495 -0.28022623 -0.2226536
0.17872529 -0.031493455 -0.016680805 -0.00035342685 0.2661757 -0.13531798 -0.15617402 -0.09223892
0.0495487 -0.02725218 -0.19620715 0.12462299 -0.122406386 0.16665159 -0.19891907 0.041033346
0.009202721 -0.11831832 0.263321 -0.22379245 -0.032447025 -0.19430332 0.14251506 0.24857035
0.22103013 0.029793644 -0.11222979 0.21800947 -0.009121091 0.1614376 -0.1402036 -0.1015115
-0.19709896 0.21173204 0.054586392 -0.20365411 0.03545959 -0.066865765 -0.021646315 0.08051722
-0.113116264 0.069235794 -0.17947628 0.053364962 -0.23115277 0.057877995 0.22411336 0.27655533
0.06892375 0.17805569 0.25679386 0.0986454 0.09569102 0.04137902 0.20340848 0.18350421
-0.06255888 0.004719703 -0.14683749 0.13470575 -0.24107048 0.08312609 -0.0050630965 0.082671516
0.123079605 -0.118306674 0.15133773 0.14141747 -0.18822981 0.26499864 0.2504805 0.17737857
-0.0032992803 0.045145586 -0.1354603 -0.08163965 0.13657124 0.082336 0.102657184 -0.2120358
0.16802156 -0.11761428 0.22554596 0.19491829 0.14332385 0.23870824 0.16854778 0.15731813
00000000: 36cb 573c 5448 473e f313 babd 1aa1 9fbd
00000010: f178 91bd 14da 55be b611 7abe da8f 93be
00000020: 2ad1 c5bd c6c1 b13b ab7b 3bbd 3555 29be
00000030: 6ba0 0f3e d376 0dbd 615d e93d 1357 003e
00000040: 38bc 2abe 79c9 d7bd 13bd 0b3e 1ba9 8c3e
00000050: 9737 7bbd d3d5 283e e1b5 22be 59dc cdbd
00000060: 4781 8a3e 5829 02be 96cf 413e 5b38 693d
00000070: e6d2 22be fbac fd3d b493 4d3e d4ef b73d
00000080: f25b f6bd 704a a6bd f4c3 43be c12c 0c3e
00000090: f150 8bbd 1411 01bd 5979 4b3e 9401 6c3d
000000a0: b7fb 2fbe d6de 743e d6ed 5a3d ee4f 37be
000000b0: 1402 ac3d 22be 923a 80d2 d0bc a2a7 6abe
000000c0: b4cb e0bd 5188 a1be 3d0f a73d 03bc 5e3e
000000d0: 222e 25be 7a36 8f3e b34e 10be 0ea7 f8bc
000000e0: a33a 50be 9456 3bbd b084 733d 3956 2d3e
000000f0: b220 b03c 17c3 27be 2e7f b93d 8a24 ed3d
00000100: 3504 453d 9abc 1dbe 0846 7a3d c7ab 4dbc
00000110: 6b1c 283e 7564 853c d7e5 9ebc 8cc0 b3bc
00000120: 38ec ac3d b4eb 6cbd a5c9 6a3e 1ecb 983c
00000130: 41b1 85be 735d b73d e361 94be 38ed 66be
00000140: 82d1 8c3d ad22 06bd 5df7 dcbd 0f6b 803e
00000150: 6290 33be 8d8d c7bd 74af dcbc f3e7 cf3d
00000160: 6bf1 0a3d 9c14 0f3e 8225 18be 6dc0 88bd
00000170: 7dde 77bd 5c34 c53d 9337 3ebc f4d2 503e
00000180: 1b7e 0b3e 93d4 0b3e 6baa 183d 2dd8 413e
00000190: bd7e 8dbd 34d8 7bbe 9f91 a43c 0a17 263d
000001a0: b5de 873e 2eb2 adbd 821b 033e ebe6 a53d
000001b0: 7af0 8ebd 5dbb 82bd 9f70 103d a5d3 063e
000001c0: 2bec 4abd c783 1c3d 6ee8 8abe d260 c8bd
000001d0: f97b 50bd 24aa 783e 4041 103d cfca 15bd
000001e0: 610e a0be fbd6 aebd cad1 42be 845c 07be
000001f0: 66fb 0e3e ebd2 4bbe 9cd6 073e fb42 40be
00000200: 7aa3 b13c 7842 c23d bd6e 78be 8ea1 a33d
00000210: caec bfbd 1871 983d a2b4 8f3e 95b1 42bd
00000220: ef2a 04bd 7755 183e 7f6d e9bc 87f2 58bd
00000230: 9b5c 873e b24d 34be 60c0 49bd 15f9 193e
00000240: d4cb dd3d 255a 84bd acaa e63c 0cce 75be
00000250: 3cdc b2bd 2962 ef3d bb96 edbd e0c1 55be
00000260: 753f 6cbd 5cdf e53d 2db7 00be 81ce 5ebe
00000270: c32d 13be c69f 153e d7a6 3cbe df68 55bd
00000280: c4ae dbbd 587e 99bd c5a6 98bd 87e7 1dbe
00000290: 6d0b b7bd dfe9 d53c d079 8fbe 4eff 63be
000002a0: c303 373e 48ff 00bd 2fa6 88bc 264c b9b9
000002b0: 2e48 883e cc90 0abe 15ec 1fbe c2e7 bcbd
000002c0: 94f3 4a3d f73f dfbc 87ea 48be 573a ff3d
000002d0: 33b0 fabd b7a6 2a3e 71b1 4bbe 9512 283d
000002e0: 02c7 163c e050 f2bd 03d2 863e d929 65be
000002f0: 2ce7 04bd 73f7 46be 78ef 113e 3a89 7e3e
00000300: b955 623e cd11 f43c bbd8 e5bd e03d 5f3e
00000310: a170 15bc e64f 253e 8891 0fbe 43e5 cfbd
00000320: 4fd4 49be 49d0 583e fb95 5f3d b48a 50be
00000330: 133e 113d ebf0 88bd 9d53 b1bc 36e6 a43d
00000340: 80a9 e7bd 7fcb 8d3d a1c8 37be 3895 5a3d
00000350: 50b3 6cbe 7a11 6d3d f97d 653e a998 8d3e
00000360: e527 8d3d 3b54 363e 7c7a 833e 9906 ca3d
00000370: a7f9 c33d 0c7d 293d 504a 503e 87e8 3b3e
00000380: df1e 80bd bda7 9a3b 915c 16be 4ef0 093e
00000390: 2edb 76be 033e aa3d 55e8 a5bb af4f a93d
000003a0: 2911 fc3d c54a f2bd 47f8 1a3e becf 103e
000003b0: 51bf 40be e7ad 873e fb3e 803e baa2 353e
000003c0: bd38 58bb 94ea 383d 1bb6 0abe b032 a7bd
000003d0: 55d9 0b3e c79f a83d ee3d d23d ea1f 59be
000003e0: d80d 2c3e c1df f0bd 85f5 663e a998 473e
000003f0: 7dc3 123e ef6f 743e ca97 2c3e 0118 213e

layers.1.bias f4 [32]
-6.729466e-05 2.9073221e-06 7.363883e-05 2.4678162e-05 -0.00015064387 6.846464e-05 0.000101145226 -0.00022901036
0.00012848788 3.635847e-05 -7.927271e-05 -0.00016343332 2.2293887e-05 0.00010783298 5.62872e-05 -6.426541e-05
-2.738844e-05 -0.00010458084 5.1467505e-06 6.38934e-05 0.00010116938 -5.2071548e-05 -1.7945009e-05 5.80407e-05
-4.8442853e-05 0.00010011712 -3.1152027e-05 8.122211e-05 -8.625822e-05 -1.9175657e-05 -6.13431e-05 4.5798763e-05
00000000: 8c20 8db8 6a1b 4336 8c6e 9a38 f303 cf37
00000010: 28f6 1db9 ac94 8f38 ee1d d438 8022 70b9
00000020: b4ba 0639 9c7f 1838 363f a6b8 4c5f 2bb9
00000030: c203 bb37 6424 e238 ec15 6c38 3bc6 86b8
00000040: 3ac0 e5b7 6952 dbb8 40b2 ac36 82fe 8538
00000050: e62a d438 6667 5ab8 9d88 96b7 ba70 7338
00000060: 1e2f 4bb8 f8f5 d138 3ca9 02b8 ca55 aa38
00000070: 87e5 b4b8 69db a0b7 53a5 80b8 0c18 4038

layers.2.weight f4 [3, 32]
-0.17310293 -0.2321693 0.019922856 0.14302805 -0.4784125 -0.14007162 0.2936594 0.20209871
0.3843936 -0.14046 -0.34748358 -0.2617566 -0.3350728 -0.276763 0.21322004 0.12051035
-0.2187384 0.36107367 0.058126222 0.16026224 -0.24308728 0.38245505 -0.4235856 0.39776403
-0.37054497 0.23406102 -0.23060721 0.26900232 -0.31333348 -0.0023758453 -0.23332238 -0.36582154
-0.15137088 -0.042224508 0.017932897 0.36899766 0.04055282 0.50974655 -0.2124884 -0.27056766
-0.119075514 -0.1620241 0.22175585 0.47240886 0.23095493 -0.45538902 -0.20798823 -0.23365259
-0.50326574 0.16260098 0.4812165 0.35297948 -0.12109583 -0.13433807 -0.11149128 -0.156867
0.32774496 -0.30351153 0.15199429 -0.2600293 -0.21865657 0.01620499 -0.26138547 0.10481591
-0.5203347 -0.18243876 0.3050433 0.365625 -0.105954036 -0.41792056 -0.31732625 -0.1550047
-0.2659217 0.40789837 -0.3341425 0.17084464 0.023034133 -0.1014487 0.37943614 0.34439176
0.0087985005 -0.31484976 -0.26328263 -0.017938122 0.46301773 -0.20882486 -0.15959936 -0.40348947
0.31732866 0.3982528 0.2290352 -0.31496322 0.30243975 -0.23756547 0.21615912 0.3041715
00000000: e541 31be cabd 6dbe 4235 a33c f275 123e
00000010: 7cf2 f4be ef6e 0fbe 865a 963e f7f2 4e3e
00000020: 3dcf c43e bfd4 0fbe 5ee9 b1be f604 86be
00000030: a98e abbe e1b3 8dbe 5b56 5a3e 21ce f63d
00000040: f6fc 5fbe a6de b83e c315 6e3d c91b 243e
00000050: dfeb 78be 26d1 c33e 36e0 d8be baa7 cb3e
00000060: 12b8 bdbe b1ad 6f3e 4c24 6cbe acba 893e
00000070: 3f6d a0be 12b4 1bbb 10ec 6ebe f64c bbbe
00000080: f800 1bbe 9bf3 2cbd 03e8 923c 43ed bc3e
00000090: b71a 263d c07e 023f 8f96 59be d887 8abe
000000a0: dddd f3bd a5e9 25be f713 633e 93df f13e
000000b0: 737f 6c3e c028 e9be defa 54be a042 6fbe
000000c0: 06d6 00bf df80 263e 0262 f63e bab9 b43e
000000d0: 1701 f8bd eb8f 09be 8a55 e4bd bea1 20be
000000e0: 30ce a73e dd65 9bbe 64a4 1b3e 8f22 85be
000000f0: 82e7 5fbe 54c0 843c 51d4 85be b9a9 d63d
00000100: a834 05bf 3ad1 3abe a32e 9c3e 3333 bb3e
00000110: 6efe d8bd aff9 d5be 9678 a2be 8db9 1ebe
00000120: e426 88be 0ed8 d03e ba14 abbe e6f1 2e3e
00000130: 14b2 bc3c 56c4 cfbd 7445 c23e 1e54 b03e
00000140: 9627 103c fd33 a1be fbcc 86be f8f2 92bc
00000150: a910 ed3e 2fd6 55be 046e 23be 2c96 cebe
00000160: e778 a23e cae7 cb3e 3488 6a3e dc42 a1be
00000170: 62d9 9a3e 5d44 73be d158 5d3e 5ebc 9b3e

layers.2.bias f4 [3]
0.04752471 0.019268777 -0.054743633
00000000: 45a9 423d 8ed9 9d3c dc3a 60bd

normalizations.0.weight f4 [64]
0.96062404 1.0484452 1.0202441 0.9504435 0.943558 1.0299592 0.90283054 0.932693
0.9118006 0.9908346 1.0342484 0.9994284 1.0684822 0.96899176 0.94632685 1.027705
1.0007006 1.1001389 0.9579806 0.95850503 0.98799783 1.0130367 0.98873013 1.0280075
1.0785638 1.058003 0.9718063 1.0609019 1.0068814 0.98887396 0.91979 1.0039988
1.0707029 0.9971503 1.0011084 0.94798416 0.91368634 1.0006936 0.9286174 1.0467516
0.99345416 0.9946511 1.0983273 0.99935305 1.0255855 0.9265599 1.0806825 0.973656
1.0768952 0.95343953 0.9991026 0.9587483 0.9542911 1.0491258 0.9929236 1.0704598
0.94625705 1.0124537 0.9792045 1.1232822 0.9260927 1.0331534 1.0493671 1.0188686
00000000: 75eb 753f 7433 863f 5c97 823f 4450 733f
00000010: 048d 713f b4d5 833f e71f 673f f8c4 6e3f
00000020: c46b 693f 56a7 7d3f 4062 843f 8ada 7f3f
00000030: 06c4 883f d80f 783f 7a42 723f d68b 833f
00000040: f516 803f 5ad1 8c3f 373e 753f 9660 753f
00000050: 6ded 7c3f 30ab 813f 6b1d 7d3f c095 833f
00000060: 610e 8a3f a46c 873f 4cc8 783f a2cb 873f
00000070: 7de1 803f d826 7d3f 5c77 6b3f 0883 803f
00000080: cb0c 893f 3e45 7f3f 5224 803f 17af 723f
00000090: 59e7 693f ba16 803f dfb9 6d3f f5fb 853f
000000a0: 0353 7e3f 74a1 7e3f fd95 8c3f 9ad5 7f3f
000000b0: 6346 833f 0833 6d3f ce53 8a3f 8541 793f
000000c0: b4d7 893f 9d14 743f 30c5 7f3f 8770 753f
000000d0: 6c4c 743f c149 863f 3e30 7e3f d404 893f
000000e0: e73d 723f 1598 813f 25ad 7a3f b6c7 8f3f
000000f0: 6914 6d3f 5f3e 843f a951 863f 496a 823f

normalizations.0.bias f4 [64]
0.04463035 0.02513351 0.042206697 -0.03350426 -0.047609482 0.032431122 0.0032943734 0.00014990498
-0.11638639 0.0055974876 0.03158261 0.070594855 0.074578784 0.022878291 -0.079566084 0.043785915
0.037505277 0.024683218 -0.06283995 -0.032826297 -0.04896974 0.0154145565 -0.054447185 0.16095105
0.15323135 0.122962356 0.0012754876 -0.0013376377 0.022751 0.04365318 -0.08652579 0.030297546
0.100422055 0.025505308 0.054587618 -0.029267695 -0.10487559 0.082528874 -0.09198726 0.05684384
0.034872584 0.074762456 0.07129124 0.06302887 0.05066627 -0.07267874 0.009789719 -0.0039991373
0.056815248 0.11823732 0.050720733 -0.054515574 -0.027731115 0.06626281 0.05271604 0.052227773
-0.060357157 0.06578746 0.07243816 0.077776134 -0.05295291 -0.0028605708 0.033928595 0.09687465
00000000: 50ce 363d cae4 cd3c eee0 2c3d c33b 09bd
00000010: 2902 43bd 7fd6 043d 6ae6 573b d02f 1d39
00000020: fd5b eebd 216b b73b c45c 013d 0994 903d
00000030: c3bc 983d 416b bb3c 8bf3 a2bd dc58 333d
00000040: 229f 193d 7634 ca3c 3bb2 80bd de74 06bd
00000050: 7e94 48bd 568d 7c3c 0304 5fbd 5ad0 243e
00000060: aee8 1c3e b0d3 fb3d 432e a73a ac53 afba
00000070: 4e60 ba3c adcd 323d 6f34 b1bd 8f32 f83c
00000080: 14aa cd3d 82f0 d03c 4497 5f3d cec2 efbc
00000090: 03c9 d6bd e604 a93d d163 bcbd 16d5 683d
000000a0: 8ed6 0e3d 0f1d 993d 2401 923d 4815 813d
000000b0: 6f87 4f3d 97d8 94bd 0f65 203c 320b 83bb
000000c0: 1bb7 683d 6826 f23d 8bc0 4f3d b94b 5fbd
000000d0: 5d2c e3bc ccb4 873d c6ec 573d caec 553d
000000e0: 1139 77bd 93bb 863d 755a 943d 1849 9f3d
000000f0: 27e5 58bd 6a78 3bbb b6f8 0a3d 3766 c63d

normalizations.0.running_mean f4 [64]
0.0018318807 0.00052163197 0.0012433976 0.0014944554 0.00060650654 0.00062305835 -0.0021707825 0.0018836143
-0.0037056892 0.00093507575 0.00037301306 -0.0006856024 -0.0040469314 0.002513668 0.00018390187 -0.00042715808
0.0014268709 -0.0031666867 -0.00059728837 0.0015066348 -0.002699337 0.0007768844 0.0035239207 0.0040829857
0.0037749708 -0.0025628072 -0.00087242416 0.0034427508 -0.001379916 -0.00028414524 0.0003104644 0.003769611
0.0031868885 -0.0021307939 -0.000390301 0.0016173425 -0.004388091 -0.0024127974 0.0023629512 0.00065392285
0.0036666594 0.0017103913 -0.0035931831 0.003215387 -0.004878673 -0.0011203014 0.0029854202 -0.0035831793
-0.0032884679 -0.0019041318 -0.00075433496 0.0032376135 -0.004759115 0.0021310747 7.0561306e-05 -0.0023077931
-0.0013999429 -0.0004087526 0.00051400554 0.0012018459 0.0038253195 -0.0004324601 -0.0019107603 -0.0020880883
00000000: b71b f03a 21be 083a 80f9 a23a 9ae1 c33a
00000010: f7fd 1e3a bd54 233a b043 0ebb 9ce3 f63a
00000020: 26db 72bb df1f 753a f790 c339 00ba 33ba
00000030: 1f9c 84bb 5abc 243b c8d5 4039 30f4 dfb9
00000040: d805 bb3a 3088 4fbb 5893 1cba 467a c53a
00000050: 5ce7 30bb d4a7 4b3a 94f1 663b 91ca 853b
00000060: 8065 773b c5f4 27bb 65b3 64ba c69f 613b
00000070: 4cde b4ba 54f9 94b9 d4c5 a239 940b 773b
00000080: 1edb 503b caa4 0bbb 50a1 ccb9 02fd d33a
00000090: fac9 8fbb 0620 1ebb bedb 1a3b 056c 2b3a
000000a0: 564c 703b 352f e03a 9c7b 6bbb 3eb9 523b
000000b0: 46dd 9fbb 14d7 92ba 0aa7 433b c6d3 6abb
000000c0: 5683 57bb 1094 f9ba 90be 45ba 242e 543b
000000d0: 5af2 9bbb 80a9 0b3b 50fa 9338 583e 17bb
000000e0: 4a7e b7ba d84d d6b9 54be 063a 4287 9d3a
000000f0: 36b2 7a3b d0bb e2b9 7a72 faba 4fd8 08bb

normalizations.0.running_var f4 [64]
0.059560835 0.018507589 0.056274828 0.018477254 0.032845613 0.06812059 0.03155398 0.10985404
0.07487573 0.09642992 0.02085429 0.1541297 0.1115946 0.0387427 0.10114268 0.046746287
0.04460088 0.057071373 0.097987354 0.043043435 0.089053035 0.07621326 0.07004491 0.09129982
0.071472965 0.022165392 0.071527466 0.08462119 0.005605003 0.004010617 0.14987099 0.08750511
0.07097388 0.09848514 0.023113642 0.010257329 0.11368695 0.04143766 0.047891047 0.0017117207
0.12095353 0.047430612 0.091133684 0.09391439 0.108898215 0.042842302 0.07105754 0.10520643
0.06976325 0.080410376 0.08011425 0.0575922 0.111609615 0.039787833 0.039004833 0.038051803
0.020314459 0.06485873 0.06705355 0.012260474 0.10722101 0.025504598 0.019943228 0.08380283
00000000: 10f6 733d 3a9d 973c 6f80 663d 9c5d 973c
00000010: 1f89 063d cf82 8b3d bf3e 013d 28fb e03d
00000020: 7258 993d 0d7d c53d 9ed6 aa3c 2dd4 1d3e
00000030: b68b e43d aab0 1e3d e523 cf3d 0979 3f3d
00000040: 6aaf 363d acc3 693d 98ad c83d 504e 303d
00000050: 7061 b63d b315 9c3d b573 8f3d 66fb ba3d
00000060: 6b60 923d 3294 b53c fe7c 923d e04d ad3d
00000070: 2caa b73b 7e6b 833b c877 193e e135 b33d
00000080: c15a 913d 94b2 c93d d258 bd3c 5b0e 283c
00000090: b4d4 e83d 89ba 293d 6729 443d d15b e03a
000000a0: 7cb6 f73d 9a46 423d 4ca4 ba3d 3056 c03d
000000b0: 0706 df3d 697b 2f3d 9e86 913d 7876 d73d
000000c0: 09e0 8e3d 32ae a43d f112 a43d cce5 6b3d
000000d0: 9593 e43d 91f8 223d 88c3 1f3d 35dc 1b3d
000000e0: 826a a63c a7d4 843d 5f53 893d 28e0 483c
000000f0: b096 db3d 05ef d03c fb5f a33c d1a0 ab3d

normalizations.1.weight f4 [32]
1.1897621 1.0903887 1.016343 1.0495781 1.1390018 1.1152401 0.98805344 1.111007
1.0853798 1.0720468 1.0927576 1.0022984 1.1164093 1.051658 1.062402 1.1643184
1.0608739 1.0123415 1.1403491 1.2291702 1.102331 1.0987009 1.1651504 1.0725601
1.1321949 1.0600114 1.0093558 0.9985963 0.9950837 1.0988561 0.98596793 1.1169028
00000000: 204a 983f db91 8b3f 8717 823f 9358 863f
00000010: d0ca 913f 30c0 8e3f 12f1 7c3f 7a35 8e3f
00000020: baed 8a3f d438 893f 7bdf 8b3f 504b 803f
00000030: 80e6 8e3f bb9c 863f cafc 873f 6308 953f
00000040: b7ca 873f 6894 813f f6f6 913f 7355 9d3f
00000050: 2f19 8d3f 3ba2 8c3f a623 953f a649 893f
00000060: c3eb 903f 74ae 873f 9232 813f 02a4 7f3f
00000070: cebd 7e3f 51a7 8c3f 6568 7c3f acf6 8e3f

normalizations.1.bias f4 [32]
0.19131683 0.09034812 0.0042045116 0.059817947 0.089028254 0.09314113 0.018614072 0.095228136
0.118961625 0.06483322 0.09588628 0.010739285 0.028982192 0.023521554 0.041014187 0.12326788
0.026368933 0.077667534 0.095318705 0.14471988 0.0997803 0.086815074 0.1506443 0.06733723
0.12924242 0.051736847 0.010064189 0.049826387 0.0058302376 0.07583791 -0.018279549 0.07610664
00000000: 8fe8 433e 6f08 b93d 00c6 893b aa03 753d
00000010: 7254 b63d c7c0 be3d 8a7c 983c f806 c33d
00000020: 27a2 f33d 47c7 843d 0760 c43d d3f3 2f3c
00000030: 106c ed3c 46b0 c03c 7efe 273d df73 fc3d
00000040: a903 d83c 2810 9f3d 7436 c33d 7331 143e
00000050: 9d59 cc3d 1acc b13d 8042 1a3e 1ae8 893d
00000060: 2058 043e 04ea 533d 45e4 243c c116 4c3d
00000070: 940b bf3b e850 9b3d febe 95bc ccdd 9b3d

normalizations.1.running_mean f4 [32]
-0.18200618 -0.17842966 -0.6433227 1.3934505 -0.7710902 -0.23294368 -0.04788032 -0.6902631
-0.044611823 -0.3640861 -0.51696444 0.02208814 -0.70104504 -0.34509292 -0.10925202 -0.19213682
-0.49535376 0.04987561 -0.6293065 -0.48698896 -0.42599377 -0.66988915 -0.6711435 -0.10318516
-0.22159666 -0.18146832 0.197176 -0.3338681 -0.05464393 -0.7053164 -0.8465489 -0.5808018
00000000: d45f 3abe 44b6 36be ccb0 24bf 965c b23f
00000010: 2b66 45bf ca88 6ebe 281e 44bd 15b5 30bf
00000020: e3ba 36bd 7e69 babe c857 04bf 30f2 b43c
00000030: b077 33bf 05b0 b0be 86bf dfbd 84bf 44be
00000040: 029f fdbe 5e4a 4c3d 3b1a 21bf 9e56 f9be
00000050: db1b dabe db7d 2bbf 0fd0 2bbf be52 d3bd
00000060: 3cea 62be d5d2 39be 81e8 493e c2f0 aabe
00000070: 50d2 5fbd 9e8f 34bf 6eb7 58bf 6daf 14bf

normalizations.1.running_var f4 [32]
0.9372772 1.4677527 1.4649462 1.5383985 2.0587325 2.033693 1.8275827 2.2405457
2.5082161 1.6904435 2.4879847 1.9573253 1.2992833 0.98135644 1.1424848 1.6227665
1.6237217 1.1633551 2.5551627 2.95249 2.8354335 2.3674643 2.7472923 2.470974
1.485247 1.222719 1.6786382 1.7058905 1.1119195 1.4433177 2.8663225 1.3432398
00000000: 66f1 6f3f 52df bb3f 5b83 bb3f 3eea c43f
00000010: 46c2 0340 0728 0240 3bee e93f 1a65 0f40
00000020: 9d86 2040 7460 d83f 243b 1f40 a389 fa3f
00000030: ea4e a63f 2d3a 7b3f f13c 923f d0b6 cf3f
00000040: 1dd6 cf3f d2e8 943f c987 2340 99f5 3c40
00000050: be77 3540 8984 1740 a3d3 2f40 7024 1e40
00000060: 931c be3f 0e82 9c3f 9edd d63f 9f5a da3f
00000070: 6153 8e3f a2be b83f d471 3740 48ef ab3f

exp_avg f4 [64, 2]
-0.0036910619 0.00039952958 -0.00036375408 0.00026085495 0.013750199 -0.002889202 -0.00443035 -0.0021792373
-0.004188545 0.001986706 0.005607669 -0.0024821856 -7.483315e-05 -0.0023268415 -0.0017051528 0.0028168214
-0.00025942526 -0.0007605431 -0.0036210436 0.0014763399 0.00958151 -0.0036694906 -0.0021344738 0.0019013288
0.0037517287 0.0016786711 0.003634351 0.0025021855 -0.0024519102 0.0015873881 0.0068631815 -0.005589897
9.136506e-05 -0.00021835978 -0.0025560902 -0.0014441719 -0.00038074763 0.0003387608 0.0050517265 -0.00016419055
0.00579263 0.0006881049 0.002436522 -0.0009046105 0.0013075451 0.0010170616 -0.003807805 -0.006965787
-0.0024981662 -0.005634113 0.030485047 0.03364358 0.0041896347 -0.0016674228 0.00015302995 -0.005184019
0.028014656 0.010793371 0.06499235 0.03440078 0.0019712667 -0.0011189746 -0.00094794726 -0.0038771841
-0.0004321164 -0.0073750126 0.004687167 -0.00045211188 -0.0020857675 0.0025659993 -0.0003602545 0.0016742935
8.543069e-06 6.351693e-05 0.00011061659 0.003777225 0.00031676504 -0.0033400278 0.0045978404 -0.0046961927
0.00042493365 -0.003296259 0.0015695954 4.2090596e-05 0.0068039056 0.0029850346 0.00061738375 -0.003348833
0.0010907921 0.0012720261 -0.003018343 0.00068278797 -0.0006525981 0.003969269 0.003613363 0.0011489649
-0.00016102541 -0.00013956525 -0.0004839449 0.0010136355 0.007003114 -0.0074130893 -0.0032207943 -0.0027559076
0.002988765 0.0034565646 0.0010464725 -0.012390867 -0.0055202283 0.0035880897 0.011256976 0.012346084
0.0011277328 -0.0048559224 -0.001293968 0.001162658 -0.0002860264 0.0002498533 -0.0035640674 -0.021018522
-8.226489e-05 0.0035968379 -0.0045319316 0.003948831 0.031452045 0.014355629 0.006256945 -0.00021290053
00000000: bee5 71bb f477 d139 3fb6 beb9 5cc3 8839
00000010: 8448 613c c458 3dbb 782c 91bb 89d1 0ebb
00000020: 1040 89bb 6533 023b 89c0 b73b 2aac 22bb
00000030: beef 9cb8 ec7d 18bb 6f7f dfba 6c9a 383b
00000040: 7803 88b9 2f5f 47ba 084f 6dbb bf81 c13a
00000050: c4fb 1c3c d67b 70bb 87e2 0bbb 0236 f93a
00000060: 90df 753b db06 dc3a 4b2e 6e3b b5fb 233b
00000070: 3ab0 20bb e80f d03a 8ae4 e03b 742b b7bb
00000080: 3e9b bf38 82f7 64b9 1484 27bb 5e4a bdba
00000090: 159f c7b9 b49b b139 f488 a53b 912a 2cb9
000000a0: 1ad0 bd3b f061 343a 0eae 1f3b 6223 6dba
000000b0: ef61 ab3a ed4e 853a 5e8c 79bb 4241 e4bb
000000c0: 46b8 23bb 5e9e b8bb c7bb f93c dacd 093d
000000d0: 3449 893b 6d8d daba aa76 2039 b4de a9bb
000000e0: fe7e e53c aed6 303c b61a 853d d5e7 0c3d
000000f0: 5e30 013b 8faa 92ba aa7f 78ba 5b18 7ebb
00000100: ae8d e2b9 17aa f1bb ce96 993b 6e09 edb9
00000110: 5fb1 08bb 532a 283b 8ae0 bcb9 f873 db3a
00000120: 3454 0f37 6434 8538 d4fa e738 528b 773b
00000130: 7c13 a639 5ee4 5abb 7ba9 963b 85e2 99bb
00000140: a1c9 de39 0d06 58bb e2ba cd3a 6f8a 3038
00000150: 4cf3 de3b 92a0 433b ecd7 213a 1878 5bbb
00000160: e9f8 8e3a 1dba a63a 64cf 45bb 20fd 323a
00000170: 1e13 2bba a410 823b 2cce 6c3b dd98 963a
00000180: eed8 28b9 4358 12b9 fcb9 fdb9 f7db 843a
00000190: 617a e53b 80e9 f2bb f613 53bb 759c 34bb
000001a0: 28df 433b 8887 623b ca29 893a 1003 4bbc
000001b0: 08e3 b4bb 2826 6b3b 2e6f 383c 3b47 4a3c
000001c0: 6fd0 933a 6e1e 9fbb 5c9a a9ba 5464 983a
000001d0: d0f5 95b9 befe 8239 2193 69bb 092f acbc
000001e0: a085 acb8 edb8 6b3b 9980 94bb 3265 813b
000001f0: dcd3 003d df33 6b3c 0f07 cd3b 0d3e 5fb9

exp_avg_sq f4 [64, 2]
0.001262894 9.221139e-06 0.004164553 0.0013619774 0.0030354853 9.193858e-05 0.0005665929 0.00015445403
0.001617513 0.00026839678 0.0011838604 0.00020877308 1.2080343e-05 0.00071878295 0.00045307755 0.00039582228
3.439434e-05 0.00017445182 0.0004020224 9.115331e-05 0.0045474684 0.00050657766 0.00044316548 0.00034785422
0.0025270046 0.0007854856 0.0008709468 0.0012616965 0.00025408613 0.00016448078 0.0031986935 0.0022630405
0.0002914195 0.0008580765 0.0021837347 0.0006462243 0.00017970543 0.00010826498 0.0013243529 5.7475478e-05
0.00044468808 8.513852e-06 0.0019009734 0.00043335266 9.5213436e-05 2.7329645e-05 0.0005336542 0.0016526935
0.00085217395 0.0028373883 0.002559906 0.004527229 0.00024076719 4.8088066e-05 2.8311779e-06 0.003971579
0.007837678 0.00077259593 0.023899907 0.008641862 0.0001912798 0.0001205568 0.00014585037 0.0010502435
1.2007392e-05 0.0039331145 0.0002065674 8.939204e-06 0.0029773172 0.0041099344 0.0044784416 0.004818552
1.814571e-05 0.00019111666 2.1034539e-05 0.00079290173 8.5476395e-06 0.0010088994 0.033142053 0.024396861
3.447843e-05 0.00045403015 0.0014706174 2.2337636e-05 0.0018295693 0.00055892277 0.0002647005 0.0014759643
0.00028008714 0.000333075 0.0005811564 1.0049207e-05 6.205037e-05 0.0038546044 0.00051873416 5.4590415e-05
0.0029597017 0.0009512848 0.00013269791 0.0005831166 0.0015676842 0.0017733225 0.00013842854 6.274753e-05
0.00017004901 0.00024300079 1.6376343e-05 0.009730484 0.00093269907 0.00051327626 0.0027748172 0.0018577833
0.0018890047 0.003758887 0.0012699704 0.0013259259 0.00018413224 0.00016082982 0.0018658899 0.022260226
9.385288e-06 0.0005140328 0.004012553 0.0025252444 0.0075283446 0.0020184848 0.0015436809 2.8172528e-05
00000000: b187 a53a 7eb4 1a37 cd76 883b 6184 b23a
00000010: feee 463b 26cf c038 6887 143a f0f4 2139
00000020: bb02 d43a 9bb7 8c39 c32b 9b3a 19ea 5a39
00000030: aeac 4a37 b56c 3c3a 0a8b ed39 5e86 cf39
00000040: a442 1038 0eed 3639 88c6 d239 9029 bf38
00000050: ee02 953b dacb 043a aa58 e839 3460 b639
00000060: 1a9c 253b 0ce9 4d3a 4050 643a 825f a53a
00000070: dd36 8539 7978 2c39 2ca1 513b 854f 143b
00000080: aac9 9839 8af0 603a fd1c 0f3b 6167 293a
00000090: 4f6f 3c39 520c e338 e995 ad3a d311 7138
000000a0: 0625 e939 b7d6 0e37 152a f93a 9c33 e339
000000b0: 53ad c738 f741 e537 ede4 0b3a 319f d83a
000000c0: 6d64 5f3a 7af3 393b 19c4 273b 2659 943b
000000d0: 7376 7c39 2bb2 4938 44ff 3d36 0524 823b
000000e0: 9b69 003c 0988 4a3a bdc9 c33c 9996 0d3c
000000f0: 4892 4839 70d3 fc38 69ef 1839 53a8 893a
00000100: 5b73 4937 5be1 803b 049a 5839 97f9 1537
00000110: 181f 433b a1ac 863b e4bf 923b f2e4 9d3b
00000120: 9e37 9837 7d66 4839 5473 b037 bcda 4f3a
00000130: d567 0f37 0c3d 843a f6bf 073d eddb c73c
00000140: ef9c 1038 e50a ee39 bbc1 c03a b561 bb37
00000150: 29ce ef3a ac84 123a 80c7 8a39 2575 c13a
00000160: a9d8 9239 92a0 ae39 bf58 183a 0499 2837
00000170: 0a21 8238 889d 7c3b a9fb 073a 03f8 6438
00000180: 8ef7 413b a45f 793a d324 0b39 4bdc 183a
00000190: c17a cd3a d46e e83a 2127 1139 5397 8338
000001a0: 2f4f 3239 07ce 7e39 ee5f 8937 9c6c 1f3c
000001b0: 6080 743a 638d 063a b5d9 353b dd80 f33a
000001c0: 7b98 f73a a957 763b 2375 a63a b1ca ad3a
000001d0: 9f13 4139 6da4 2839 e090 f43a 145b b63c
000001e0: 8175 1d37 28c0 063a bc7b 833b 927e 253b
000001f0: 55b0 f63b 8e48 043b 5655 ca3a 0b54 ec37

exp_avg f4 [64]
1.3051247e-09 5.353883e-10 -7.2730894e-10 -1.1443874e-09 -2.5491415e-11 4.669689e-10 -1.490423e-10 -1.71956e-09
3.0765732e-10 -3.665025e-10 1.2423005e-09 -6.426059e-10 4.8563653e-10 -8.716337e-10 2.5407265e-10 2.2347129e-09
1.101867e-09 1.8199836e-09 -6.552268e-10 8.695719e-10 -7.028562e-10 -1.1987472e-09 4.315645e-13 -1.6185997e-10
1.8215054e-09 -2.013358e-09 5.767278e-10 -1.3913248e-10 -4.335905e-09 -5.5986065e-09 -9.990879e-10 -1.557272e-09
-1.9963167e-09 -8.09402e-10 -2.8434982e-10 9.333619e-10 -1.0343934e-11 1.4953584e-10 -1.11232516e-10 -4.000698e-09
-2.1676207e-09 1.2621382e-10 -7.940066e-10 3.6349224e-10 -2.7225838e-10 -8.0455476e-11 2.8485392e-10 -5.5546073e-10
1.8703528e-10 2.5735614e-09 4.4575238e-10 -1.00104e-10 -3.833925e-11 -4.4086526e-10 -1.9424855e-09 1.7442978e-10
-2.5142033e-10 -6.817914e-10 -4.179942e-10 -3.2770977e-09 6.1107935e-10 6.989022e-10 -1.0939745e-09 7.583282e-10
00000000: fe5f b330 9a2a 1330 d1eb 47b0 8d48 9db0
00000010: 9039 e0ad 045c 0030 aedf 23af a455 ecb0
00000020: eb22 a92f a47c c9af 90bd aa30 5fa3 30b0
00000030: a27d 0530 c597 6fb0 8cad 8b2f 7c91 1931
00000040: 8070 9730 fb22 fa30 7d1b 34b0 af06 6f30
00000050: 1c33 41b0 2bc1 a4b0 00f3 f22a 88f7 31af
00000060: 8658 fa30 5e5b 0ab1 9c87 1e30 50fa 18af
00000070: 06fb 94b1 dd5d c0b1 4850 89b0 a307 d6b0
00000080: 932f 09b1 9a7c 5eb0 ae52 9caf c147 8030
00000090: f0f8 35ad 996a 242f 579a f4ae 8376 89b1
000000a0: 30f5 14b1 08c6 0a2f 3f41 5ab0 fcd4 c72f
000000b0: f6ac 95af 68ec b0ae a099 9c2f 13af 18b0
000000c0: c0a5 4d2f 92da 3031 120e f52f 8b21 dcae
000000d0: 289e 28ae 455e f2af 917c 05b1 9ec9 3f2f
000000e0: 4438 8aaf ce68 3bb0 74cb e5af 5033 61b1
000000f0: e3f8 2730 df1c 4030 ce5a 96b0 9a72 5030

exp_avg_sq f4 [64]
1.24803265e-17 6.228411e-17 2.8748884e-17 1.694018e-17 1.6150103e-17 1.3747395e-17 7.144576e-18 8.1482196e-18
3.515835e-18 8.671976e-18 5.871897e-17 1.13833726e-17 2.90812e-17 1.15398925e-17 4.3363657e-18 5.2546503e-17
9.3305105e-18 2.585117e-17 4.29351e-18 1.4056381e-17 7.573169e-18 2.3679628e-17 3.1580738e-18 1.955058e-17
3.3004867e-17 8.285288e-17 7.94935e-18 3.5736204e-17 9.4376e-17 3.0262272e-16 4.0356413e-18 1.6551906e-17
3.013598e-17 3.708447e-18 1.00208775e-16 7.28559e-17 2.7358738e-18 1.3225799e-17 9.0958526e-18 9.772825e-16
6.1912914e-18 2.3079997e-17 2.559401e-17 2.1006103e-17 9.638579e-18 6.7001654e-18 4.0357695e-17 7.080068e-18
4.6298546e-17 1.6319364e-17 3.189741e-17 6.1144984e-18 3.8606475e-18 8.2165015e-17 1.87926e-17 7.213397e-17
3.6338296e-17 2.5846315e-17 5.950625e-18 1.8374867e-16 4.5730564e-18 6.891746e-17 1.1700746e-16 2.1681959e-17
00000000: ad38 6623 0d9e 8f24 b194 0424 de3e 9c23
00000010: 5af5 9423 3d98 7d23 4ecb 0323 e14e 1623
00000020: 1fb6 8122 40f8 1f23 9065 8724 75fc 5123
00000030: 051d 0624 9adf 5423 d1fb 9f22 f653 7224
00000040: 171e 2c23 596f ee23 0e67 9e22 b1a5 8123
00000050: 48b3 0b23 f167 da23 5406 6922 8052 b423
00000060: 4535 1824 b50b bf24 bea3 1223 ddcd 2424
00000070: c29d d924 3b73 ae25 8ee3 9422 15aa 9823
00000080: 49fa 0a24 4bd1 8822 d210 e724 88fe a724
00000090: 32df 4922 12f9 7323 f3c9 2723 5cd7 8c26
000000a0: 186b e422 1ae0 d423 2610 ec23 42bf c123
000000b0: e7cc 3123 4631 f722 f51d 3a24 ad9a 0223
000000c0: ad83 5524 0285 9623 d119 1324 ce95 e122
000000d0: c96e 8e22 aa75 bd24 c654 ad23 6154 a624
000000e0: b094 2724 e363 ee23 108a db22 09d9 5325
000000f0: 4cb7 a822 b0e9 9e24 82e6 0625 14fb c723

exp_avg f4 [32, 64]
0.0017229054 0.0014297143 0.0013560723 0.0022311667 0.0012381404 0.0008059832 0.0010297252 0.0014977882
0.0004614961 0.00089303416 0.0009549669 0.00028526975 -0.0018655165 0.0009671581 0.0007686307 0.0014074909
-0.0012936436 -0.0006208194 0.0011897667 0.001730469 -0.0023107184 0.0009793147 0.0014407152 0.001561119
0.002133002 -0.00017332932 -0.004243612 -0.00035790727 -0.0028884327 -0.0019274785 0.0010329557 0.00022969989
0.00066622975 -0.00081125763 0.0010663515 -2.4485635e-06 5.6075427e-05 0.0010760729 -0.0011303478 0.000661442
-0.0030834675 0.0010656967 -0.0017143543 0.0026097766 0.00074231334 -0.0025136496 -0.001532034 -0.002062049
-0.0031135762 0.0009417091 0.00093382655 0.0016280633 6.833198e-05 -0.0005876571 0.00122718 0.0010114685
0.000353041 0.0014696915 -0.0023410593 0.0016934978 0.0005822811 0.0008232537 -0.0015160857 -0.0029673746
-0.00022003416 3.7935533e-05 -4.8155896e-05 0.0007661175 7.164446e-05 -0.0003974677 -6.157253e-05 -6.767936e-05
-7.734723e-05 -0.00024337135 -0.00023716484 -8.09054e-05 -0.00020110825 -0.0003747492 -0.00010942532 -3.870533e-05
-0.0011161926 -4.182865e-05 -2.3835964e-05 -0.00041742163 -0.0005619987 -0.0005067039 -0.00047550251 0.00026436572
0.00025521562 -0.00032228848 -0.00091533584 9.3681025e-05 -0.00029132856 -0.0007930765 -7.715453e-05 -4.332188e-05
-0.0009173131 -0.0006983366 0.00018900161 -0.00027363407 -0.00016593287 -0.00016513829 -0.00017916183 8.3184204e-05
-0.00068320683 0.00018178398 -0.00067562493 0.00018687692 -0.00030290606 -0.000782979 -0.00015130178 0.00018496215
-0.0011450658 -3.2401236e-05 -0.00019337295 0.00021149617 -0.00038695527 0.0005444596 8.251608e-05 -0.00029734976
7.1481045e-06 -2.3801564e-05 -0.0009725134 0.00037808518 -0.0004610574 0.00034548924 -0.00034515187 -0.00057419005
-5.616393e-05 -6.741646e-05 0.00019611383 0.00017082103 -0.000303443 -4.1744788e-05 0.00012783887 -0.00044442856
-0.00085920596 -0.0003538431 0.00023187735 0.0002793916 -0.00086529006 0.0002121981 -0.00039446578 -0.00041864556
0.0014449112 -0.0021223065 -0.00028609112 0.00016620144 0.00025548955 0.00048517206 -0.00014019074 0.00018696015
-0.00046874545 -0.0013504734 0.0029190867 0.00065846264 0.00021008286 0.0005978335 -0.0002987777 0.00058166345
0.00033348423 -0.00030535535 -0.00017835514 0.00087047985 -0.00024788105 -0.0006823019 0.0011728607 -0.0016326612
0.001343695 0.0007827925 0.00053975347 -0.0005744827 -0.0012615842 0.0016804346 0.0012738719 -0.0015190716
0.0019130862 -0.0002832691 -0.0005745143 0.000114314375 -0.0009013383 0.0006461904 9.0911344e-05 -0.0012200292
-0.0010682468 -9.944168e-05 0.0016304186 -0.00018435063 0.00015829987 0.000103210856 -0.00074921653 0.0011470991
-0.00049600145 0.00032873 -0.00017554668 0.00054320466 0.00022339766 -0.00042198907 -0.00022752328 6.265185e-05
-0.0002669656 7.258206e-05 -0.0005504824 0.00029288323 -0.00018213522 -0.0003890007 0.00015489821 0.00031899186
-0.000112653004 -0.00035479915 5.2798947e-05 -0.00028559758 -3.3144486e-05 -1.0797434e-05 -0.00024054821 0.0004001272
0.00024908056 -0.00027579966 -1.529701e-05 -0.00019602128 -0.00026567446 -0.00014697276 0.000121730984 -0.00031485173
-0.0005179899 -4.830871e-05 0.00012458075 -0.0001451514 -0.0001694385 -0.0002978116 0.00015347946 1.2491888e-05
-0.0004236438 -3.277314e-05 -0.00022292597 1.2663015e-05 -0.0003504388 2.7144051e-06 -0.00017758411 -0.0002561536
-0.0004036934 8.927453e-05 9.285203e-05 -9.921441e-05 -0.00026233314 7.175897e-05 0.00015001924 -0.00038945413
-9.438797e-05 -0.00018419302 1.28873435e-05 0.00015959496 -0.00017187007 0.00041783243 -0.00022081431 3.8910257e-05
00000000: 1dd3 e13a 4065 bb3a 3cbe b13a c438 123b
00000010: 1949 a23a 9e48 533a d8f7 863a 6f51 c43a
00000020: f5f4 f139 821a 6a3a be56 7a3a 4290 9539
00000030: 5984 f4ba e288 7d3a ef7d 493a 8f7b b83a
00000040: 7a8f a9ba 7cbe 22ba f2f1 9b3a e8d0 e23a
00000050: 6c6f 17bb 595c 803a 61d6 bc3a 769e cc3a
00000060: d6c9 0b3b bcbf 35b9 ff0d 8bbb 80a5 bbb9
00000070: dc4b 3dbb 72a3 fcba 3e64 873a 98db 7039
00000080: eca5 2e3a 94aa 54ba d2c4 8b3a 0052 24b6
00000090: 8832 6b38 040b 8d3a 2e28 94ba 9f64 2d3a
000000a0: 0014 4abb d9ae 8b3a 2fb4 e0ba c908 2b3b
000000b0: ce97 423a 0bbc 24bb 88ce c8ba 7123 07bb
000000c0: 240d 4cbb 07dd 763a 0acc 743a bd64 d53a
000000d0: 744d 8f38 000d 1aba 54d9 a03a 4093 843a
000000e0: 5c18 b939 aaa2 c03a 756c 19bb 5bf8 dd3a
000000f0: 39a4 183a 9fcf 573a 65b7 c6ba 4978 42bb
00000100: f8b8 66b9 f81c 1f38 00fb 49b8 46d5 483a
00000110: d43f 9638 3663 d0b9 8020 81b8 14ef 8db8
00000120: 7a35 a2b8 8031 7fb9 74af 78b9 c2ab a9b8
00000130: 96e0 52b9 fc79 c4b9 457b e5b8 8857 22b8
00000140: 354d 92ba 2c71 2fb8 58f3 c7b7 62d9 dab9
00000150: 1853 13ba 53d4 04ba de4c f9b9 919a 8a39
00000160: 76ce 8539 d4f8 a8b9 26f3 6fba 9e76 c438
00000170: 75bd 98b9 77e6 4fba 06ce a1b8 84b4 35b8
00000180: d777 70ba 9310 37ba bc2e 4639 8b76 8fb9
00000190: 44fe 2db9 f928 2db9 63dd 3bb9 2e73 ae38
000001a0: 3c19 33ba 449d 3e39 6c1c 31ba 64f4 4339
000001b0: 5dcf 9eb9 d540 4dba c3a6 1eb9 66f2 4139
000001c0: 0816 96ba 90e6 07b8 28c4 4ab9 12c5 5d39
000001d0: 42e0 cab9 11ba 0e3a 7c0c ad38 9ce5 9bb9
000001e0: c0d9 ef36 78a9 c7b7 45f0 7eba bc39 c639
000001f0: 14ba f1b9 c822 b539 80f5 b4b9 3e85 16ba
00000200: 9091 6bb8 f061 8db8 e8a3 4d39 6c1e 3339
00000210: 6e17 9fb9 2017 2fb8 7c0c 0639 3102 e9b9
00000220: 563c 61ba 0484 b9b9 1a24 7339 4e7b 9239
00000230: a2d4 62ba 7e81 5e39 4dd0 ceb9 a87d dbb9
00000240: 2d63 bd3a 6516 0bbb 80fe 95b9 5c46 2e39
00000250: 3af3 8539 b15e fe39 2a00 13b9 bc0a 4439
00000260: f3c1 f5b9 5e02 b1ba 264e 3f3b ae9c 2c3a
00000270: b049 5c39 edb7 1c3a 44a5 9cb9 c67a 183a
00000280: 7fd7 ae39 1a18 a0b9 d804 3bb9 ea30 643a
00000290: 08f6 81b9 81dc 32ba adba 993a 05ff d5ba
000002a0: ec1e b03a 5134 4d3a 3e7e 0d3a e298 16ba
000002b0: be5b a5ba 0742 dc3a 0cf8 a63a 961b c7ba
000002c0: 85c0 fa3a bc83 94b9 019b 16ba 10bc ef38
000002d0: ca47 6cba 1b65 293a a8a7 be38 63e9 9fba
000002e0: 6a04 8cba 588b d0b8 c5b3 d53a 3f4e 41b9
000002f0: 4cfd 2539 e872 d838 1267 44ba 425a 963a
00000300: 1806 02ba 6559 ac39 f412 38b9 d965 0e3a
00000310: da3f 6a39 6a3e ddb9 5193 6eb9 f563 8338
00000320: 84f7 8bb9 3237 9838 404e 10ba 1f8e 9939
00000330: 8dfb 3eb9 caf2 cbb9 2c6c 2239 5d3e a739
00000340: 1f40 ecb8 5604 bab9 7074 5d38 42bc 95b9
00000350: 9f04 0bb8 a026 35b7 ab3b 7cb9 2ac8 d139
00000360: 0797 8239 3499 90b9 1452 80b7 108b 4db9
00000370: 394a 8bb9 b31c 1ab9 d349 ff38 af12 a5b9
00000380: b7c9 07ba 159f 4ab8 e4a1 0239 c833 18b9
00000390: 4dab 31b9 9923 9cb9 54ef 2039 4094 5137
000003a0: 821c deb9 e475 09b8 3cc1 69b9 3c73 5437
000003b0: 19bb b7b9 2029 3636 df35 3ab9 5b4c 86b9
000003c0: d0a6 d3b9 e638 bb38 8eb9 c238 5511 d0b8
000003d0: c289 89b9 4e7d 9638 7c4e 1d39 a62f ccb9
000003e0: 28f2 c5b8 f023 41b9 b836 5837 f258 2739
000003f0: 0538 34b9 8510 db39 648a 67b9 9233 2338

exp_avg_sq f4 [32, 64]
4.4300243e-05 3.4888482e-05 4.5837038e-05 4.9092847e-05 2.9469527e-05 3.8721082e-05 1.925778e-05 4.1161384e-05
2.4400213e-05 3.1763928e-05 4.6454465e-05 3.0538715e-05 4.180924e-05 4.977957e-05 2.2485345e-05 2.9786304e-05
3.898645e-05 3.2243588e-05 2.415121e-05 4.7970378e-05 4.6072706e-05 3.2501935e-05 5.1999275e-05 4.024658e-05
4.516377e-05 2.0651025e-05 6.833389e-05 2.4758652e-05 4.2500153e-05 2.4596275e-05 2.1495773e-05 3.8164228e-05
2.45231e-05 5.5500055e-05 2.5668534e-05 3.0026287e-05 2.0746653e-05 2.8253664e-05 2.1627835e-05 3.366458e-05
3.081029e-05 5.8490663e-05 4.035186e-05 3.1603362e-05 2.8922916e-05 5.564647e-05 2.7330483e-05 3.851732e-05
3.5765162e-05 2.3430855e-05 2.9049395e-05 4.845951e-05 2.456768e-05 2.8003169e-05 2.7822602e-05 3.1422147e-05
1.7168593e-05 2.8154542e-05 5.4093536e-05 3.5039226e-05 1.9777928e-05 2.7251557e-05 4.11371e-05 6.341172e-05
9.984634e-06 6.794084e-06 9.83e-06 1.0482158e-05 5.3383496e-06 7.0207957e-06 2.2221982e-06 7.5517823e-06
2.213314e-06 6.1272417e-06 8.716545e-06 3.3336787e-06 4.153435e-06 1.05861955e-05 2.9331525e-06 3.4886627e-06
9.497328e-06 3.9092793e-06 2.8141749e-06 9.425806e-06 5.1966617e-06 7.330114e-06 1.0899168e-05 7.941321e-06
8.0821255e-06 3.6126582e-06 7.5692383e-06 4.5261395e-06 5.0701883e-06 3.6890126e-06 3.0150215e-06 4.829472e-06
4.2419506e-06 7.6285673e-06 2.4832568e-06 4.566103e-06 2.0063542e-06 2.7425135e-06 3.9297865e-06 3.7574796e-06
4.963021e-06 1.1057511e-05 4.7956682e-06 4.9566056e-06 3.0686258e-06 5.3919557e-06 5.483473e-06 4.1439557e-06
4.1926837e-06 1.9959934e-06 2.8496781e-06 8.7124445e-06 2.5840884e-06 4.397632e-06 4.175758e-06 3.4562406e-06
1.6238627e-06 3.551383e-06 9.361036e-06 5.311976e-06 4.0245714e-06 3.856106e-06 4.4377603e-06 7.5851835e-06
1.5158467e-05 1.3620399e-05 1.5402866e-05 2.091709e-05 1.5999001e-05 1.9724499e-05 2.8754312e-05 2.2970164e-05
2.7328788e-05 1.6424481e-05 2.1998438e-05 1.9631976e-05 3.381468e-05 1.4522305e-05 1.5514406e-05 1.9025021e-05
2.3102148e-05 3.3297933e-05 1.6876236e-05 1.6082355e-05 3.3366152e-05 1.6612543e-05 1.7387078e-05 9.614441e-06
1.6202071e-05 3.1428648e-05 3.3679564e-05 1.3484115e-05 3.065284e-05 2.3336645e-05 1.1580861e-05 1.5869044e-05
1.1708079e-05 3.472087e-05 2.0608999e-05 1.5355854e-05 2.5131832e-05 3.3073615e-05 1.0050607e-05 2.4220353e-05
1.7128441e-05 2.1276024e-05 3.139719e-05 1.9958039e-05 3.1893294e-05 3.033052e-05 1.41175715e-05 3.0597574e-05
3.1460677e-05 2.7198863e-05 2.0474921e-05 1.8711266e-05 2.5563066e-05 1.5351021e-05 1.3217723e-05 3.1662265e-05
2.4321678e-05 1.7852792e-05 3.0586263e-05 1.9264515e-05 1.078779e-05 1.4169731e-05 3.312731e-05 3.6584872e-05
1.0147301e-05 6.4416536e-06 9.13996e-06 1.0404737e-05 6.1232076e-06 8.113121e-06 6.677566e-07 6.624144e-06
1.1646704e-06 6.54754e-06 9.235324e-06 3.7504758e-06 3.1942448e-06 9.673548e-06 3.5648493e-06 3.123077e-06
6.1344003e-06 3.0702106e-06 3.6742917e-06 8.936995e-06 5.418689e-06 6.7860815e-06 1.1094947e-05 6.2330682e-06
7.292587e-06 1.6951246e-06 7.185169e-06 1.3986844e-06 3.9704437e-06 1.9391525e-06 3.318596e-06 4.020385e-06
2.29801e-06 5.659818e-06 2.1124401e-06 4.9546484e-06 7.638702e-07 1.0353226e-06 1.6042337e-06 4.5691245e-06
4.2110883e-06 1.0834999e-05 3.5621476e-06 4.118278e-06 1.8994915e-06 5.966508e-06 2.4128938e-06 4.476497e-06
3.6112776e-06 1.323493e-06 2.590032e-06 8.932832e-06 1.984016e-06 1.5535699e-06 3.4323175e-06 2.6149971e-06
2.0838872e-06 3.0094377e-06 7.787782e-06 4.477451e-06 2.6592154e-06 3.7828438e-06 4.6537148e-06 7.0210517e-06
00000000: 06cf 3938 3955 1238 2541 4038 0be9 4d38
00000010: 5435 f737 7268 2238 c58b a137 b3a4 2c38
00000020: 0faf cc37 423a 0538 1ad8 4238 b216 0038
00000030: 545c 2f38 68ca 5038 e99e bc37 9add f937
00000040: 6285 2338 4a3d 0738 5498 ca37 cd33 4938
00000050: 313e 4138 b052 0838 cc19 5a38 70ce 2838
00000060: 3b6e 3d38 bd3b ad37 7a4e 8f38 cdb0 cf37
00000070: 3142 3238 1954 ce37 d251 b437 8712 2038
00000080: f5b6 cd37 bbc8 6838 c252 d737 f6e0 fb37
00000090: 1909 ae37 4802 ed37 6c6d b537 1133 0d38
000000a0: 4c3a 0138 df53 7538 7b3f 2938 da8d 0438
000000b0: 7d9f f237 f165 6938 c443 e537 a88d 2138
000000c0: 8d02 1638 618d c437 1aaf f337 0141 4b38
000000d0: b116 ce37 59e8 ea37 9564 e937 46cb 0338
000000e0: 4605 9037 6b2d ec37 7ee2 6238 15f7 1238
000000f0: c7e8 a537 469a e437 a08a 2c38 e8fb 8438
00000100: ad83 2737 bdf8 e336 87eb 2437 87dc 2f37
00000110: 1320 b336 2d94 eb36 1321 1536 5165 fd36
00000120: 7288 1436 9b98 cd36 473d 1237 2ab8 5f36
00000130: bc5d 8b36 5d9b 3137 2dd7 4436 c51e 6a36
00000140: b756 1f37 742c 8336 28db 3c36 8723 1e37
00000150: fc5e ae36 33f5 f536 92db 3637 b73b 0537
00000160: 7798 0737 ff70 7236 43fb fd36 3edf 9736
00000170: 9620 aa36 c190 7736 ad55 4a36 d90c a236
00000180: 1456 8e36 e5f8 ff36 07a6 2636 8736 9936
00000190: e7a4 0636 060c 3836 9cdc 8336 0229 7c36
000001a0: 0788 a636 a683 3937 7aea a036 eb50 a636
000001b0: 97ee 4d36 8cec b436 adfe b736 4f0c 8b36
000001c0: e1ae 8c36 e8f2 0536 193d 3f36 aa2b 1237
000001d0: 4d6a 2d36 5f8f 9336 7d1d 8c36 c3f1 6736
000001e0: 7ff3 d935 4c54 6e36 580d 1d37 873d b236
000001f0: ce0a 8736 b363 8136 12e8 9436 3b84 fe36
00000200: 1f51 7e37 2b83 6437 6735 8137 1c77 af37
00000210: 9835 8637 0a76 a537 6a35 f137 0db0 c037
00000220: 2040 e537 4ec7 8937 4989 b837 59af a437
00000230: 3cd4 0d38 d3a4 7337 ef24 8237 ec97 9f37
00000240: 7ccb c137 62a9 0b38 7191 8d37 98e8 8637
00000250: a2f2 0b38 2a5b 8b37 77da 9137 b64d 2137
00000260: afe9 8737 41d2 0338 2843 0d38 d539 6237
00000270: 3d91 0038 10c3 c337 6b4b 4237 831e 8537
00000280: d16d 4437 40a1 1138 7de1 ac37 72d0 8037
00000290: 33d2 d237 86b8 0a38 079f 2837 d02c cb37
000002a0: 0caf 8f37 ea79 b237 7ab0 0338 906b a737
000002b0: 2ac5 0538 4c6e fe37 82da 6c37 e555 0038
000002c0: a5f4 0338 1d29 e437 8fc1 ab37 23f6 9c37
000002d0: 4470 d637 11c6 8037 b0c1 5d37 19cd 0438
000002e0: 6806 cc37 94c2 9537 c049 0038 3b9a a137
000002f0: 35fd 3437 88ba 6d37 2ef2 0a38 b572 1938
00000300: 533e 2a37 6225 d836 d457 1937 0190 2e37
00000310: f475 cd36 971d 0837 e23f 3335 f744 de36
00000320: c551 9c35 f1b2 db36 6af1 1a37 afb0 7b36
00000330: b55c 5636 934b 2237 a53b 6f36 0e96 5136
00000340: 19d6 cd36 d109 4e36 da93 7636 1af0 1537
00000350: 2fd2 b536 ffb3 e336 6f24 3a37 a625 d136
00000360: d8b2 f436 0a84 e335 2218 f136 6eba bb35
00000370: da39 8536 6322 0236 0cb5 5e36 d8e6 8636
00000380: 8337 1a36 77e9 bd36 72c3 0d36 1b40 a636
00000390: c30c 4d35 6af5 8a35 0d51 d735 7b50 9936
000003a0: f94c 8d36 f7c7 3537 3b0d 6f36 bd2f 8a36
000003b0: 08f2 fe35 ea33 c836 33ed 2136 d134 9636
000003c0: 4759 7236 e0a2 b135 69d0 2d36 39de 1537
000003d0: 2325 0536 4184 d035 c456 6636 4f7d 2f36
000003e0: e9d8 0b36 bff5 4936 45a8 0237 033d 9636
000003f0: f974 3236 c3dc 7d36 1b27 9c36 6096 eb36

exp_avg f4 [32]
5.3130245e-10 1.4827133e-11 -1.6462173e-10 -4.4483826e-11 1.7468023e-10 -3.2734626e-10 -2.2681482e-10 8.327343e-11
9.857601e-11 -4.1998793e-10 -2.3632524e-10 5.978853e-10 5.888505e-10 -3.5586242e-11 -3.1474745e-10 -3.0951441e-10
-1.3371124e-11 1.8491228e-10 4.1379536e-10 -1.10416384e-10 -4.0897147e-10 -2.570807e-10 -2.8562534e-12 1.5016252e-11
4.262584e-10 3.414679e-11 7.5593545e-11 -1.4159836e-10 -2.0023742e-10 -1.7807984e-10 -1.554352e-10 4.9791393e-11
00000000: 160b 1230 bc6b 822d e600 35af 56a4 43ae
00000010: 1d10 402f e4f5 b3af b262 79af c61e b72e
00000020: 5cc5 d82e 0ce4 e6af d2eb 81af 7058 2430
00000030: acdc 2130 8c82 1cae c408 adaf 4828 aaaf
00000040: 303a 6bad 2e50 4b2f 857c e32f e6ce f2ae
00000050: 9ed5 e0af e454 8daf b0fd 48ac 9815 842d
00000060: 8956 ea2f de2d 162e 623b a62e 65b0 1baf
00000070: d329 5caf 05cd 43af 1fe7 2aaf 20fc 5a2e

exp_avg_sq f4 [32]
1.4593232e-18 2.8156939e-19 1.841576e-18 1.3308126e-19 1.909096e-18 6.498992e-18 4.0018924e-18 1.6967105e-18
2.9659938e-18 4.081814e-18 2.9378149e-18 2.8453452e-18 2.5374435e-18 1.0414529e-18 3.9179046e-18 2.5172186e-18
1.9953317e-18 2.849809e-18 3.8767093e-18 6.448733e-19 3.4627302e-18 3.716974e-18 2.4197874e-19 3.1786318e-18
1.1857156e-18 4.955941e-18 4.147127e-19 3.8443103e-18 5.165206e-18 4.3262513e-19 1.4704472e-18 2.9618548e-18
00000000: ac5b d721 9035 a620 63e2 0722 581d 1d20
00000010: cedd 0c22 3ec5 ef22 cea4 9322 e963 fa21
00000020: 0ada 5a22 a597 9622 c1c5 5822 0df3 5122
00000030: f43a 3b22 fab0 9921 908b 9022 eabc 3922
00000040: c03a 1322 5f47 5222 7c06 8f22 4055 3e21
00000050: 2081 7f22 d421 8922 cbd6 8e20 a88a 6a22
00000060: 12fb ae21 8ad7 b622 9dcd f420 7cd4 8d22
00000070: fe8f be22 7660 ff20 edff d821 db8b 5a22
